best_model.pth (torch, 141995 bytes, 17 tensors)

lstms.0.weight_ih_l0 f4 [128, 1]
000000 7a 3e 8c 3e f5 d4 18 bc 61 3e 05 be b2 69 c9 bd
       0.27391416 -0.009328117 -0.13012077 -0.09834613
000010 fe 0d 71 be 76 bd 77 bc af e0 52 3e 8d 85 e0 3e
       -0.23540494 -0.015120855 0.20593522 0.4385189
000020 b4 f2 27 3e 89 e6 6f 3c 60 7f 5b be 38 51 89 3e
       0.16401178 0.014642366 -0.21435308 0.26819777
000030 11 01 f5 3c 16 84 aa bd 34 7b 3a bd a2 d8 c1 bd
       0.029907735 -0.08325975 -0.045527652 -0.094651476
000040 15 9a 01 bc 69 12 cc bc 63 1d b0 3e 35 d1 45 3d
       -0.007910271 -0.024911122 0.3439742 0.04829522
000050 15 5c 5a be 2c 87 25 3f 8a 73 de bd 0d fc 30 3f
       -0.21324189 0.6465938 -0.10861881 0.691346
000060 1e 90 4b 3c cf bf d9 3c c6 bd 88 3e bf 05 2e be
       0.012424497 0.02658072 0.26707286 -0.1699438
000070 cd 37 31 3e 83 32 ae bd eb 6f 37 3e 55 7c dd bd
       0.17306443 -0.08505728 0.17913787 -0.1081473
000080 8d 81 69 be c2 66 88 bd 20 df d1 bd ea 36 20 3e
       -0.22803326 -0.066602245 -0.10247636 0.15645948
000090 f5 32 54 bd 4b b1 0c 3e aa 5c 30 3e 9c 2d c0 3d
       -0.05180641 0.13739507 0.17222849 0.09383699
0000a0 8f a8 5e 3d b4 3f a1 3d 0f a1 77 be f2 f0 b0 bd
       0.05435997 0.078734785 -0.24182533 -0.08639707
0000b0 29 83 89 3c 56 39 14 3e ac 80 1e 3d 7c c1 e2 3d
       0.016786175 0.14474997 0.03869693 0.110720605
0000c0 34 31 0b bb f3 0c 9d 3c 98 e2 91 bc 2e 2d 12 be
       -0.0021239044 0.019171214 -0.017808244 -0.14275047
0000d0 3d 67 71 3e 16 a6 2c 3e 9d 9e e0 3d b7 c5 2f 3e
       0.23574539 0.16860232 0.10967753 0.17165266
0000e0 9e bb d5 3d da 79 3e 3d 0b db 99 bd 19 94 78 be
       0.10436176 0.046502925 -0.07512482 -0.24275245
0000f0 61 0d dd 3d fe 04 ca 3c 42 c9 e8 3d da dd 23 3d
       0.107935674 0.024660584 0.11366512 0.040006496
000100 5e 6b 81 be 12 11 93 be 6e 85 97 3e 5c cd e1 bc
       -0.25277227 -0.2872396 0.29593986 -0.027563743
000110 00 fd 80 be 42 6c 35 3e ff 37 7a be 15 d2 32 be
       -0.25193024 0.17717078 -0.24435423 -0.17462952
000120 62 3e 2e 3e 03 d5 29 be 5a 78 b8 be 97 4c 78 be
       0.17015985 -0.16585164 -0.3602932 -0.24247967
000130 07 87 23 be cf 8b 1d be b7 04 19 3e 8d ba 04 3e
       -0.15969478 -0.15385364 0.14943205 0.12961788
000140 4e 52 eb bd c6 5e 43 be 6c 8f 3b be 9b 63 3c 3e
       -0.11490308 -0.19079122 -0.1831643 0.18397371
000150 41 1a a3 3d c4 46 3e 3e 93 9c 15 be 8e 1e 09 3e
       0.07963992 0.18581682 -0.1461051 0.13390562
000160 8f d7 39 be 3e 71 92 bc 57 a9 12 be da 63 5b 3e
       -0.18148635 -0.017876264 -0.1432241 0.21424809
000170 d5 9b 8a be c2 81 89 3e 07 19 2d 3e 39 7d c1 bc
       -0.27072015 0.2685681 0.16904078 -0.023619281
000180 76 1d 72 3e f7 5d 56 3e 3f 7c 68 be c5 44 c6 3d
       0.23644051 0.20934282 -0.22703646 0.096810855
000190 20 43 0d 3f f6 f2 01 3f c7 86 c8 3e 19 91 62 bc
       0.5518055 0.50761354 0.39165327 -0.013828539
0001a0 e0 29 70 3e 2e e2 08 3f b1 e8 42 bd 6b c9 71 3e
       0.23453474 0.5347012 -0.047585193 0.23611991
0001b0 c0 ff c2 3e 55 a9 f5 3e 0f 93 84 3e bb 37 4e 3e
       0.38085747 0.47980753 0.25893447 0.20138447
0001c0 a8 36 bc 3d fe 39 ea 3e 28 90 d8 3e 10 01 9c 3e
       0.09190112 0.4574737 0.42297482 0.3046956
0001d0 a9 7a af 3e 85 36 0c 3e f5 a3 0b bb 96 da db bc
       0.3427327 0.13692673 -0.0021307443 -0.026837628
0001e0 8f 2c cb 3d b2 e1 c9 3d 0f 87 96 3e 49 94 e8 bd
       0.09920608 0.09857501 0.29399917 -0.11356408
0001f0 cd a8 03 3e 8e 6a 45 be 72 74 88 3a 94 7c 07 3e
       0.12857361 -0.19278929 0.001041068 0.13231117

lstms.0.weight_hh_l0 f4 [128, 32]
000000 05 5b 20 3d 94 ee b9 bd e8 91 77 3c 5f 4a 09 3f
       0.039149303 -0.09078708 0.01511047 0.53629106
000010 d4 0f 70 be ae ea 24 3e 78 55 11 be 6a 4d c0 be
       -0.23443538 0.16105148 -0.1419276 -0.37559062
000020 d5 ab c7 3d 9a dc 42 be 32 73 5e bd fd 4c 98 be
       0.09749571 -0.19029465 -0.054309078 -0.29746237
000030 c6 40 06 3e d3 89 07 be 63 4d 2d be d4 7f 58 bd
       0.13110647 -0.1323617 -0.16924052 -0.05285628
000040 ea d0 d8 bd e6 46 97 ba dc 15 48 be 55 83 f8 3d
       -0.10586722 -0.0011541515 -0.19539589 0.121344246
000050 84 0c af bb 9b 36 26 3d ef 78 00 3e c7 e0 fe 3d
       -0.005342068 0.04057942 0.12546133 0.124452166
000060 4f 42 64 3e 06 b9 3e be 4f 28 d3 bd 6e 2c 21 be
       0.2229092 -0.18625268 -0.10310423 -0.15739605
000070 60 05 43 be 37 5d b3 bd 42 83 71 3a f3 a1 0f bf
       -0.19045019 -0.08758014 0.00092129793 -0.5610649
000080 9b 41 29 be c0 97 9f 3d 91 29 38 bd aa 60 85 3d
       -0.16528933 0.07792616 -0.044961516 0.06512578
000090 fd 9d 1f 3e a8 60 3b be 2e a2 ed 3d b8 04 92 3e
       0.15587611 -0.1829859 0.11603199 0.28519225
0000a0 b3 1d 2f 3e e4 91 bd 3e 01 30 64 3e 2d 3e 97 3d
       0.17101173 0.37025368 0.22283937 0.07384906
0000b0 e8 35 8c 3e 06 a1 2f 3e 96 5b c3 be a5 ef d9 be
       0.27384877 0.1715127 -0.38155812 -0.42565647
0000c0 b2 e6 ea 3e 6e b1 8f 3e 32 cf 14 bd cc aa 8f be
       0.45879132 0.28065056 -0.03633041 -0.28059995
0000d0 8b 39 bf 3e 74 bc 89 be a5 21 c7 3e 20 ee f6 be
       0.3734859 -0.2690159 0.38892856 -0.4822855
0000e0 7e 77 7c 3e 96 5c 2d 3e 44 a1 55 be 6a c6 67 be
       0.24654958 0.1692985 -0.20862299 -0.22634283
0000f0 a2 a1 8f 3e 53 d6 ae 3e c0 68 05 bf 55 f6 d1 3d
       0.28053004 0.3414789 -0.5211296 0.10252062
000100 87 3c f0 be e4 6f ca bd f3 4a 54 be c7 41 3e 3e
       -0.4692118 -0.09884623 -0.20731716 0.1857978
000110 a8 22 4e be 02 fa f4 bd 63 be c7 be b5 a5 0f 3d
       -0.20130408 -0.11961748 -0.3901244 0.03507014
000120 ff 13 0f 3f ee 2a c1 3e bc 4b ee 3e 24 7e 22 be
       0.55889887 0.37728065 0.46542156 -0.15868431
000130 d0 83 2a 3e 61 fb 24 be ca 1b 9a be eb ad 73 be
       0.16651845 -0.16111518 -0.30099326 -0.23796813
000140 57 28 b4 bc d1 62 73 3d 49 24 0f be b1 8f 88 3d
       -0.021991892 0.05942041 -0.13978685 0.06668032
000150 b9 d7 ff 3e 0c 67 02 bd 41 ca 84 3e 61 47 4e be
       0.4996927 -0.031836554 0.25935557 -0.20144416
000160 10 09 8a 3e d4 b0 82 be ae 44 06 bf 04 3f 4f be
       0.2696004 -0.25525534 -0.52448547 -0.20238882
000170 4b 75 12 bd 13 ac 68 3b 48 f2 ba bd ab 60 f3 be
       -0.03575639 0.0035502955 -0.09128243 -0.4753469
000180 80 3b 0a 3e fd eb e9 3d a1 6b 1f be b0 78 a2 3e
       0.1349926 0.11421964 -0.15568401 0.31732702
000190 aa 7e 4f 3d c8 5e 42 3e b7 57 5d 3d 41 21 ce be
       0.050657906 0.18981469 0.05403873 -0.40259746
0001a0 72 be 93 be 58 6d fc be 40 f4 95 3e 48 d8 ab 3e
       -0.28856236 -0.49302173 0.2928791 0.33563447
0001b0 b6 74 1c bf d5 cf 81 be c1 e6 84 3e 84 92 e8 3e
       -0.61115587 -0.25353876 0.259573 0.45424283
0001c0 4d 28 85 be f3 14 90 be 57 cb bd 3d 2d 53 7b 3e
       -0.2600731 -0.28140983 0.092672996 0.24543448
0001d0 3f 71 f2 bd 78 b0 e7 3e 39 fd e2 be c0 2b ca 3e
       -0.11838006 0.45251822 -0.4433382 0.39486504
0001e0 03 0d ed be b7 1d 13 bf 81 56 64 3e 48 17 8f be
       -0.4629899 -0.57467216 0.22298624 -0.2794745
0001f0 ed 86 65 3e f9 30 c0 be 7f 1d 9c 3e 57 07 ef be
       0.22414751 -0.37537363 0.30491254 -0.46685287
000200 53 b9 f9 3d 97 fd 61 3e b9 3b 04 be 97 f6 d5 3e
       0.12193551 0.22069393 -0.12913407 0.41789696
000210 32 d1 8e be 17 32 a2 3e 61 be 03 3e 38 d1 3e bf
       -0.27893978 0.3167884 0.12865593 -0.7453799
000220 ee 93 70 3d 3d a9 03 bf 46 2f 5e 3e ad 2d b9 3d
       0.058734827 -0.5143011 0.21697721 0.09041915
000230 98 5d dd be ce d4 03 bf 4a 25 34 3f 8d d7 19 3f
       -0.4323547 -0.5149659 0.703694 0.6009453
000240 a8 cd 95 be 14 a1 31 bf 3c 0b 5b 3e f1 af c3 3e
       -0.29258466 -0.6938641 0.21391004 0.3822017
000250 52 3d 00 be 32 80 ae 3e 65 33 ad be fe d9 e3 3e
       -0.12523392 0.3408218 -0.33828273 0.44502252
000260 05 0d 22 bf 42 60 36 bf dd 37 b3 3d ca 1b 6d be
       -0.63301116 -0.7124063 0.087508895 -0.23155132
000270 72 27 82 3e 0d e2 6f bd 19 db 33 3f f4 7c 8d be
       0.2542072 -0.05856519 0.7025619 -0.27634394
000280 83 88 27 be d8 cd 43 3d a8 ab 9c 3e f1 ca 58 3f
       -0.16360669 0.04780373 0.30599713 0.84684664
000290 39 02 f8 be 87 d7 39 3e dd 72 2a be 70 1a 13 bd
       -0.48439196 0.18148623 -0.1664538 -0.035913885
0002a0 53 b7 8f 3e fd 26 40 3e 67 8b 87 be 9d ca f0 bd
       0.28069553 0.18764873 -0.26473543 -0.117573954
0002b0 36 4c 17 bf 11 87 29 bf 76 4b 6f 3e 2e 14 8b 3e
       -0.59100664 -0.6622172 0.2336863 0.27163833
0002c0 7c 61 2e bf d4 f9 7c 3e b7 d1 ff 3c c0 3d d6 bb
       -0.681175 0.24704677 0.03122793 -0.006538123
0002d0 99 bd aa 3e a8 4f d4 3c d6 8c 38 bf aa fb 9d 3e
       0.33347777 0.02591689 -0.720899 0.30856067
0002e0 fd 5f 9b 3c 85 53 0f bf 99 f8 f2 bd 7d a4 46 be
       0.01896667 -0.55986816 -0.118638225 -0.19398685
0002f0 fc db 8f 3d a5 06 8d 3d 36 65 9c bc 82 91 53 bf
       0.070243806 0.06886033 -0.01909123 -0.826439
000300 1f a4 88 3d 1c 74 a5 3d 67 80 d7 bd cb 02 63 be
       0.066719286 0.08078787 -0.10522538 -0.22169034
000310 27 8b 5e 3e 15 25 02 bf 5b e3 77 3d a9 6e d3 3e
       0.2173277 -0.5083783 0.060519557 0.41295364
000320 61 7a a5 3e 0f 26 c6 3e d8 f7 14 3e 73 fd db 3d
       0.3231993 0.3870091 0.1454767 0.10741701
000330 1c bb f7 3e ff a1 ec 3e 85 93 9a be 7a 7d 82 be
       0.4838494 0.46217343 -0.30190673 -0.25486356
000340 e7 76 cb 3e 7f b1 8f 3e 9e 2a 05 be 8d ec 9d be
       0.39739153 0.28065106 -0.13004538 -0.30844536
000350 69 d2 0e 3f e2 c2 6c be 40 d4 bc 3e 03 10 be be
       0.5578981 -0.23121217 0.36880684 -0.3712159
000360 ba 52 47 3e 82 df dd 3e d4 f1 86 be 03 67 fd bd
       0.19465151 0.43334585 -0.26356375 -0.123731636
000370 88 99 7b 3e ea 3a 9f 3e ef a1 11 bf a7 d0 f5 bd
       0.24570286 0.31099635 -0.56887716 -0.12002688
000380 87 76 ac be 11 22 8b be 32 1a 0b 3f 89 07 9f bc
       -0.3368418 -0.27174428 0.54336846 -0.019412773
000390 01 a9 19 be 35 f2 92 3e 3b 89 0e bf 7d a8 db be
       -0.15005876 0.28700414 -0.5567815 -0.42901984
0003a0 55 71 b7 3e 8b 8f f3 be 26 50 64 bf c2 d1 f7 be
       0.35828653 -0.47570452 -0.89184797 -0.4840222
0003b0 da f8 70 be 8b ff 1f bf 19 b1 c2 3e ac ef 43 3e
       -0.2353243 -0.624993 0.3802574 0.19134396
0003c0 5c ca 44 be 0a ad d2 be f2 75 b3 bd ed b1 28 3e
       -0.19217819 -0.41147643 -0.08762731 0.16474123
0003d0 ef 8c 82 3e e5 20 a1 3e 37 a5 f5 be 54 cb ca 3e
       0.2549815 0.3147041 -0.4797761 0.39608252
0003e0 22 6e 21 be b2 d8 72 be c4 c0 23 bd 43 e8 51 3f
       -0.15764669 -0.23715475 -0.039978758 0.8199503
0003f0 eb 97 49 bf ba 1a 80 3e 7d 5d 97 3e 13 7b cd 3d
       -0.78747433 0.2502039 0.29563513 0.1003324

lstms.0.bias_ih_l0 f4 [128]
000000 88 72 a6 3e 1b ac 23 3f 82 53 f6 3e fe 3e a6 bd
       0.32509255 0.6393449 0.48110586 -0.081174836
000010 8f d4 0b be 2b 57 86 be bb b9 64 3e ff 64 b5 be
       -0.13655303 -0.2623838 0.22336476 -0.35428616
000020 22 d0 72 3e bd 43 28 be 8f e9 5d 3d 40 5c fd 3e
       0.23712209 -0.1643209 0.054177817 0.49484444
000030 3d d7 ee be 2a 9b d3 be f1 84 96 be cf af 0c bf
       -0.4664859 -0.41329318 -0.293983 -0.5495576
000040 0a 3f c9 be 85 4b 9e 3d e9 ee 93 3e 64 67 9c be
       -0.39305907 0.07729248 0.2889321 -0.3054763
000050 fa 23 79 be e4 cf a8 be 52 ba 91 be 54 95 59 be
       -0.2433013 -0.32971108 -0.28462464 -0.2124837
000060 5e 7f fa be 5f 4b ce be 80 c3 0b 3e 09 83 02 3e
       -0.48925298 -0.4029188 0.13648796 0.12745298
000070 ed 61 1f 3f 3c db ee 3e 44 31 1f bf 1b fa f4 bd
       0.622588 0.46651638 -0.6218455 -0.11961766
000080 d8 70 ee bd ea 5a 9b bb b1 2d f9 bd 5f 7e 1d 3e
       -0.11642617 -0.0047410624 -0.12166918 0.15380238
000090 04 c9 1e 3e 1b ee 9c be 72 50 48 bd cf 0a c5 be
       0.15506369 -0.3065041 -0.048904844 -0.3848481
0000a0 99 38 64 bd d4 0e f8 bd 16 0e cb 3d 9a 00 b3 3e
       -0.05571804 -0.12112203 0.09914796 0.34961396
0000b0 fd 66 d1 be 2b 02 7b be 73 93 ab be 89 c6 ed be
       -0.40898886 -0.24512546 -0.33510932 -0.46440533
0000c0 e7 a5 01 bf 32 c2 df bd c9 4c d7 bd e2 68 b2 3d
       -0.5064377 -0.10925712 -0.105126925 0.08711411
0000d0 74 10 fd 3d 76 20 96 bd d7 e2 8f be b8 9f 4a be
       0.12356654 -0.0733041 -0.28102753 -0.1978749
0000e0 23 46 b9 be 68 4a 05 be ca f5 52 3b 2e d1 9a bd
       -0.36186323 -0.13016665 0.0032189959 -0.07559429
0000f0 72 8c 66 3d 21 e6 a2 3d 4d cd b6 be c3 36 53 be
       0.056286283 0.0795405 -0.35703507 -0.20626359
000100 7a 55 43 be e7 72 34 be 71 75 1b bd c7 23 30 bc
       -0.19075575 -0.17621957 -0.037953798 -0.0107507175
000110 52 ff 85 be 4a e6 64 be cb f6 7e bd 62 1d 76 3e
       -0.26171356 -0.22353473 -0.06224708 0.24034646
000120 62 51 7b 3c 16 a0 75 3d 1f d6 42 be e8 d0 7a be
       0.015339227 0.059967123 -0.19026993 -0.24493754
000130 95 51 8b 3e d0 a6 79 3e 01 77 56 bb a6 f2 de 3a
       0.2721068 0.2438004 -0.003272474 0.0017009571
000140 4f a6 23 3e b2 a8 84 3e 37 75 b9 be 17 ec 64 be
       0.1598141 0.25909954 -0.3622224 -0.22355686
000150 60 fc 08 3c 80 cc b1 be 08 8e 25 3e af 23 b3 be
       0.008360952 -0.34726334 0.16167462 -0.34988162
000160 94 7d 4a 3e 67 a0 e0 bd d2 56 ce bd b1 aa 51 bd
       0.19774467 -0.10968094 -0.100751534 -0.051188175
000170 e3 16 08 be ad 62 36 3e f0 84 77 be cf 0a 0b be
       -0.1328998 0.1781108 -0.24171805 -0.13578342
000180 a4 21 92 3e 28 49 fc 3e 23 54 76 3e 7e 23 94 3e
       0.2854129 0.49274564 0.24055533 0.28933328
000190 2a a2 15 3e d2 ce 0e bf b1 24 10 3f cb ca ad bd
       0.14612642 -0.5578433 0.56305987 -0.08485945
0001a0 69 ff 72 3e 21 e1 97 be 4a 2a 24 3f bb bd d8 3e
       0.23730244 -0.29663947 0.6412703 0.42332253
0001b0 49 f6 c8 be 60 85 e3 be 92 d0 6f be d4 ea 21 bf
       -0.392504 -0.44437695 -0.23419407 -0.63248944
0001c0 76 96 bf be 1c 30 10 be 83 8d 14 3e 1c 1e 6b be
       -0.3741948 -0.14080852 0.14507107 -0.22960705
0001d0 42 3c 23 3f d2 37 55 3c 19 7f 0d bf aa 07 ff bd
       0.6376382 0.013013797 -0.5527206 -0.12452634
0001e0 72 4c 2f be c6 ff 97 bc 6f d6 ad 3d 36 66 d3 3e
       -0.17119005 -0.01855458 0.084881656 0.41288918
0001f0 11 63 f0 3e b4 cf c5 3c 16 b9 6e be 5c 2b ac be
       0.46950582 0.024146892 -0.23312792 -0.3362683

lstms.0.bias_hh_l0 f4 [128]
000000 e6 9a be 3e 57 b5 2a 3f d5 7e 19 3f 59 b8 a7 bd
       0.37227553 0.6668295 0.59959155 -0.081894584
000010 16 2c d2 bd 85 e0 87 be 1f 40 b4 3e 01 b1 99 be
       -0.10262315 -0.26538482 0.3520517 -0.30017856
000020 58 5b 0c 3f f6 64 a2 bd 65 f7 90 3e 42 29 cf 3e
       0.5482688 -0.07929413 0.28313747 0.40461165
000030 cc d4 2c bf 3f af 5d be 99 9c 69 be 38 35 e3 be
       -0.675122 -0.21648882 -0.22813644 -0.4437654
000040 97 1a 8c be 6f 94 00 be fb 7a f9 3e 36 48 bc be
       -0.27364036 -0.12556623 0.4872664 -0.36773843
000050 0e f3 4c be f5 04 51 be b2 ac dd be 5e d8 b9 be
       -0.20014593 -0.20412047 -0.4329582 -0.36297888
000060 28 43 ad be 90 8c bc be c5 31 a2 3e 6a 17 17 b9
       -0.338403 -0.3682599 0.31678596 -0.00014409205
000070 8a 4b 38 3f b1 7c 30 3e e9 b7 44 bf f3 2f 4e bd
       0.71990263 0.17235066 -0.76843125 -0.050338697
000080 69 42 42 3c b4 78 7e 3d d3 d9 0e 3d 86 f5 04 be
       0.011856654 0.06212683 0.034875702 -0.12984285
000090 67 3b 82 3e 28 84 f6 be 0e cb 43 3c 9f 84 41 be
       0.25435945 -0.48147702 0.0119502675 -0.18898247
0000a0 a6 d6 28 3d 27 9b 93 3c 7d 05 b0 bd 40 2e 82 3e
       0.04122033 0.018018318 -0.08594797 0.2542591
0000b0 6d 59 85 be 4d c2 cb be d8 7c d7 be 7c c1 e5 be
       -0.2604479 -0.39796677 -0.42087436 -0.4487418
0000c0 23 19 a3 be 9a 52 b2 bd e9 59 d6 bc 2e 8a 0a 3d
       -0.31855115 -0.08707161 -0.02616592 0.033823185
0000d0 cb bd 83 3e d0 67 9e be 6c ae 5c be b5 54 a8 be
       0.25730738 -0.30938578 -0.21550912 -0.32877126
0000e0 d8 99 b4 be 24 05 9d bc c1 05 a5 3d 12 44 96 be
       -0.35273623 -0.01916749 0.08057738 -0.2934881
0000f0 d1 ca 06 3e 25 82 12 3e 24 6c 8a be 3a 3a 93 be
       0.13163306 0.14307459 -0.2703563 -0.2875536
000100 95 6a 84 be 99 0b ad bd ce 1d fb 3d cd 5b 25 3e
       -0.25862566 -0.08449478 0.12261544 0.161483
000110 8d f1 7f be fc 5d 05 be 53 93 21 be ce 2e a0 3e
       -0.24994488 -0.13024133 -0.15778856 0.3128571
000120 05 12 dd bb 12 2f a9 3e bb ba 15 3d a1 af 44 be
       -0.006746533 0.33043724 0.036555033 -0.19207622
000130 82 d7 90 3d 7c 23 86 3e 93 85 81 be 5f e0 65 be
       0.07072355 0.26198947 -0.25297222 -0.22448872
000140 a1 f4 34 bd 51 20 10 3e 40 a0 06 bf d1 62 8a bd
       -0.04417861 0.14074828 -0.5258827 -0.06757129
000150 8e 56 cb 3d e4 35 64 be c0 94 e2 3d 79 76 a5 be
       0.09928618 -0.22286183 0.11063528 -0.3231695
000160 ab ce be 3c 5b 4e 8e bc f4 88 7d be fa 47 76 bc
       0.023291906 -0.017371347 -0.24759275 -0.015031809
000170 2a d2 b4 bd 59 b2 7c 3e 09 f4 c3 be 4b 0d 05 bd
       -0.08829148 0.24677409 -0.38272122 -0.03248338
000180 0c 03 49 3c 8c 09 b3 3e 32 9c d0 3d da 77 06 3e
       0.012268793 0.3496822 0.10186042 0.13131657
000190 a3 c8 73 3e c8 bf b4 be cb 81 94 3e ef 48 fc bd
       0.23807006 -0.35302567 0.29005274 -0.123185985
0001a0 99 ae 5d 3e 8b 89 da be 83 63 55 3f 72 7e ab 3e
       0.21648635 -0.42683062 0.8335497 0.33494908
0001b0 4d 36 71 be c9 a1 f2 be 15 1d 91 be f4 3c 18 bf
       -0.2355587 -0.47389057 -0.283425 -0.5946801
0001c0 02 82 0c bf 7a 8e f9 bd cf 00 0f 3e ab 98 f9 be
       -0.54885876 -0.121853784 0.13965152 -0.4874929
0001d0 ce 06 e5 3e 32 29 cc bd d5 45 09 bf 66 6b 8c bd
       0.44731754 -0.09968795 -0.5362218 -0.06856422
0001e0 92 6e bd be 04 b0 96 bb 13 fb 89 3e c6 00 85 3e
       -0.3699842 -0.0045986194 0.26949367 0.25977153
0001f0 21 96 f0 3e 06 2e 0f 3e 98 5d 60 be 34 cf 06 bf
       0.4698954 0.139824 -0.21910703 -0.52659917

lstms.0.weight_ih_l0_reverse f4 [128, 1]
000000 d7 62 92 3a a0 ed 20 be 1c 6b 2b bd 71 2e f4 bd
       0.0011168373 -0.15715647 -0.041850194 -0.119229205
000010 65 5b 0e be 0d dd bb 3d d6 58 a1 bd c0 f0 02 3d
       -0.13902052 0.091730215 -0.07878272 0.03196788
000020 a2 35 65 3e 83 f1 b7 bd e2 2a 08 be 25 08 00 3e
       0.2238374 -0.089816116 -0.13297608 0.12503107
000030 e5 15 bb 3c 8d 19 ac 3d 6d 75 e0 bd 56 5a 14 be
       0.022837589 0.08403311 -0.10959897 -0.14487585
000040 8a 7d 73 bd fd ef cb bd 37 cc 17 be 87 52 d8 bd
       -0.059445895 -0.099578835 -0.14823996 -0.10562616
000050 17 41 b9 3d 8d 56 22 3e 97 d6 cd 3d a4 c0 1f be
       0.09045618 0.15853329 0.100506954 -0.1560083
000060 01 dc 18 be 4d cb aa bd 8f 32 df bd e7 59 8a bd
       -0.14927675 -0.08339558 -0.10898315 -0.06755429
000070 67 ab c5 3d fd 56 b5 3d 79 fc df bd 8f 23 d6 bd
       0.09651833 0.08854482 -0.10936827 -0.10456001
000080 46 eb a8 3e 2d e7 b4 3e a8 20 84 3e 9e df 96 3e
       0.32992 0.35332623 0.25806165 0.2946748
000090 18 66 dd 3e db 53 10 3e 16 8b b2 3e f3 1c a6 3d
       0.43241954 0.14094488 0.3487174 0.081109904
0000a0 c9 a1 8a bd a3 01 cc 3e 76 47 a9 bd e3 73 c9 3d
       -0.06769139 0.39845 -0.08265583 0.09836557
0000b0 7b 00 f3 3c b5 47 ad bd 3f c9 2c bf 50 41 97 bd
       0.029663315 -0.08460943 -0.6749458 -0.07385504
0000c0 4e ae 81 3e dc 9d fa 3e 6e 1e 63 bd 51 6c a2 3e
       0.25328296 0.48948562 -0.055448942 0.31723264
0000d0 85 c0 a7 3e 61 aa a2 be 7e 67 39 3e 4a 2b eb 3e
       0.32764068 -0.31770614 0.18105885 0.45931464
0000e0 c1 48 97 3e 8c eb b0 3d 05 84 c4 3e 80 01 2a bf
       0.29547694 0.08638677 0.38381973 -0.6640854
0000f0 72 46 4c 3b f1 a6 36 3e cf 64 b3 3d b7 42 e5 3d
       0.0031169918 0.1783712 0.08759462 0.111943655
000100 39 41 fa 3d ff 5f ff 3d af d5 d9 bd e8 cc 1f 3e
       0.122194715 0.12469482 -0.1063646 0.1560551
000110 0e ad 38 3c 1a 48 86 3d 2a e5 fe 3d 05 a7 81 3d
       0.011271728 0.06556721 0.12446053 0.063306846
000120 fe 92 9c 3d 28 cc f4 bd 1c 1b 80 be 16 63 70 bd
       0.07645224 -0.11953002 -0.25020683 -0.058688246
000130 21 6b 36 bd 3e 08 c1 3d 06 66 5e 3e b9 1a be be
       -0.04453576 0.094254 0.21718606 -0.37129763
000140 21 aa 2d 3e a5 97 86 bd 32 ba 7f 3e 36 55 fe 3d
       0.1695943 -0.06571893 0.24973372 0.124185964
000150 ca 1b 86 bd 47 eb 86 bd 25 94 5b 3d 99 e6 2f be
       -0.06548269 -0.06587844 0.05360808 -0.1717781
000160 f3 62 b5 3d cd d4 ab bd db e2 14 3e 3a 30 b9 3e
       0.08856764 -0.08390198 0.14539663 0.36169606
000170 21 b6 3a bd c8 c6 ae bd f2 5d 80 be 95 7f 40 be
       -0.045583848 -0.08534008 -0.25071675 -0.18798669
000180 ce a2 26 be 26 18 a0 bc 71 d5 15 be 51 4f 5f 3d
       -0.16273043 -0.019542765 -0.14632203 0.054519
000190 3e b0 16 3d 6d aa dc 3d c0 c7 06 be f6 f3 44 3d
       0.03678917 0.10774694 -0.13162136 0.04808422
0001a0 27 b3 85 3e b3 5b 99 bd 51 74 57 3c 8f db e4 3d
       0.26113245 -0.07488193 0.013150291 0.1117469
0001b0 ea 4a 86 3d f1 c2 0e 3e 21 d1 62 bd 4e 82 cb bd
       0.065572575 0.13941552 -0.055375222 -0.09936963
0001c0 5e 59 ee bd 79 96 26 be 1d ec 3c 3c 1f 45 cf bd
       -0.11638139 -0.16268338 0.011530903 -0.10120606
0001d0 88 ab 38 3e 94 e1 34 3e 9d 29 e4 3d 62 47 0f bd
       0.18034184 0.17664176 0.111407496 -0.034980185
0001e0 89 c8 cc bd b3 87 a5 bc cb f7 63 bd d8 0d 8b bd
       -0.099991865 -0.020206308 -0.055656236 -0.0678975
0001f0 e9 45 b3 3d c3 26 c5 3d 41 72 e6 bd 5c db e2 bd
       0.08753569 0.09626534 -0.11252261 -0.11076996

lstms.0.weight_hh_l0_reverse f4 [128, 32]
000000 1e 66 ce 3d 82 66 21 3e 1a ad 9d be 25 bf 96 bd
       0.10078071 0.1576176 -0.3079613 -0.07360677
000010 97 60 f0 3e 16 dc 84 3d 89 fa d6 bd 08 ec 9e bd
       0.46948692 0.064872906 -0.104970045 -0.07759863
000020 d7 fd 3d 3e c8 fb 0a 3a 4a 59 4f 3e 49 4b 64 bd
       0.18553863 0.00053018006 0.20248905 -0.05573586
000030 a9 d2 8a 3e 74 17 81 be 13 75 f5 bd 0a 3d 8e 3e
       0.27113846 -0.25213206 -0.11985221 0.27780944
000040 c8 8c 23 be 19 05 11 bf 28 05 dc be e3 1d 71 bd
       -0.15971673 -0.56648403 -0.42972684 -0.058866393
000050 39 14 16 3d 5d f5 2d 3d 22 be e7 3d 5f 74 17 bd
       0.03664038 0.042470325 0.11315562 -0.036976214
000060 90 1e 43 3e b0 13 bb bd 9e f9 3a 3e 24 3e 10 bd
       0.19054627 -0.091346145 0.18259284 -0.035215512
000070 e2 29 69 b8 61 81 40 be 61 e8 10 be fc 05 a0 3d
       -5.5590535e-05 -0.18799354 -0.14151146 0.078136414
000080 9b 6f 62 3e 57 85 a9 3e ca 92 01 bf 37 7e 10 3e
       0.22112887 0.33109543 -0.5061461 0.14110647
000090 8f 9e cc 3e 76 03 db be b9 5e dd 3c 73 5c a8 be
       0.3996472 -0.42776078 0.027022706 -0.32883033
0000a0 1d 14 3b 3d a3 05 a8 be 19 2c 63 bd 04 81 81 3e
       0.04567348 -0.328168 -0.055461977 0.25293744
0000b0 4a 3f 2d 3e 17 8b 41 be 0e 8f 29 3e 01 3b 19 3d
       0.16918674 -0.18900715 0.16558477 0.037409786
0000c0 47 98 55 be 4c c2 8b be 3e e7 be be 1e 63 a9 3e
       -0.2085887 -0.27296674 -0.372858 0.33083433
0000d0 04 70 38 3e 5a a0 84 3e 3b 3f de be 36 77 7d be
       0.1801148 0.2590359 -0.43407616 -0.24752507
0000e0 9e 14 ce 3c 2a a0 ee 3d e0 73 0b 3e 62 62 1f 3e
       0.025156315 0.116516426 0.13618422 0.15564874
0000f0 9b 57 cf 3e f4 d8 4b 3e b8 52 eb b9 52 19 1f bc
       0.40496525 0.1990698 -0.00044884323 -0.009710627
000100 09 ca 7c be 4a f9 e3 3c f4 5b ac 3e 4e 60 46 be
       -0.24686445 0.027828831 0.33663905 -0.19372675
000110 73 48 e5 3e a6 19 1f 3e ba 59 06 be e0 2a 5c bd
       0.44781837 0.15537128 -0.13120165 -0.053751826
000120 8f 2f 9c be fa 15 dd 3e de 6d 90 3e 2a 0c 3c be
       -0.30505034 0.4318083 0.28208822 -0.18364015
000130 3c 25 9c 3d 5e 4c f1 3c 97 bb b9 be ae fc 91 3e
       0.076242894 0.02945536 -0.36275932 0.28513092
000140 55 bd 93 be e6 c9 e3 be dd c2 b6 be 19 4c ee bd
       -0.28855386 -0.44489974 -0.35695544 -0.11635608
000150 48 ee 24 be ec a2 b9 bd 51 c8 4e 3e 69 74 f9 3e
       -0.16106522 -0.09064278 0.20193602 0.48721626
000160 08 1f eb bd 07 d2 0a 3e 59 a7 0e be e9 f4 dc bd
       -0.11480528 0.13556682 -0.13931026 -0.107889004
000170 8a e7 4f 3d 92 f4 e5 bd b3 b5 63 be 17 d1 3e 3e
       0.050757922 -0.11228289 -0.22237282 0.18634449
000180 1d 05 a8 3c 2f d7 81 3e a9 bc b1 be 7f 5d 76 3e
       0.02051025 0.25359485 -0.3471425 0.24059103
000190 d5 21 0e bc 24 2a 1b be 28 bf 23 3e e5 ef 11 be
       -0.008675058 -0.15152794 0.15990889 -0.14251669
0001a0 37 9c cf bd fe eb 87 be f5 b1 9c 3b 1a 01 bc 3d
       -0.101372175 -0.26547235 0.0047819563 0.091798976
0001b0 33 30 4c 3e 30 4f e9 bd a2 de 0a 3d 62 00 bf 3d
       0.19940262 -0.11392057 0.033903725 0.09326245
0001c0 46 d9 de bc de db e2 3d 26 8c 37 3e ce 37 90 bd
       -0.027203213 0.110770926 0.17924556 -0.07041894
0001d0 8b 9e 7b bd 1d 50 a5 3e ee 80 b2 bd b4 de 72 be
       -0.061430495 0.32287684 -0.08715998 -0.23717767
0001e0 1e d5 29 be 12 96 24 bc 94 16 d3 3d 15 13 66 bc
       -0.16585204 -0.010045545 0.10307041 -0.014042635
0001f0 d6 55 cc 3e fc c9 38 3e 7b 5c 78 3d f7 0b 45 3e
       0.39909238 0.18045801 0.06063507 0.19242845
000200 56 47 bb 3e 08 7c f0 3e 68 2a 59 be 59 3d e4 3e
       0.36577863 0.46969628 -0.21207583 0.44578055
000210 c7 19 00 bf 6b 34 5d be 27 4a 28 3d 49 ae 8f be
       -0.50039333 -0.21602027 0.041086342 -0.28062657
000220 95 0e 31 be 1c 71 1c be 8b c3 28 bf e4 a0 e3 3d
       -0.17290719 -0.15277523 -0.65923375 0.11114672
000230 11 bf 30 3e e2 1c d0 be c2 37 ae 3e 5a fc 47 bf
       0.17260386 -0.40647036 0.34026915 -0.7811943
000240 40 1f 15 3f d0 d2 b2 3e fc 9e 2d 3f 12 6a 8f 3d
       0.5825081 0.34926462 0.67820716 0.07002653
000250 2c 9b ad bd c4 5e 65 3e 4c fc e6 bd 24 7f c9 be
       -0.08476862 0.22399431 -0.112785906 -0.39354813
000260 3a 2c 14 be a3 cc 7b bd e7 60 ac 3d b2 e1 f8 3e
       -0.14469996 -0.061474454 0.0841692 0.48609692
000270 b0 cd 0d 3e 72 0a 26 3e b4 1a 03 bf b7 a5 7e be
       0.13847995 0.16214922 -0.5121262 -0.24867903
000280 f8 0a 1b be 23 cc 99 bd 1b c3 ae bb 32 66 a3 be
       -0.15140903 -0.07509639 -0.005333317 -0.31913906
000290 c2 75 2b 3d f8 03 be 3e 72 5f 4d be 32 f9 c2 3d
       0.04186035 0.37112403 -0.20055941 0.095201865
0002a0 ab 13 40 3e 11 aa 47 3e 96 21 93 3e 78 2f d8 be
       0.18757503 0.19498469 0.28736562 -0.42223716
0002b0 d7 fb 20 be 80 c2 34 3e a5 4f 31 be b2 02 17 be
       -0.1572107 0.17652321 -0.17315538 -0.14747122
0002c0 0f 43 a0 be c4 4a 76 be 49 e6 83 be bb ff ad be
       -0.31301162 -0.24051958 -0.2576163 -0.3398417
0002d0 85 29 8e bd c4 ef 89 be 1f ae 92 3e c1 76 fb 3d
       -0.06941513 -0.2694074 0.2864847 0.1227851
0002e0 44 21 6a be 69 ba 42 3e f6 4c a2 be 6a 00 a1 bd
       -0.22864252 0.19016422 -0.31699342 -0.07861407
0002f0 dc 5a 38 be 2f a6 f3 bd 78 99 92 3d 34 b7 2c 3d
       -0.1800341 -0.118969314 0.07158178 0.042166904
000300 a0 60 43 3d 6d e1 54 be 87 bf f9 3b 19 de ba be
       0.04769957 -0.20789118 0.007621709 -0.36497572
000310 12 90 be 3e e5 bd d2 3d 2b 0f 8e 3d 40 58 d4 3d
       0.37219292 0.10290126 0.06936487 0.10368395
000320 64 ca 20 bf fc 53 35 3e 61 09 6c bd da 1b 53 be
       -0.62808824 0.17707819 -0.057626132 -0.20616093
000330 c2 83 3f 3d 59 14 a7 3d 9d e2 f3 bc 78 ec 6a 3d
       0.046756513 0.08158178 -0.029771144 0.05735442
000340 ea e7 d7 be d9 ef f3 be 05 59 0e bf 71 cd df 3d
       -0.42169124 -0.47643927 -0.55604583 0.10927857
000350 8c 97 fb bd 6c 62 94 3d 26 b7 1f be 02 f8 e5 bd
       -0.12284765 0.07245335 -0.1559721 -0.11228944
000360 8e 67 34 be 50 20 1c 3e dc 0b 0f be b6 e0 0f 3e
       -0.17617628 0.15246701 -0.13969368 0.14050564
000370 30 91 48 be e2 a2 5a be 27 f7 c1 be e3 58 0c be
       -0.19586635 -0.21351197 -0.37883875 -0.13705783
000380 e0 2b 93 3d 5f cb f8 bd 51 6b 86 3d 82 f7 df be
       0.07186103 -0.12148165 0.06563438 -0.4374352
000390 13 68 aa 3e 93 ee 7f be 4d fe a1 3d 5f c6 33 be
       0.33282527 -0.24993353 0.07909832 -0.17556141
0003a0 54 60 27 3e 23 6c 18 3d 03 02 a1 3e 5d fa 8a be
       0.1634534 0.037212502 0.31446847 -0.27144137
0003b0 62 f6 85 3e 10 f4 a9 be 6a 77 45 be b0 2c a2 3d
       0.26164538 -0.33194017 -0.19283834 0.0791868
0003c0 e1 dc 8e bd 95 98 e9 be 4d 32 72 be db 7b 3c be
       -0.06975723 -0.45624223 -0.23652 -0.18406622
0003d0 59 6a b5 3e e1 31 24 3e 73 39 23 be 9f 81 a9 3e
       0.354327 0.16034652 -0.15939884 0.33106706
0003e0 7d 60 23 be 84 47 d0 3e 15 1d 29 bd 89 27 a7 3d
       -0.15954776 0.40679562 -0.0412875 0.081618376
0003f0 fe d2 aa 3d 23 52 a3 3e 14 35 99 3d 95 20 1f 3d
       0.08341025 0.31898603 0.07480827 0.038849432

lstms.0.bias_ih_l0_reverse f4 [128]
000000 c2 f3 eb 3d b0 81 98 3e 24 e0 90 3e 2f e6 b4 3e
       0.115211025 0.29786444 0.28296006 0.35331866
000010 00 e3 db bd 44 b4 80 be d8 8b 4a 3e 0a 70 a1 be
       -0.10736656 -0.25137532 0.19779909 -0.31530792
000020 ed b5 22 3d b7 e7 28 3e 3c 23 ea 3d 5b a6 15 bf
       0.03972428 0.16494642 0.11432502 -0.58456963
000030 49 b7 b8 be 45 ed 7f 3d cd bd f9 3d 15 e5 98 3d
       -0.36077335 0.062482137 0.12194405 0.07465569
000040 22 95 d0 bd d4 91 87 3e d4 61 7a bc d3 d8 03 3e
       -0.10184695 0.26478446 -0.015282113 0.1287568
000050 f8 35 0f bf e7 0f db be 5a 12 06 bf e4 20 1c 3e
       -0.55941725 -0.4278557 -0.5237175 0.15246922
000060 49 b2 ce 3e 4d 3b de 3e 73 37 07 3e dc fb 04 3e
       0.40370396 0.43404618 0.13204746 0.12986702
000070 bc 0c 20 bf f8 d1 89 be 18 b8 db bd a2 e8 57 bd
       -0.6251943 -0.26918006 -0.107284725 -0.05271209
000080 d8 2a 42 3e 83 0c 1c 3f 87 21 a5 3e 09 61 1a 3f
       0.18961656 0.6095659 0.32252142 0.60304314
000090 0a 2c 17 3f 89 e7 d1 3d 37 e6 81 3e b8 bb a3 bd
       0.59051573 0.1024924 0.25370952 -0.07994789
0000a0 93 c5 d7 3e ed f9 96 3e c2 8d ba 3d 42 c0 35 be
       0.42142925 0.29487553 0.091090694 -0.17749122
0000b0 e9 85 2f be 0f 92 ed 3d a7 2c 10 be 41 9d 1a 3d
       -0.17140926 0.11600124 -0.14079534 0.037747625
0000c0 00 46 12 3f 68 fc b0 3e b9 19 3b 3f d0 c1 bf 3e
       0.5713806 0.3456757 0.73086125 0.37452555
0000d0 05 a6 be 3e 4c 37 d3 bd 0e a8 32 be 02 e6 7a 3e
       0.37236038 -0.103132814 -0.1744692 0.24501804
0000e0 f3 2c 1e 3f 40 75 24 3e 57 b7 c4 3e b6 12 76 3d
       0.6178734 0.16060352 0.38421127 0.060076438
0000f0 e1 3f af bd 6b 96 59 bd 3c 8f 31 3b 86 81 c2 3e
       -0.08557106 -0.053121965 0.002709343 0.37989444
000100 34 a0 89 be 33 7d 02 be 4f a4 e9 3e cc 8c 3e 3d
       -0.26880038 -0.12743072 0.4563317 0.046520993
000110 bf 69 5b be 66 25 ee be d3 bb d7 be 51 f5 df be
       -0.21427058 -0.46512908 -0.42135486 -0.4374185
000120 82 ce 8f be 1e 26 9f 3e 0b e0 92 bd 7d 3f d0 3e
       -0.2808724 0.3108377 -0.07171639 0.40673438
000130 c0 e5 84 3e 72 e1 c2 be dc 8d 87 3d 0e e1 ac 3c
       0.25956535 -0.38062626 0.066188544 0.021103408
000140 11 8f b8 3c 06 7e ad 3e ac 1f db 3d 72 ba b4 be
       0.022529157 0.3388521 0.106994 -0.35298496
000150 45 b6 bb 3e d5 ca e4 3e b7 7e 04 bf e6 b0 6e 3e
       0.36662498 0.44686 -0.5175585 0.23309669
000160 da 2f e8 be 10 5d ca 3e 4f cd b7 be f7 6c 69 3e
       -0.45349008 0.39524126 -0.35898826 0.22795473
000170 58 c8 ea 3e 20 72 d4 3e 46 7a 19 bd e6 c6 a3 3e
       0.45855975 0.4149332 -0.037470125 0.31987685
000180 da 36 69 3e 38 a3 4d 3e 19 7f 7f 3e ef f6 6c 3e
       0.2277483 0.20081794 0.24950828 0.23141073
000190 00 44 86 3e 93 d7 3d be 2e 59 c3 3e ca 4d fa be
       0.26223755 -0.18539266 0.38153976 -0.48887473
0001a0 5a ee 5d 3d 75 51 6c 3d 3f c6 80 bd 23 2c b5 be
       0.054182388 0.05769487 -0.062878124 -0.35385236
0001b0 2c 5a 99 be 10 88 c9 bd 29 89 b9 3e a5 7f 80 3e
       -0.29951608 -0.09840405 0.36237457 0.25097385
0001c0 16 d5 47 bd d9 0b 0f 3e 29 73 bf 3e 9d 21 ec 3e
       -0.0487872 0.13969363 0.37392548 0.46119395
0001d0 4e 26 df be 99 2d 12 bf 3f f5 cf be 4a d2 ed 3d
       -0.43583912 -0.57100827 -0.40616795 0.11612375
0001e0 78 0e bd 3e 5b 62 87 3e 5c 36 b6 3d 69 29 44 bd
       0.369251 0.26442227 0.08897087 -0.047891054
0001f0 29 dd 27 bf ac 0b f3 be 69 1c 63 3d 9d 9a 76 3d
       -0.6557184 -0.47469842 0.055447016 0.060206044

lstms.0.bias_hh_l0_reverse f4 [128]
000000 61 c7 84 3d be b3 9b 3d bc 14 9a 3d 46 92 d6 3c
       0.06483341 0.076026425 0.07523486 0.026192795
000010 13 ea 31 3e 7b 81 02 bf 26 96 ed 3e a8 28 8f be
       0.17374448 -0.5097882 0.46403617 -0.27960706
000020 2e a8 f1 bd a8 91 c7 3e 2c b5 40 3d 9f 6c 39 bf
       -0.11799656 0.38978314 0.04704778 -0.7243137
000030 cf 21 f3 be 42 8a 29 3b 0e f3 ff 3d 65 3b 10 3e
       -0.4748673 0.0025869762 0.12497531 0.14085157
000040 f5 21 64 bd cf 82 4f 3e a5 e6 26 3d a8 25 ad 3d
       -0.055696446 0.20264743 0.040747304 0.08454448
000050 22 7b d9 be a0 4c ae be 51 83 14 bf 56 cd 32 3d
       -0.42476755 -0.34042835 -0.5801287 0.043652855
000060 c9 49 90 3e 85 79 cd 3e 35 51 72 3e 7f 30 3e 3d
       0.28181294 0.40131775 0.2366379 0.04643297
000070 cb 7e 2b bf 0c 08 a3 be b5 b9 ef 3d 8f c6 81 bd
       -0.66990346 -0.31842077 0.11705343 -0.063367
000080 1f 8a 71 3e f9 40 27 3f 29 17 3a 3e 77 1f 48 3f
       0.23587845 0.65333515 0.18172897 0.7817301
000090 02 50 04 3f 4f 28 63 be 2a d5 58 3d 09 32 57 3d
       0.5168458 -0.22183345 0.052937664 0.05253795
0000a0 4f c5 a8 3e 44 52 01 3f 72 da 6b 3e b7 22 aa bc
       0.32963035 0.5051615 0.23032549 -0.020768506
0000b0 01 59 ab 3d 1b 8a 56 3e f9 6c a8 bd 03 a1 00 3e
       0.083665855 0.2095112 -0.0822391 0.12561421
0000c0 04 c5 10 3f 4b 7c 03 3f 8f 9f e7 3e 6d af 43 3e
       0.5655062 0.5136153 0.4523892 0.19109888
0000d0 2d 48 47 3e a7 63 31 3e d7 80 d3 bd 9e 4a b2 3e
       0.19461127 0.1732317 -0.103273086 0.34822553
0000e0 68 a2 eb 3e 28 04 5e 3e 35 0a 03 3e fd cb d4 3c
       0.46022344 0.21681273 0.12796862 0.025976175
0000f0 6f c2 9b bd 19 f9 b5 3d 0b e6 fe 3d b0 ed be 3e
       -0.07605445 0.08885402 0.12446221 0.37290716
000100 95 78 0f be f1 b3 d9 be 4f 5d 9c 3e b8 a1 46 bc
       -0.14010842 -0.42520097 0.3053994 -0.012123518
000110 5c 3d 92 be 83 3f 8e be 9f 5b d6 be 7f ff b1 be
       -0.28562438 -0.2778283 -0.41866776 -0.3476524
000120 3d ba 05 bf 00 f1 b9 3e 09 45 eb 3d 3b d4 c0 3e
       -0.522373 0.3631668 0.11487777 0.3766192
000130 04 7e ef 3e 36 5a 1d bf 11 8b c5 bd e5 2e 44 bb
       0.4677583 -0.61465776 -0.096456654 -0.0029935178
000140 0e 18 7b 3e fd d0 0a 3e 90 ec c2 bd 39 ff ae be
       0.24520895 0.13556285 -0.09517777 -0.34179094
000150 9e 80 a4 3e 82 05 7d 3e af f2 87 be 8a 7f 92 3e
       0.32129377 0.24709132 -0.2655234 0.2861293
000160 30 65 fc be de 02 04 3f c1 c3 9a be c5 8b 4d 3e
       -0.4929595 0.51566875 -0.30227473 0.20072849
000170 51 1f d3 3e 59 ab 02 3f 48 dc 17 bd 26 9b 85 3e
       0.4123483 0.51042706 -0.03707531 0.2609493
000180 11 79 a5 bc d7 e6 da 3e ef 47 c8 3d 27 bb ad 3e
       -0.02019933 0.42754242 0.09779345 0.33931848
000190 a7 90 96 3e 2b ea 94 be f7 5a 95 3e f1 7b e7 be
       0.29407236 -0.29084906 0.29170963 -0.45211747
0001a0 32 ea 8c 3e c1 c8 ac 3e d2 4a 35 3e 87 9a ab be
       0.27522427 0.33746913 0.17704323 -0.33516333
0001b0 41 ca 05 bf 87 b4 6a bd d7 1d 8d 3e 13 25 72 3d
       -0.5226174 -0.05730107 0.27561828 0.059117388
0001c0 7c 41 df 3d 9d e0 61 3e 70 7a 0a 3f 26 27 b6 3e
       0.10901162 0.2205834 0.54093075 0.35576743
0001d0 7b b6 c4 be 4b 47 a6 be 1b f2 e2 be 64 84 25 3e
       -0.38420472 -0.32476267 -0.44325337 0.16163784
0001e0 3a c4 dc 3e 15 52 87 3e 9a ce 23 3e fc 15 e2 3d
       0.4311846 0.2642981 0.15996781 0.110393494
0001f0 0a c0 17 bf 49 d5 53 be 5b 62 2b 3d a6 d2 5f 3e
       -0.59277403 -0.2068683 0.041841846 0.218577

lstms.1.weight_ih_l0 f4 [128, 64]
000000 54 13 78 bd dd 3e d3 bb 63 b5 5f be d5 ae 04 3e
       -0.060565308 -0.006446703 -0.21846537 0.12957318
000010 6b d3 79 be 32 a4 83 3d c7 5d b3 ba fd ce 0b 3e
       -0.24397056 0.06427802 -0.0013684564 0.13653179
000020 df f2 ab bd 78 9f 91 3e 1f a6 24 3e e3 88 be 3d
       -0.08395933 0.28441978 0.16078995 0.09303453
000030 66 c2 76 3c 1d d4 7b be 6c 6d 82 3e 12 54 97 3d
       0.015060997 -0.24592634 0.25474107 0.07389082
000040 9b a0 db be 4e 5a 88 bd 41 83 54 3d 7a b5 a5 3d
       -0.4289597 -0.06657849 0.051882986 0.080912545
000050 34 40 fe 3d e9 d2 64 3d e6 9b 8b be 73 98 cc 3d
       0.124145895 0.055865202 -0.2726738 0.09990015
000060 3d 69 93 3e 95 26 65 be 70 d2 ad 3c fc f5 09 bf
       0.28791228 -0.22377999 0.021218508 -0.5389097
000070 c1 4b c2 3d b1 86 d6 3d d0 19 ea bd 64 aa 94 be
       0.09487105 0.10474909 -0.114307046 -0.29036248
000080 d5 23 8d be d1 90 8a be 82 43 50 3e 3e 61 6f bd
       -0.275664 -0.2706361 0.20338252 -0.058442347
000090 1b 83 58 3d b4 87 35 bd 48 cb 6a be d7 67 e5 3d
       0.052859407 -0.04431887 -0.22929108 0.112014465
0000a0 65 9d 28 be 7f 82 97 3e 65 f3 98 3d cd b7 2e be
       -0.16466291 0.29591748 0.07468299 -0.17062302
0000b0 15 ff 66 3c f7 de 80 3d 5c 50 6a 3d a8 cc 31 be
       0.014098902 0.06292527 0.057205543 -0.17363226
0000c0 0d 42 11 be c3 f5 2b be 8d 7d f2 bd bc 75 d4 be
       -0.14185353 -0.1679297 -0.11840353 -0.41496074
0000d0 6b 77 8a bb 91 6b 42 3d 8c 17 43 3d 14 70 aa 3e
       -0.0042256615 0.047465865 0.047629878 0.33288634
0000e0 04 f9 56 be 7a 12 0f 3e 10 a4 85 be 9c da 0d 3b
       -0.2099343 0.13971892 -0.26101732 0.0021645194
0000f0 14 ee 05 be 42 4e 12 be 00 55 00 3e 8a 00 71 3e
       -0.13079101 -0.14287665 0.12532425 0.23535362
000100 50 c5 31 be 9f 60 f5 3d b8 4b f2 bd 8c b5 d0 bc
       -0.17360425 0.1198132 -0.118308485 -0.025477193
000110 b0 74 b9 bd 1f e7 9d 3d b0 43 59 be 44 8b fb bd
       -0.090554595 0.077100985 -0.21217227 -0.12282422
000120 5c a7 eb ba 36 d9 13 bd 3d c9 15 3e 55 ed 6f bd
       -0.0017978954 -0.03609582 0.14627548 -0.058575947
000130 48 c3 25 be d1 9a 0c be db 15 da 3d 3e 23 5c bd
       -0.16187775 -0.13730933 0.106487 -0.053744547
000140 51 4f 40 be a8 fd 39 3e b7 24 e6 bd cf 04 f6 3c
       -0.18780257 0.18163168 -0.112374716 0.03003159
000150 a0 bf 97 bd ef b9 33 bd f3 d4 a3 bb 7e 8a 95 3d
       -0.074095964 -0.043878492 -0.0049997508 0.07301806
000160 d2 7e a2 3d ad 71 1f be fc 04 d0 bc 2a bd 5d be
       0.07934345 -0.15570708 -0.025393002 -0.21654192
000170 b5 a1 52 3d 7b b4 83 bd ff f9 e9 bd e9 f7 26 be
       0.051423747 -0.06430908 -0.11424636 -0.16305508
000180 82 c3 c6 bc 93 dc b6 be 97 58 11 3e b2 9e 3a 3a
       -0.024263147 -0.3571516 0.1419395 0.00071189844
000190 d2 60 b9 3e 7c be 86 3e d0 aa 4b be b5 39 99 3d
       0.3620668 0.26317203 -0.19889379 0.0748171
0001a0 05 e7 59 be 95 7b 0a 3e 3b 70 04 3e 8f 1e 34 be
       -0.21279533 0.13523705 0.12933438 -0.17589782
0001b0 52 fe 60 3c fa 59 14 3e cc 20 91 3d cc 53 55 3e
       0.01373251 0.14487448 0.07086334 0.20832747
0001c0 a4 45 6c be e8 63 b9 bd b8 46 34 be 3d dc 90 be
       -0.23073441 -0.09052259 -0.17605102 -0.28293028
0001d0 7d 00 20 3e 7e ab bd 3c b2 aa 44 3d 20 ee 14 3e
       0.15625186 0.023153063 0.04801435 0.14543962
0001e0 cd bb 07 be ec 33 19 3d a1 53 61 be ef 60 2a 3e
       -0.13255234 0.037403032 -0.22004558 0.1663854
0001f0 d2 6e 79 be 67 76 8f bd 09 53 59 3e 75 16 0e 3e
       -0.24358681 -0.07005005 0.21223082 0.13875754
000200 20 db 93 3d 82 67 d8 bb 97 8c 73 bd 90 95 28 3e
       0.07219529 -0.006604136 -0.05946025 0.16463304
000210 2a 1b 1c be 68 68 80 3d f0 e0 99 3c d4 2f 1f 3d
       -0.15244737 0.06269914 0.018784016 0.03886397
000220 92 c0 73 3d 8b 98 3f 3e 23 04 5c 3d 38 cb 57 bc
       0.05950982 0.18710534 0.053714883 -0.01317101
000230 ff 8c af be 4a 29 f1 bd c1 33 0a bc 4c 02 ad 3e
       -0.3428726 -0.117754534 -0.008435191 0.33790815
000240 de 9f a0 be d7 23 44 3d 26 c7 8c 3d fc 94 1f 3d
       -0.3137197 0.047885742 0.06873922 0.038960442
000250 8b b7 43 3d a4 ca 1d be 58 7c 49 be 17 30 6e bd
       0.047782462 -0.15409333 -0.1967634 -0.05815133
000260 32 a6 8d 3d ed cd 35 bd 42 32 71 bd 4c 85 07 bf
       0.06916465 -0.04438584 -0.05888582 -0.5293777
000270 66 6a 51 bd 14 e8 9d 3d e1 87 91 be df 24 0f bf
       -0.05112686 0.07710281 -0.2842398 -0.55915636
000280 68 23 26 be 69 52 0a bd 33 ac 81 3e c2 07 85 3e
       -0.16224444 -0.03377 0.2532669 0.2598248
000290 75 74 49 be b7 9d c3 3d 9b d6 92 be 14 06 af be
       -0.19673331 0.09551566 -0.28679356 -0.34184325
0002a0 71 ae ac bd 64 e6 cc 3d bc b3 64 3c 0d fc b5 3d
       -0.084317096 0.10004881 0.013958868 0.088859655
0002b0 6b 56 ce 3d 33 c2 ff 3d 90 16 28 bd 0c f3 31 be
       0.10075077 0.124882124 -0.041037142 -0.17377871
0002c0 af 0c 83 3e 1d 78 3d 3e 11 3a 3c 3e bd 5f e0 bd
       0.25595614 0.18502851 0.18381526 -0.10955761
0002d0 5e c3 ef 3c f7 0b 54 be a2 90 1c 3e 92 b0 7f bc
       0.029267963 -0.20707689 0.15289548 -0.0156060625
0002e0 0e 29 eb be b7 1c 84 3d 0d 36 73 be ac b4 63 3d
       -0.4592976 0.064507894 -0.23751087 0.055592224
0002f0 d6 c1 12 3e 59 21 b2 3d f1 36 82 3d 13 38 e3 3d
       0.14331755 0.08697767 0.063581355 0.1109468
000300 a7 9b 3d 3e 0f 9a bc 3c 66 59 86 bc 24 5a 20 3e
       0.18516408 0.02302268 -0.01640005 0.15659386
000310 d2 e9 d5 bd e7 17 f7 3d 4f c7 67 bd 96 a4 3e 3d
       -0.10444988 0.12065106 -0.05658656 0.04654368
000320 dd 93 f8 bd f6 77 df 3d ed 2f 79 3d 0e 94 e0 3d
       -0.12137578 0.109115526 0.06083672 0.10965739
000330 cd ec 26 be c1 19 07 3d f6 34 2c 3d c7 58 45 3e
       -0.1630127 0.032983545 0.042042695 0.19272147
000340 32 d6 ca be d5 f5 d5 3d a0 79 ef 3d 0c 46 a6 bd
       -0.39616543 0.10447279 0.1169312 -0.08118829
000350 59 f9 7a bd f2 bb 0b 3e 65 d0 dd be 05 f0 a1 bd
       -0.061272953 0.13645914 -0.43323055 -0.07907108
000360 25 d1 c5 bd 62 a2 94 be df 1e 88 3d 92 63 52 3d
       -0.09659032 -0.29030138 0.06646513 0.05136449
000370 5f 6f e8 bd 74 2b 3b 3e 44 0b a0 3d e0 2e c8 be
       -0.11349367 0.18278295 0.07814649 -0.39098263
000380 ad 57 16 be ae eb 8d bd be f0 9e 3d 4c 8a d3 bd
       -0.14681883 -0.06929718 0.07760762 -0.103291124
000390 c4 37 7f 3e f7 0b 96 3e 24 74 c2 bc 13 a6 03 3e
       0.24923617 0.29306003 -0.02373702 0.12856321
0003a0 66 ec bf be 1a 64 91 3e a0 cb 1b 3e 94 ea 40 be
       -0.37485045 0.28396684 0.15214396 -0.18839484
0003b0 a1 a5 29 be f5 9f 52 3d 77 74 61 be a3 86 30 3e
       -0.16567089 0.05142208 -0.22017084 0.1723886
0003c0 0b 32 f2 bd e7 84 ea be 3a 8f b0 be ee 6f 5b bc
       -0.11825951 -0.4580452 -0.34484273 -0.013393385
0003d0 5a c4 23 be 9f 56 be 3e 84 d2 9b 3e e1 90 9c bd
       -0.15992871 0.37175462 0.30434048 -0.07644821
0003e0 22 79 27 3d 3e f0 ac bd ca 29 25 be be dc 43 3d
       0.040887006 -0.0844426 -0.16129223 0.047817938
0003f0 ed f9 2f be fd 71 e1 bd 02 b3 bd bd 58 b2 f0 3d
       -0.17185183 -0.1100807 -0.09262659 0.11752766

lstms.1.weight_hh_l0 f4 [128, 32]
000000 5d 74 5e 3d ad 14 b9 3c 52 5e 1f 3d cc 2c 26 bd
       0.05431019 0.022592867 0.03890831 -0.040570065
000010 08 63 5c bb d7 93 09 3d cb 29 f4 bd bc d6 64 bd
       -0.0033628363 0.033588257 -0.11922034 -0.05586885
000020 d6 04 9f 3e da 8f 3d 3d 77 d7 41 3d 71 d5 a0 bd
       0.31058377 0.046279766 0.047324624 -0.07853211
000030 a5 64 5a bd 85 12 6f be ba c1 31 3e 6b f8 cb be
       -0.05331864 -0.23346908 0.17359057 -0.39837965
000040 49 73 43 be c2 78 16 3e 38 3a 9c ba 48 d0 0c 3e
       -0.19086947 0.14694503 -0.0011919206 0.13751328
000050 c5 83 23 3d 37 81 1a be db c8 5b be 75 0f 99 3a
       0.039920587 -0.15088354 -0.21463339 0.001167758
000060 20 4c bb 3e 07 9f 3a be 0d c1 8b 3e 9f cf 3f 3e
       0.36581516 -0.18224727 0.27295724 0.18731545
000070 10 0d 1e 3e 31 82 e3 3c db f3 37 3e e1 22 7e 3e
       0.1543467 0.027772041 0.17964117 0.24817993
000080 08 79 f1 bc ff f4 86 bd f1 65 35 be 2d 22 85 bd
       -0.029476658 -0.06589698 -0.17714669 -0.06500659
000090 23 09 e2 3d 72 e6 8d bd 02 57 10 bd b9 63 e8 bc
       0.11036899 -0.069287196 -0.035239227 -0.028367864
0000a0 f4 71 2e 3e e3 5b 46 3e 89 38 6a 3d 4e a1 bc bc
       0.17035657 0.1937099 0.057182822 -0.023026135
0000b0 c6 d4 29 bd 95 2d b8 be 54 6f 0d 3e 65 9c 81 3b
       -0.041462682 -0.35972276 0.13812 0.0039554113
0000c0 07 e8 86 bd 8f f6 c4 3b 42 d0 90 bd 1a 48 89 bd
       -0.065872245 0.0060108374 -0.07070972 -0.067032054
0000d0 59 65 3b 3e 68 f7 05 be b6 a9 c0 3d 73 bd 7f bd
       0.1830038 -0.13082659 0.0940737 -0.062436532
0000e0 50 6b 94 3e 0e 2c 97 3c 94 4e d9 3b be 57 62 3d
       0.28988123 0.018453624 0.0066316817 0.05525946
0000f0 51 b2 a9 3e fa 40 f6 3b b4 1a 02 3e 53 70 35 bd
       0.33143857 0.00751507 0.12705499 -0.044296574
000100 f5 0e 20 bd 75 9f 2d be ab 36 0f bd df 57 c8 3d
       -0.039076764 -0.1695536 -0.034964245 0.09782385
000110 76 16 9c bc 21 8c cd bd 79 0c 03 be c5 17 3f 3d
       -0.019053679 -0.10036493 -0.12797727 0.046653528
000120 ed 52 03 3e 2e a4 17 3e 35 26 e9 bd 5c 04 0b bd
       0.12824602 0.14808723 -0.113842405 -0.033939704
000130 80 d3 05 3e 5e df cd bc d2 27 94 bd fc a9 89 3d
       0.13068962 -0.025130924 -0.072341576 0.06721875
000140 fe 97 63 be b4 37 eb 3c f0 66 a5 3c f4 3c c3 bd
       -0.22225949 0.028713085 0.020190686 -0.0953311
000150 ad fb 2b 3e 58 c7 4a bd bf d1 0d be 35 ff c5 bd
       0.16795225 -0.049506515 -0.13849543 -0.096678175
000160 04 d4 49 3d e3 ad 84 be 9b 25 74 3d c6 72 35 3e
       0.04927446 -0.25913915 0.059606176 0.17719564
000170 f2 bb e8 3d d6 e8 a1 bd c4 a9 3f 3e c1 d0 2f 3e
       0.11363973 -0.07905738 0.18717104 0.17169477
000180 fd 9d f6 bb c5 f5 57 bd 2b 99 3f bd 3f 6f 04 3e
       -0.007526158 -0.05272462 -0.04677693 0.12933062
000190 d3 11 fc 3d ba 35 6a bd b0 81 c5 3d 9e 49 31 be
       0.12308087 -0.057180144 0.096438766 -0.17313239
0001a0 c5 39 65 3d 98 8a e3 3c b1 a9 d1 bc 70 9e b4 bd
       0.055963296 0.027776048 -0.02559361 -0.08819282
0001b0 90 dd 5e 3e a4 43 80 be 00 44 bc 3b fd 16 f0 bd
       0.21764207 -0.25051606 0.005745411 -0.11723135
0001c0 85 86 25 be 98 de 26 bc 02 9c 51 3d 54 aa 06 be
       -0.16164596 -0.010184906 0.05117417 -0.13150913
0001d0 a3 6f 8f bd 03 d7 6c bd 9c 8e 04 be 8b 3f 2c be
       -0.07003715 -0.05782224 -0.12945026 -0.16821115
0001e0 bc 8e ce 3e 99 be 07 be 92 4e ba 3c 82 c6 1c bd
       0.40343273 -0.13256301 0.022742543 -0.03827525
0001f0 15 8f d7 3d 3d 9b 62 bd fc 71 8d 3e 2f 32 d4 3c
       0.105253376 -0.055323828 0.27626026 0.025902836
000200 4c 12 00 be 3d c6 52 bd 3c 54 82 be 9b 3b 5b 3e
       -0.1250698 -0.051458586 -0.2545489 0.21409456
000210 ca 06 b5 3c 18 72 2a 3d 48 48 ad bc e8 a2 3b bd
       0.022097964 0.041612715 -0.02115263 -0.045809656
000220 92 f3 e1 3d 59 79 4d 3e d9 32 32 3d b1 b8 8e 3d
       0.110327855 0.20065822 0.043505523 0.06968821
000230 e5 67 48 3d 1b 63 78 bd 29 87 5f bc 8f fe 03 be
       0.048927207 -0.06064139 -0.013643065 -0.12890075
000240 61 b6 a7 3d 3e b0 79 3b 40 42 d8 bd b3 f1 1e 3e
       0.08189083 0.0038099433 -0.10559511 0.15521888
000250 92 b6 49 ba 57 9f 9a be 31 a7 9f 3d db df 16 3e
       -0.00076947466 -0.30199692 0.07795561 0.14733832
000260 62 f4 b5 3e a7 3f 3e 3e d0 c9 10 3d 5e 88 99 be
       0.35538012 0.18578969 0.035348713 -0.29986852
000270 16 eb 16 3e 63 2e 48 bd 60 13 20 3e 58 88 f7 bc
       0.14738116 -0.048872363 0.15632391 -0.030216381
000280 97 4a 39 be 68 d0 9e be 16 2a 43 be ea 9b 6f be
       -0.1809486 -0.31018376 -0.19059023 -0.2339932
000290 ae 46 5d be cc d7 bb be a5 92 8b bd 13 4d 32 be
       -0.21608993 -0.36688077 -0.068150796 -0.17412214
0002a0 65 15 d9 3e c8 fd f6 3e ba 8e 96 be db 10 3a 3d
       0.42399135 0.48240495 -0.29405767 0.04542623
0002b0 fd 84 66 3e 8a ed 6e bb 85 00 91 bd 1e 53 29 3e
       0.22511669 -0.0036457502 -0.07080177 0.16535613
0002c0 a7 bc d9 3e 99 22 3a 3e 1b b8 02 be ae e5 d3 3c
       0.42526743 0.1817726 -0.12765543 0.025866356
0002d0 18 98 46 3e d8 46 35 be 92 04 12 3b f5 27 ab 3d
       0.19393957 -0.17702806 0.0022280556 0.083572306
0002e0 da 53 ba 3e d0 8b a0 3e 80 ee 2f bd 3f d9 ca be
       0.363921 0.31356668 -0.04295206 -0.3961887
0002f0 a9 71 42 3e 96 e8 5b 3e 78 2b 95 bd 8e 06 c8 be
       0.1898867 0.21475443 -0.07283682 -0.390675
000300 f5 0d 2f bd 90 e6 ac 3c 1d 1d 5b be 50 c1 e2 3d
       -0.04273792 0.021106035 -0.21397825 0.11072028
000310 02 98 69 3d aa 7d bd bd 4c d7 82 be 3a 96 91 bd
       0.05702973 -0.09252484 -0.25554883 -0.071087316
000320 1d b6 be 3e ca 1a e0 bc 7b 69 66 bb cb 99 d2 3d
       0.37248316 -0.027356524 -0.0035158086 0.1028324
000330 93 a6 14 bc c6 b6 b6 bd 59 a2 f5 3c 3c 5f c1 bd
       -0.0090729175 -0.0892158 0.02998464 -0.09441993
000340 63 19 12 3e 1a e5 cf 3d 71 dd 6c 3d ce 01 d5 bd
       0.14267497 0.101511195 0.05782837 -0.10400735
000350 1c ac 6b 3e 7e 07 00 bd 63 09 66 bd e6 ef d5 3d
       0.23014873 -0.031257145 -0.056161296 0.104461476
000360 58 f2 09 3e 5f a2 e9 3d f3 e8 81 bd 5e 03 f2 bd
       0.13471353 0.11407923 -0.0634326 -0.118170485
000370 63 c2 84 3e 60 a8 a8 3d 88 ae 8e 3d 4e a9 d3 ba
       0.25929555 0.0823524 0.06966883 -0.0016148479
000380 c0 aa ae be ec da 6f be ac 9b 41 3d 8c 20 6a 3d
       -0.34114647 -0.23423356 0.0472676 0.057159945
000390 e0 95 b6 3d 2a 8a 94 bd 6e 05 bb bd 62 25 3d be
       0.08915305 -0.07252915 -0.09131895 -0.18471292
0003a0 92 74 ee 3c 21 8d cf bb 58 06 f0 bd 25 d4 b9 bc
       0.02910832 -0.0063339625 -0.1171996 -0.022684166
0003b0 e6 28 b4 3d 91 70 82 bd 67 7f 6f 3d fc 00 55 3e
       0.08796863 -0.063691266 0.05847111 0.20801157
0003c0 48 64 31 3e 25 a0 76 3e 5d 66 07 3d 79 99 87 bd
       0.1732341 0.24084528 0.033056606 -0.066210695
0003d0 2b fc 2d 3d 24 5e 25 be e4 1a ad 3d 7d f9 49 3e
       0.042476814 -0.16149193 0.084523946 0.19724078
0003e0 92 c6 7c 3e 41 08 f2 3d d2 76 86 3d 1a 2d b2 bd
       0.24685124 0.118179806 0.06565632 -0.08700009
0003f0 32 c3 a4 3b 40 45 34 3e 76 fc e7 bc 1e 8c ea 3d
       0.005028152 0.17604542 -0.028318625 0.114525065
