best_model.pth (torch, 55083 bytes, 9 tensors)

lstm.weight_ih_l0 f4 [128, 1]
0	0xbd828327	-0.063726716
1	0xbcac2402	-0.021013264
2	0x3cffdd67	0.031233503
3	0xbe62a110	-0.22131753
4	0xbe0a1b55	-0.13486989
5	0xbcec56a6	-0.028849911
6	0xbcc498a7	-0.023998572
7	0x3db5d98b	0.08879384
8	0xbd7f495d	-0.062325824
9	0xbd0dd570	-0.034627378
10	0x3e7766c7	0.241603
11	0x3dcc2774	0.099684626
12	0x3edaf05c	0.42761505
13	0x3ee0cc4e	0.43905872
14	0x3dd7ed08	0.10543257
15	0x3f1513ac	0.5823314
16	0xbd4a7292	-0.04942567
17	0x3f357824	0.70886445
18	0x3d0d32e9	0.03447238
19	0x3d911647	0.07084327
20	0x3e277789	0.16354193
21	0x3d64f869	0.055900965
22	0xbe3637b4	-0.17794687
23	0x3e4f2ccc	0.20231932
24	0x3f0fb5e4	0.5613692
25	0x3dec2409	0.11530311
26	0xbe0c36f6	-0.13692841
27	0x3ef56b5a	0.47933465
28	0xbea0bc7b	-0.313938
29	0xbd4c7ea7	-0.049925473
30	0x3ea180b7	0.31543514
31	0xbd6211b9	-0.055192683
32	0xbd4d6efc	-0.05015467
33	0x3c96f1b8	0.018425807
34	0x3e195c98	0.14976728
35	0x3ef49204	0.4776765
36	0x3df821f2	0.121158496
37	0x3af00f90	0.0018315185
38	0x3e88eeba	0.26744634
39	0x3c265c39	0.0101538235
40	0xbd74279c	-0.059608087
41	0xbd86fb1d	-0.06590865
42	0x3ec75c0c	0.38937414
43	0x3db73a4a	0.08946665
44	0x3d5f6346	0.054538034
45	0xbe5b7927	-0.21432935
46	0x3d073c05	0.033016223
47	0xbdbfa799	-0.093581386
48	0x3d36e95a	0.044656135
49	0xbdd01402	-0.10160066
50	0x3e1e5428	0.1546179
51	0xbd8c0cd3	-0.068383835
52	0x3d359a3d	0.044336546
53	0x3b72f534	0.0037072422
54	0x3e831096	0.25598592
55	0x3c906763	0.017627424
56	0x3ec65154	0.38733923
57	0x3d8685cd	0.06568489
58	0x3da59a96	0.080861256
59	0xbe699e6e	-0.22814342
60	0x3e1f6888	0.1556722
61	0xbe017e17	-0.12645756
62	0x3e7136fa	0.23556128
63	0x3e823bbf	0.25436208
64	0xbdbc070f	-0.09181034
65	0x3e28566e	0.1643922
66	0xbeee98d8	-0.46600986
67	0xbe646e05	-0.22307594
68	0xbf0e576e	-0.5560216
69	0x3ec55348	0.385401
70	0xbee9cf15	-0.45665804
71	0x3e61c8a8	0.220492
72	0xbe538ec9	-0.20659937
73	0x3e3c62c3	0.1839705
74	0x3d7a7e03	0.06115533
75	0x3e899e58	0.2687862
76	0xbe964a0a	-0.29353362
77	0x3e4b8d99	0.19878234
78	0xbe16045e	-0.14650103
79	0xbe5962c1	-0.21229078
80	0x3e406a6a	0.18790594
81	0xbe385c6e	-0.18004009
82	0x3e1d2f7a	0.15350142
83	0x3ed5ef5b	0.41784176
84	0x3e8216c1	0.25407985
85	0x3ec5db0e	0.38643688
86	0x3e1be3b2	0.15223578
87	0x3e22f10c	0.15912265
88	0x3e463b4b	0.19358556
89	0xbce74c6c	-0.028234683
90	0xbedda6b6	-0.43291253
91	0xbe22e9b5	-0.15909465
92	0xbe373b5c	-0.17893738
93	0xbeaeed60	-0.34165478
94	0xbe8d87a9	-0.27642563
95	0xbf0b3689	-0.5438009
96	0xbe89adc3	-0.26890382
97	0x3e7113cc	0.23542708
98	0x3e8157b2	0.2526222
99	0x3ca3eec4	0.020011313
100	0xbdff3371	-0.124609835
101	0x3e8e8e3b	0.27842888
102	0x3ebfb4ea	0.37442714
103	0xbd1a099b	-0.037606817
104	0x3c83b033	0.01607523
105	0xbe87cb1c	-0.26522148
106	0x3d80f7ab	0.06297239
107	0x3eb5ff48	0.35546327
108	0x3c60d6c2	0.013723077
109	0x3e2c91da	0.16852513
110	0x3d32d77c	0.043662533
111	0x3ed65617	0.41862556
112	0xbcdaad19	-0.026693868
113	0x3ec322a3	0.38112363
114	0x3e5189f7	0.20462786
115	0x3dbb3366	0.09140663
116	0x3e8ff720	0.2811823
117	0x3e9d1c88	0.3068583
118	0x3eb5854a	0.35453254
119	0xbdcd5844	-0.10026601
120	0x3f0e3226	0.5554527
121	0xbe70e36f	-0.23524259
122	0x3d7f87bc	0.062385306
123	0x3e7218b0	0.2364223
124	0x3d846112	0.06463827
125	0x3e01a82e	0.12661812
126	0x3e7dd253	0.24787264
127	0x3e347f13	0.176266

lstm.weight_hh_l0 f4 [128, 32]
0	0xbf0267dd	-0.5093973
1	0xbe5eb8e8	-0.21750224
2	0xbdde3cf1	-0.108514674
3	0xbe1bbe41	-0.15209295
4	0x3e26a7e5	0.16274984
5	0xbcd3b425	-0.025842736
6	0xbe21744d	-0.15767021
7	0x3b3e055a	0.002899489
8	0x3d99d9db	0.07512256
9	0xbe9c6db8	-0.3055246
10	0x3d3386be	0.043829672
11	0x3c425aec	0.011862498
12	0xbe00e5d1	-0.12587668
13	0xbe0e18d7	-0.13876663
14	0xbdb75889	-0.089524336
15	0xbe658a64	-0.22416073
16	0x3e213434	0.1574257
17	0x3db77c6e	0.0895928
18	0xbd9836f1	-0.07432354
19	0x3ea3d313	0.31996974
20	0x3e487909	0.19577421
21	0x3e3bfbe2	0.18357804
22	0xbd27f77d	-0.041007508
23	0xbe2b86b8	-0.1675061
24	0x3e06ce1b	0.1316456
25	0x3e335870	0.17514205
26	0xbda10c6f	-0.078637
27	0x3dc67ff0	0.09692371
28	0x3d697ab2	0.057001777
29	0xbd97d9d5	-0.07414595
30	0xbe9c1d2c	-0.30491006
31	0xbe5899e5	-0.21152456
32	0xbd0b37ce	-0.033988766
33	0x3c0d56ca	0.008626649
34	0xbdec87d5	-0.115493454
35	0xbe2959d2	-0.1653817
36	0xbe774ac5	-0.24149616
37	0x3e0c6071	0.13708664
38	0xbe4dce9c	-0.20098346
39	0xbe8b36d7	-0.27190277
40	0x3d049ea4	0.032377854
41	0xbde43c34	-0.11144295
42	0x3e7e3fbe	0.24829003
43	0x3e397a02	0.18112949
44	0xbe612f5b	-0.21990721
45	0xbeddb026	-0.43298453
46	0xbb9aa957	-0.004719894
47	0x3e95d949	0.29267338
48	0xbe532f82	-0.20623592
49	0xbde82609	-0.1133538
50	0x3e1ff80f	0.1562197
51	0x3e1919a4	0.14951187
52	0x3e1339c8	0.1437751
53	0x3dbb95fd	0.09159467
54	0x3e0d24de	0.13783595
55	0x3e474b1e	0.19462249
56	0xbda4104a	-0.080109194
57	0x3e4ac92a	0.198033
58	0xbea9e594	-0.33182967
59	0x3df998c6	0.12187342
60	0x3da8eeb7	0.08248656
61	0xbe8af5b4	-0.27140582
62	0xbe90f5b1	-0.28312448
63	0xbea579f5	-0.32319608
64	0x3e9250d7	0.285773
65	0x3e51c308	0.20484555
66	0x3db345d3	0.08753552
67	0xbe4ae0fb	-0.19812386
68	0x3e8126d6	0.25224942
69	0x3c37524f	0.0111890575
70	0x3e4c6e60	0.1996398
71	0x3e90216f	0.28150508
72	0xbdda4fb2	-0.10659732
73	0x3ab328ba	0.0013668754
74	0xbe917285	-0.28407684
75	0xbc543240	-0.012951434
76	0xbe72a5f8	-0.23696125
77	0x3e96d34a	0.29458076
78	0xbe6575a7	-0.22408162
79	0xbe29d64f	-0.16585658
80	0x3ed08a74	0.4073063
81	0xbe1d85d2	-0.1538308
82	0xbe8deee1	-0.27721313
83	0x3e6578f2	0.22409418
84	0x3d6482bb	0.055788737
85	0xbcd2e644	-0.025744565
86	0x3e460b32	0.19340208
87	0xbe6250bd	-0.22101112
88	0x3e21ab6a	0.15788046
89	0x3d3ba450	0.045810997
90	0x3da9d00b	0.08291634
91	0x3d14f26c	0.036364004
92	0xbcad00c0	-0.021118522
93	0x3e535d71	0.20641114
94	0xbde1b5fd	-0.1102104
95	0x3dad179f	0.08451771
96	0xbf121c02	-0.57073987
97	0x3eb2c1ba	0.34913427
98	0xbe10c5cf	-0.14137958
99	0xbe8502f2	-0.2597881
100	0xbdaa8782	-0.08326627
101	0x3e5b216f	0.21399473
102	0xbdca4c36	-0.09877817
103	0xbd0decfd	-0.034649838
104	0x3dd198fa	0.10234256
105	0x3ecc08c3	0.39850435
106	0x3eb9a227	0.36256525
107	0x3be9cd00	0.0071350336
108	0xbe3f0355	-0.18653615
109	0xbe8a60a6	-0.27026862
110	0x3e264796	0.16238245
111	0x3e98ac8c	0.29819143
112	0xbea5de63	-0.3239623
113	0x3f139d50	0.57661915
114	0xbe07ee97	-0.13274609
115	0x3eaf8bec	0.3428644
116	0x3dcbf7da	0.09959383
117	0x3e46bd65	0.19408186
118	0x3f09cee1	0.538313
119	0xbf06fe3d	-0.52731687
120	0xbe8d4491	-0.27591375
121	0xbd261a25	-0.040552277
122	0xbe9a7947	-0.30170652
123	0x3f0df0cd	0.5544556
124	0xbe1689a0	-0.14700937
125	0xbe68364a	-0.2267696
126	0xbeb3ae3b	-0.35093865
127	0xbd3e3024	-0.04643263
128	0x3e3b21f0	0.18274665
129	0xbe9ef8a8	-0.31049085
130	0x3e819d60	0.2531538
131	0x3cf7ec79	0.030264126
132	0x3d94bc8e	0.072625265
133	0xbd025d6f	-0.031827386
134	0x3d900983	0.07033064
135	0xbe66f77b	-0.22555344
136	0x3f01dc0c	0.5072639
137	0xbf804679	-1.0021507
138	0x3db24a0e	0.08705531
139	0x3edec4fa	0.43509656
140	0xbecff5d2	-0.40617234
141	0xbf08486c	-0.53235507
142	0xbde2144a	-0.11039026
143	0x3e8afcf5	0.27146116
144	0x3e4106c1	0.18850233
145	0x3e8ab1e1	0.27088836
146	0x3e43a8a9	0.19107307
147	0x3e905dc3	0.28196535
148	0x3ef04d08	0.4693377
149	0xbd29b74d	-0.041434575
150	0xbbbb7b35	-0.0057214745
151	0xbf4db034	-0.8034699
152	0xbd91a104	-0.071107894
153	0xbd9f91ad	-0.07791457
154	0x3c0d6cf3	0.008631933
155	0x3ee07ca4	0.43845093
156	0xbeccf46d	-0.40030232
157	0x3d42f990	0.047601283
158	0xbda5a419	-0.0808794
159	0x3ca16306	0.019700538
160	0x3e028552	0.1274617
161	0x3e70fb58	0.2353338
162	0xbe78b9ce	-0.24289629
163	0xbe09f000	-0.13470459
164	0x3e2ab64e	0.16671106
165	0x3e6eb47a	0.23311034
166	0xbde2ede7	-0.110805325
167	0x3e003b7c	0.12522691
168	0xbd78115d	-0.060563434
169	0xbe7524c6	-0.23939809
170	0xbe3040c0	-0.172122
171	0x3e7d748e	0.24751493
172	0xbe31152c	-0.17293233
173	0x3cd26445	0.025682578
174	0xbd4d2d03	-0.050091755
175	0x3d0e1c4e	0.034694962
176	0x3e8d3bdc	0.27584732
177	0x3a917b9c	0.001109946
178	0x3a05870a	0.000509367
179	0x3e4d6a49	0.20060076
180	0x3e729fc8	0.23693764
181	0x3e6b1b21	0.22959568
182	0x3e807cc1	0.2509518
183	0xbee339a8	-0.44379926
184	0x3d8fd11c	0.07022306
185	0x3d5bb7c4	0.05364205
186	0xbe632d0a	-0.2218515
187	0x3e0104b6	0.12599453
188	0x3d902661	0.0703857
189	0xbe2df58e	-0.16988203
190	0xbd84d45a	-0.06485815
191	0xbd11d3b4	-0.035602286
192	0x3dd02974	0.101641566
193	0x3dc2ae94	0.095059544
194	0xbe1e53df	-0.15461682
195	0xbed9008f	-0.4238324
196	0xbced921a	-0.02900033
197	0x3e8d387a	0.2758215
198	0xbe3f31b6	-0.18671307
199	0x3e39d3d0	0.18147206
200	0xbb9c30d0	-0.004766561
201	0xbd887d3b	-0.06664511
202	0xbdb50d40	-0.08840418
203	0x3e02251f	0.12709473
204	0x3b9bfd08	0.0047603883
205	0x3ec096ea	0.37615138
206	0xbdcd080f	-0.10011303
207	0xbe61810f	-0.22021888
208	0x3e74705f	0.23870991
209	0xbda35efd	-0.07977102
210	0x3d859d23	0.06524112
211	0x3e72d01b	0.23712198
212	0x3e084b26	0.13309917
213	0x3cde0578	0.027102217
214	0xbc9879d9	-0.018612789
215	0x3c911987	0.017712368
216	0x3d3fe18a	0.04684595
217	0x3e04c777	0.12966715
218	0xbe422192	-0.18958119
219	0xbe1cc3f9	-0.15309133
220	0x3cf20dc9	0.029547589
221	0xbdf1b7eb	-0.11802658
222	0x3d915138	0.07095569
223	0xbda39711	-0.07987798
224	0x3e5485ca	0.20754161
225	0xbec19764	-0.37810814
226	0xbd76986c	-0.060203955
227	0xbe27307d	-0.1632709
228	0xbe5a0d52	-0.21294144
229	0x3e64f3ca	0.22358623
230	0xbde052e3	-0.109533094
231	0xbeb04387	-0.3442652
232	0x3e8ffe88	0.2812388
233	0xbec0df78	-0.37670493
234	0xbdf67850	-0.120346665
235	0x3f327cf4	0.69721913
236	0xbed19906	-0.4093706
237	0xbf08158c	-0.5315788
238	0xbdc9b9e2	-0.098499075
239	0x3e9c6091	0.30542424
240	0xbeeae1d6	-0.45875424
241	0x3ed9f941	0.42572978
242	0x3f0ab05e	0.54175365
243	0x3e9f8568	0.31156468
244	0x3f498d51	0.78731257
245	0x3ea9fea6	0.33202094
246	0x3ebb8644	0.36625874
247	0xbe905a4c	-0.2819389
248	0xbf2148b1	-0.63001543
249	0xbd83c73f	-0.064344876
250	0xbdcf4927	-0.101213746
251	0x3ebd8195	0.37012926
252	0xbf0d2d81	-0.5514756
253	0xbd05a305	-0.03262617
254	0xbf33726f	-0.70096487
255	0xbec5a3cd	-0.38601533

lstm.bias_ih_l0 f4 [128]
0	0x3eb6aa52	0.3567682
1	0x3e53736b	0.20649497
2	0x3d591e11	0.05300719
3	0xbebd021a	-0.36915666
4	0x3f68f7f4	0.91003346
5	0x3e0057a6	0.12533435
6	0x3e156f65	0.14593275
7	0x3f136bfa	0.57586634
8	0x3ea8cc0f	0.32968184
9	0x3e31e7f0	0.17373633
10	0x3e530e76	0.20610985
11	0xbe8137a7	-0.25237772
12	0xbe8cc6f5	-0.27495542
13	0x3d82d69a	0.06388588
14	0x3f25589d	0.6458834
15	0x3e36b83c	0.17843717
16	0x3f761b17	0.96135086
17	0x3d4d38e5	0.050103087
18	0xbe28d07b	-0.16485779
19	0xbe9b82f5	-0.3037335
20	0xbd99fd1c	-0.0751898
21	0x3dd46d22	0.10372378
22	0xbe847993	-0.25874004
23	0x3f1f3210	0.62185764
24	0x3d399714	0.045310095
25	0xbf979fb0	-1.1845608
26	0x3cb08641	0.021548392
27	0x3d748749	0.05969933
28	0xbf074741	-0.528431
29	0x3ece2b15	0.40267244
30	0xbdedb86f	-0.116074435
31	0x3da25e35	0.07928125
32	0xbde0b244	-0.109715015
33	0xbe35989b	-0.17733996
34	0x3e05033c	0.12989515
35	0xbeaad83d	-0.33368102
36	0x3e1e0f6e	0.15435573
37	0x3ebf0c07	0.37313864
38	0xbd639b86	-0.05556824
39	0xbd509aa2	-0.05092872
40	0xbeef3bd0	-0.4672532
41	0x3dd77f61	0.105223425
42	0xbc533a17	-0.012892268
43	0x3e4b4be9	0.19853176
44	0x3e187d1e	0.14891478
45	0x3dcc1d1d	0.099664904
46	0xbea4638b	-0.32107195
47	0xbe8293b9	-0.25503328
48	0xbea5ebc5	-0.3240644
49	0xbe8db14c	-0.2767433
50	0xbd012c80	-0.03153658
51	0x3e874a03	0.26423654
52	0x3d0d1055	0.034439404
53	0x3ed4ed62	0.4158736
54	0xbe9995df	-0.29997155
55	0x3db22152	0.086977616
56	0x3dcb34c2	0.09922172
57	0xbf35a806	-0.7095951
58	0xbe19da0d	-0.15024586
59	0xbd6454b0	-0.055744827
60	0xbf1224d4	-0.57087445
61	0x3e565d25	0.2093397
62	0x3e334f55	0.17510732
63	0xbe038fd4	-0.12847835
64	0xbaacebee	-0.0013192871
65	0xbd8c55db	-0.06852313
66	0xbe1cd31e	-0.1531491
67	0xbe0044ab	-0.12526195
68	0xbefb33e5	-0.4906303
69	0x3e3fc35d	0.18726869
70	0xbe0ee98c	-0.13956279
71	0xbcc31d12	-0.023817573
72	0x3e542a71	0.20719315
73	0xbe96ddab	-0.29465994
74	0x3e09e2a1	0.13465358
75	0x3d88eb48	0.06685501
76	0xbe411d66	-0.18858871
77	0xbe6277b9	-0.22115983
78	0xbd41ba20	-0.047296643
79	0x3ea90402	0.3301087
80	0x3cac7cab	0.02105554
81	0x3e7ec062	0.24878076
82	0x3e45df30	0.1932342
83	0x3e38aa2d	0.18033667
84	0x3dde4899	0.10853691
85	0x3df71ca3	0.12066009
86	0x3e1afa58	0.15134561
87	0xbe40b74b	-0.1881992
88	0xbe37fdb7	-0.17967878
89	0xbdfba36b	-0.12287029
90	0xbe3a80ff	-0.1821327
91	0x3e605df6	0.21910843
92	0xbdfc5d21	-0.123224504
93	0xbe63fbc0	-0.22264004
94	0xbdf5ccc1	-0.12001944
95	0xbecadc4d	-0.396212
96	0x3d816600	0.06318283
97	0x3e079517	0.13240467
98	0x3ee27395	0.44228807
99	0xbf17ec15	-0.5934461
100	0x3e6873b9	0.22700395
101	0x3daa7e19	0.083248325
102	0x3eb2d0a2	0.349248
103	0x3f3989b3	0.7247574
104	0x3f050b27	0.5197014
105	0x3e47a004	0.19494635
106	0xbc6067c7	-0.013696617
107	0x3e698c76	0.22807488
108	0x3de4169e	0.111371264
109	0x3edb017b	0.42774567
110	0x3f0e7af9	0.5565639
111	0x3eae93e3	0.34097204
112	0x3f5144e8	0.8174577
113	0x3e81e430	0.25369406
114	0xbe380137	-0.17969213
115	0x3e382183	0.17981534
116	0x3e0864e9	0.13319744
117	0xbd5a97f3	-0.053367566
118	0xbc974c96	-0.018469136
119	0x3ec60d8f	0.3868222
120	0xbd6b37c8	-0.057426244
121	0xbf79c130	-0.97560406
122	0x3ef2c177	0.47413227
123	0x3ebc806a	0.36816722
124	0xbf032d6b	-0.5124118
125	0x3f3d505f	0.7395076
126	0x3daa4fe1	0.08316017
127	0x3e65d766	0.22445449

lstm.bias_hh_l0 f4 [128]
0	0x3dd48c17	0.103782825
1	0x3e6f280d	0.23355122
2	0x3e0db933	0.13840179
3	0xbe337d72	-0.17528322
4	0x3f32019b	0.695337
5	0xbdbefd8c	-0.09325704
6	0xbc2d5d74	-0.010581363
7	0x3f007e04	0.50192285
8	0x3e1e940e	0.15486166
9	0x3e929e75	0.28636518
10	0x3e964c93	0.29355296
11	0xbded404e	-0.11584531
12	0xbe82f7d9	-0.25579718
13	0x3df1265e	0.11774896
14	0x3f12837c	0.5723188
15	0xbdb9e98e	-0.0907775
16	0x3f5c2ce9	0.8600603
17	0x3eab4526	0.33451194
18	0xbea12daa	-0.3148015
19	0xbe7b3975	-0.24533637
20	0x3d3e4eaa	0.04646174
21	0x3e151260	0.14557791
22	0xbc764f01	-0.015033484
23	0x3f1825b9	0.5943256
24	0x3e9a081e	0.30084318
25	0xbf9a52fd	-1.2056576
26	0x3d2788fb	0.04090212
27	0x3e8acef9	0.27111033
28	0xbf1a4c78	-0.6027293
29	0x3e67fb0b	0.22654359
30	0xbdf876c7	-0.1213203
31	0xbd0df8cc	-0.0346611
32	0xbe751cdb	-0.23936789
33	0xbc3a827d	-0.01138365
34	0x3e190f93	0.14947347
35	0xbee720a9	-0.45142105
36	0x3d2a327b	0.04155205
37	0x3e5765a2	0.21034864
38	0x3cb9dab7	0.0226873
39	0x3e66bcb2	0.22532919
40	0xbeaf05b2	-0.34184033
41	0x3d94f1b8	0.07272667
42	0xbe089c20	-0.13340807
43	0x3eb9a439	0.36258104
44	0xbe16aea6	-0.1471506
45	0x3e1b5efb	0.15172951
46	0xbe72b109	-0.23700346
47	0xbe8be9ee	-0.27326912
48	0xbe79e824	-0.24404961
49	0xbe543d7f	-0.20726584
50	0xbe922db8	-0.28550506
51	0x3e2426e2	0.16030458
52	0x3e0e80b2	0.13916281
53	0x3e27e044	0.16394144
54	0xbe284150	-0.16431165
55	0x3da3a8c8	0.07991177
56	0x3d3cf54a	0.046132363
57	0xbf2981f9	-0.6621395
58	0x3d1758f9	0.036950085
59	0xbe24c478	-0.16090572
60	0xbf1aa0b2	-0.6040145
61	0x3e269c7b	0.1627063
62	0x3e18532c	0.14875478
63	0x3dc35d1c	0.095392436
64	0x3e87c695	0.26518694
65	0xbe81c1e5	-0.25343242
66	0xbd3e51ec	-0.046464846
67	0xbd00f292	-0.031481333
68	0xbed0bc63	-0.40768728
69	0x3e152661	0.14565422
70	0xbe1f44ed	-0.15553637
71	0xbe4bd0df	-0.19903897
72	0x3e753e60	0.23949575
73	0xbe8572e9	-0.26064232
74	0xbe2f51a8	-0.17120993
75	0x3db474cd	0.088113405
76	0x3d8187b8	0.063247144
77	0xbe27d704	-0.16390616
78	0x3e6f25b2	0.23354223
79	0x3d345f21	0.044036034
80	0xbe114b4e	-0.14188883
81	0x3e1101ef	0.14160894
82	0x3d25b1be	0.04045271
83	0x3de62bde	0.11238836
84	0x3e5162cd	0.20447846
85	0x3e59cd8a	0.21269813
86	0xbdde259a	-0.10847016
87	0xbd609d00	-0.054837227
88	0xbcf55861	-0.029949369
89	0x3e02c5b7	0.12770735
90	0xbea9cbde	-0.3316335
91	0x3d9b9d03	0.07598307
92	0x3ce7a070	0.028274745
93	0xbe76f423	-0.24116568
94	0xbe87c1c4	-0.2651502
95	0xbec780a3	-0.3896533
96	0xbdabbf48	-0.083860934
97	0x3de548db	0.11195537
98	0x3ecf55ed	0.40495244
99	0xbe9bec90	-0.3045392
100	0x3e20d046	0.1570445
101	0x3e5e2f7f	0.21697806
102	0x3ea0a62d	0.31376782
103	0x3f2ee35a	0.6831566
104	0x3e798911	0.24368693
105	0x3e9bcd44	0.30430043
106	0x3d203db0	0.03912133
107	0x3d3df28b	0.046373885
108	0x3e5cc410	0.21559167
109	0x3f2e6198	0.68117666
110	0x3f2d98e1	0.678114
111	0x3ed16ec9	0.40904835
112	0x3f8700df	1.0547141
113	0x3ece640b	0.40310702
114	0xbde12432	-0.10993232
115	0x3dae824b	0.08520945
116	0x3e1ce1fb	0.1532058
117	0x3b93005a	0.004486126
118	0x3d59fe83	0.053221237
119	0x3eed8cdf	0.4639654
120	0x3e60b7c6	0.21945104
121	0xbf7b043b	-0.9805333
122	0x3e9d9915	0.30780855
123	0x3ebcf5a6	0.36906165
124	0xbefcaa90	-0.4934888
125	0x3f2bc379	0.6709514
126	0x3e131b92	0.14365986
127	0x3e8dbedf	0.27684686

lstm.weight_ih_l1 f4 [128, 32]
0	0x3ec13665	0.37736812
1	0xbf0d6b9c	-0.55242324
2	0x3dc6f987	0.09715562
3	0x3ebaa1e9	0.36451653
4	0x3e920c19	0.28524855
5	0x3db90bff	0.09035491
6	0x3cd5f917	0.026119752
7	0xbe7c0cde	-0.24614283
8	0x3ebf9df8	0.37425208
9	0xbe9d4c23	-0.3072215
10	0xbe2a1d76	-0.16612801
11	0x3d76c693	0.06024797
12	0xbdacf6f0	-0.08445537
13	0xbea93cea	-0.33054286
14	0x3e0f7c0b	0.14012162
15	0x3e664d57	0.2249044
16	0xbe9a8515	-0.3017966
17	0xbd896589	-0.067088194
18	0xbf14d2e3	-0.5813429
19	0x3cc80a2b	0.024418911
20	0xbd536815	-0.051612932
21	0x3e04f694	0.12984687
22	0xbd113670	-0.035452306
23	0xbde901e9	-0.113773175
24	0x3dcc2ddd	0.09969685
25	0x3e579c1e	0.21055648
26	0x3dbb2a7c	0.091389626
27	0x3d440179	0.047852967
28	0x3de9685f	0.1139686
29	0x3e3f1f3a	0.18664256
30	0xbe81ba10	-0.25337267
31	0xbd245dd1	-0.040128533
32	0xbeec2f35	-0.46129766
33	0x3efe724b	0.49696574
34	0x3da93ae2	0.08263184
35	0xbd85bd37	-0.065302305
36	0xbb3a9067	-0.0028467418
37	0xbe304fa1	-0.17217876
38	0x3e3c572f	0.18392633
39	0x3ed9d30c	0.42543828
40	0xbf0d6133	-0.5522644
41	0x3eaa004d	0.33203354
42	0x3e291ab5	0.16514094
43	0x3e2092c7	0.15680991
44	0x3e0d21a5	0.13782366
45	0x3e4fae03	0.20281224
46	0xbe5e1309	-0.21686949
47	0xbed973dc	-0.42471206
48	0x3e873613	0.26408443
49	0xbe31386d	-0.17306681
50	0x3e9c6075	0.3054234
51	0xbd86cd76	-0.06582157
52	0x3d0706a1	0.032965306
53	0xbbf32a4f	-0.007420815
54	0x3cb0c48d	0.021578098
55	0x3e677cb4	0.22606164
56	0x3e8810b8	0.26575255
57	0xbc681986	-0.0141662415
58	0xbe05efd2	-0.13079765
59	0x3d1d5faa	0.03842131
60	0xbe199559	-0.14998378
61	0x3e432c8c	0.19059962
62	0x3d689ddc	0.05679117
63	0xbd297f22	-0.04138101
64	0x3e959bba	0.29220372
65	0xbe243f4c	-0.16039771
66	0x3ce2b734	0.027675249
67	0xbe48bad2	-0.19602516
68	0x3ea5eede	0.32408804
69	0x3e426e91	0.1898749
70	0x3d6d513f	0.05793881
71	0xbe8a5f62	-0.27025896
72	0x3e615b85	0.22007568
73	0xbedfbcc6	-0.4369871
74	0xbe313af4	-0.17307645
75	0x3ec5bb41	0.38619426
76	0xbe023889	-0.12716879
77	0xbe2f11df	-0.17096661
78	0xbd076505	-0.033055324
79	0xbd011f6c	-0.031524107
80	0xbd87dd85	-0.06634048
81	0xbe07c448	-0.13258469
82	0xbddd6680	-0.10810566
83	0x3ef9a8d3	0.48761615
84	0x3e3a54ba	0.18196383
85	0x3e531ba2	0.2061601
86	0xbd5af616	-0.053457342
87	0xbece4df7	-0.40293857
88	0xbded7b35	-0.115957655
89	0x3e311986	0.17294893
90	0x3e2eb42e	0.1706092
91	0x3c997473	0.018732285
92	0xbddd305a	-0.10800238
93	0x3e092a3e	0.1339502
94	0xbd31d6f5	-0.04341789
95	0xbd087867	-0.03331795
96	0xbe818f81	-0.25304797
97	0x3f0c6c22	0.548525
98	0xbdfd4d08	-0.12368208
99	0xbd81986f	-0.063279025
100	0xbdbc69ef	-0.09199893
101	0x3e0e0a30	0.13871074
102	0xbd30445e	-0.04303395
103	0x3ec3fad7	0.38277313
104	0xbed13c9d	-0.40866557
105	0x3e47ead8	0.1952318
106	0x3e0bbeef	0.13647054
107	0x3e5496d0	0.20760655
108	0xbe3564c4	-0.1771422
109	0x3dceebf9	0.10103602
110	0xbe1dc038	-0.15405357
111	0xbda57623	-0.080791734
112	0x3e9bede8	0.30454946
113	0x3dcfc066	0.10144119
114	0x3e99b54f	0.3002114
115	0xbbfa283a	-0.00763419
116	0x3db67184	0.0890837
117	0x3dcf7113	0.10128989
118	0x3ea9b81c	0.33148277
119	0x3dbd1c79	0.09233946
120	0x3d6472e8	0.055773646
121	0xbdbc41ff	-0.09192275
122	0x3d43473d	0.04767536
123	0xbe3680b9	-0.17822541
124	0xbd77df6e	-0.060515814
125	0x3e1b65d3	0.15175562
126	0xbe4908db	-0.19632284
127	0x3d6d7e55	0.057981808
128	0x3d820728	0.06349021
129	0xbe5a07be	-0.21292016
130	0xbe23bea3	-0.15990691
131	0x3e5a565a	0.21322003
132	0x3e27c02a	0.16381899
133	0x3e757fca	0.23974529
134	0xbe362945	-0.1778918
135	0xbe96f2be	-0.29482073
136	0xbdf17e5f	-0.117916815
137	0x3d6e792b	0.058221024
138	0xbd98f8ad	-0.07469306
139	0x3ddf8005	0.1091309
140	0xbe391d9a	-0.18077698
141	0x3a20fbb4	0.00061410223
142	0x3e64853e	0.22316453
143	0x3d9873cb	0.07443961
144	0xbed71dd5	-0.42014948
145	0x3d8c0f0f	0.0683881
146	0xbe838171	-0.25684693
147	0x3e09ec2c	0.13468999
148	0x3e3cc29e	0.18433616
149	0xbc49aff3	-0.012310016
150	0x3e404f84	0.18780333
151	0xbe82ae2a	-0.25523502
152	0xbe1ca95a	-0.15298977
153	0xbe2737e7	-0.16329919
154	0xbd82af1f	-0.06381058
155	0x3de4665b	0.11152335
156	0x3e944477	0.28958485
157	0x3e7a87c1	0.24465849
158	0xbe8c3201	-0.273819
159	0x3e36e289	0.17859854
160	0xbe2f0ee8	-0.1709553
161	0x3e0ebf91	0.13940264
162	0xbdac420b	-0.08411034
163	0xbc5bfef2	-0.013427483
164	0x3df4faa7	0.11961871
165	0x3daa2ce1	0.08309341
166	0xbe9da6be	-0.30791277
167	0x3eeb003e	0.45898622
168	0xbe193291	-0.14960696
169	0x3c09b50c	0.008404981
170	0x3df0db34	0.1176056
171	0x3ec1057f	0.37699506
172	0xbedc3312	-0.43007714
173	0x3e35f9b4	0.17771035
174	0xbeb25721	-0.348321
175	0xbecb5539	-0.39713457
176	0xbdc30fae	-0.09524475
177	0xbc8f3192	-0.017479692
178	0x3e73d2c3	0.23810868
179	0x3e83689f	0.25665757
180	0x3da1881d	0.0788729
181	0x3e66ff6c	0.22558373
182	0x3d8c5d56	0.0685374
183	0xbeacd50e	-0.33756298
184	0xbcc0fec4	-0.023558982
185	0xbd00e0e3	-0.03146447
186	0xbd6f6fea	-0.05845634
187	0x3cc6b8b5	0.024257997
188	0xbbb25788	-0.0054425634
189	0xbe4ebef6	-0.20190033
190	0xbe818dd4	-0.2530352
191	0xbd41f4c8	-0.047352582
192	0x3ec7c411	0.39016774
193	0x3e6a5886	0.22885332
194	0xbe303e17	-0.17211185
195	0xbe84259d	-0.25809947
196	0xbc42385f	-0.01185426
197	0x3ee222b1	0.44167092
198	0xbdd4face	-0.103994
199	0xbe7007fc	-0.23440546
200	0x3e3548cc	0.17703551
201	0xbf1b02c6	-0.60551107
202	0xbeaba730	-0.3352599
203	0x3ecbbc92	0.39792305
204	0xbe36ae16	-0.17839846
205	0xbe756e27	-0.23967801
206	0xbe11ee09	-0.1425096
207	0x3d7c4d1c	0.061596975
208	0xbe189511	-0.14900614
209	0x3e49fa1f	0.1972432
210	0x3edc3605	0.43009964
211	0x3f18cffc	0.5969236
212	0x3f0712d7	0.5276312
213	0x3e77cb8f	0.24198745
214	0x3e7743c0	0.24146938
215	0xbe9d0b1b	-0.30672535
216	0x3e13770e	0.14400885
217	0xbdb801aa	-0.089846924
218	0x3dd339fc	0.10313794
219	0x3cded236	0.027199846
220	0xbdb905bf	-0.09034299
221	0x3d86a004	0.06573489
222	0xbed0c8c9	-0.40778187
223	0xbdd1db8c	-0.10246953
224	0x3e43f75c	0.19137329
225	0xbe8384a3	-0.2568713
226	0xbd35363f	-0.044241186
227	0x3e20c535	0.15700229
228	0x3ea8e3ab	0.32986197
229	0x3eace870	0.33771086
230	0xbe3e22c8	-0.18567955
231	0xbef118e2	-0.47089297
232	0xbd9e9fb4	-0.07745305
233	0xbe0dac94	-0.13835365
234	0x3d681fe0	0.056671023
235	0x3eb7f6d0	0.3593049
236	0xbdfb2515	-0.12262932
237	0xbe9be56f	-0.3044848
238	0x3e4d4d88	0.20049107
239	0xbd77fdcb	-0.06054477
240	0xbf29ad3e	-0.6627997
241	0xbd4d8bf4	-0.050182298
242	0xbe9e0d76	-0.30869645
243	0x3e766144	0.24060541
244	0x3d980282	0.07422353
245	0x3dbec8f3	0.09315672
246	0x3ead5a59	0.33857992
247	0xbea6e15b	-0.32593808
248	0x3d2dcaa6	0.04242959
249	0x3c64d826	0.013967549
250	0x3d83d9f3	0.06438055
251	0x3e243f48	0.16039765
252	0x3eedfe38	0.46483016
253	0x3ee3284b	0.4436668
254	0xbd9782ae	-0.07397972
255	0xbd319ac6	-0.043360494

lstm.weight_hh_l1 f4 [128, 32]
0	0xbd16e5ba	-0.036840178
1	0xbda1665f	-0.07880854
2	0x3e23f1e1	0.16010238
3	0x3d59931f	0.05311882
4	0x3df833ce	0.12119256
5	0xbceae401	-0.028673174
6	0xbda64bed	-0.081199504
7	0x3e76322d	0.24042578
8	0xbdead44f	-0.11466276
9	0xbe88f196	-0.26746815
10	0xbe408750	-0.18801618
11	0xbe0d3ec7	-0.13793479
12	0x3e94b46e	0.29043907
13	0xbd4dbd01	-0.050229076
14	0xbe2667a9	-0.1625048
15	0x3be58e25	0.0070054703
16	0xbd9a3c22	-0.07531001
17	0x3e89be39	0.2690294
18	0xbe04bd12	-0.1296275
19	0x3e1081a2	0.14111951
20	0x3e36508c	0.17804164
21	0xbc20f68e	-0.009824408
22	0x3e8e3ef2	0.27782398
23	0x3e1e1e79	0.15441312
24	0x3e9e7193	0.30946025
25	0xbdff3869	-0.12461931
26	0x3e832a4a	0.25618201
27	0x3cbcb24c	0.023034237
28	0xbe3cd9dc	-0.18442482
29	0xbdf6477b	-0.120253526
30	0x3e2ccc4b	0.16874807
31	0x3e60923e	0.21930787
32	0xbd1299c8	-0.03579119
33	0xbd00fd3a	-0.031491496
34	0x3ddf6dfc	0.1090965
35	0xbd3a602c	-0.045501873
36	0xbd72f667	-0.05931702
37	0xbd9d53d5	-0.07682005
38	0xbdb966b5	-0.09052793
39	0xbd3ca75c	-0.046058044
40	0x3e180834	0.14846879
41	0x3db034b5	0.08603803
42	0xbe3e6554	-0.18593341
43	0x3e09655b	0.1341757
44	0xbeb489fa	-0.35261518
45	0x3ce27d3d	0.027647609
46	0x3e72ac0d	0.23698445
47	0x3eae28b0	0.34015417
48	0x3cdb0235	0.02673445
49	0xbdaa8110	-0.08325398
50	0x3e15fe11	0.146477
51	0x3a587e48	0.00082585635
52	0xbde0c3a2	-0.10974814
53	0xbcd86a9a	-0.02641802
54	0x3ceb2f94	0.02870921
55	0x3e7e5ce7	0.24840127
56	0xbdaa356d	-0.083109714
57	0xbda8b727	-0.082380585
58	0xbdd57bc6	-0.104239985
59	0x3e220ba3	0.15824752
60	0x3e37ef25	0.1796232
61	0x3d821eab	0.06353506
62	0xbe2a4f79	-0.16631879
63	0x3d37ea3c	0.044901118
64	0x3e3e9570	0.18611693
65	0x3b15e1ab	0.0022870104
66	0xbd80ff1e	-0.0629866
67	0x3ec69b92	0.38790566
68	0x3ecebe6f	0.40379664
69	0x3e50f440	0.20405674
70	0x3e61e066	0.22058257
71	0x3d82011d	0.063478686
72	0xbd02126a	-0.031755842
73	0xbe4bd0dc	-0.19903892
74	0xbcf55b46	-0.02995075
75	0xbe0859b9	-0.13315476
76	0x3e160be0	0.14652967
77	0x3d7d9651	0.06191093
78	0x3ca2e190	0.019882947
79	0xbe851d4b	-0.2599891
80	0xbe492ae8	-0.19645274
81	0x3b47cf34	0.0030488493
82	0xbf026f92	-0.5095149
83	0x3ea9827a	0.33107358
84	0x3ecb2767	0.396785
85	0xbdb1defc	-0.08685109
86	0x3dd5c27c	0.104374856
87	0xbda6fd66	-0.08153801
88	0x3ef46998	0.47736812
89	0xbe4b92c7	-0.1988021
90	0x3e90dbd3	0.28292713
91	0x3e9c4e7d	0.30528632
92	0xbe407413	-0.18794279
93	0xbe8a6069	-0.2702668
94	0x3eba3257	0.3636653
95	0x3dd81a2f	0.10551869
96	0xbdaf11b3	-0.08548298
97	0xbdca9bd1	-0.09893001
98	0xbe3ef9a7	-0.18649922
99	0x3e048c11	0.12944056
100	0xbdad52d2	-0.08463062
101	0xbdf08534	-0.117441565
102	0x3f026e04	0.5094912
103	0xbce246f2	-0.02762172
104	0x3e2dbe35	0.1696709
105	0xbde3d6f0	-0.111249804
106	0xbeb72988	-0.35773873
107	0x3db48064	0.08813551
108	0xbd40efe9	-0.047103796
109	0x3e1cdb80	0.15318108
110	0x3f282e24	0.65695405
111	0xbe7a505c	-0.24444717
112	0x3d195193	0.03743131
113	0xbd2320a8	-0.039826065
114	0xbcf253f0	-0.02958104
115	0x3da6a510	0.08136952
116	0x3d0627c4	0.032752767
117	0x3e2440d4	0.16040355
118	0xbd02bcc8	-0.031918317
119	0x3c81dac8	0.015851393
120	0x3d0946fd	0.033514965
121	0xbe4aabe6	-0.19792137
122	0xbdde51f9	-0.10855479
123	0x3e04f7ee	0.12985203
124	0xbd9039e3	-0.07042291
125	0xbe2ab8bd	-0.16672035
126	0x3c3ed342	0.0116470475
127	0xbe8d8e92	-0.27647835
128	0xbd94198d	-0.07231436
129	0xbddb8b38	-0.10719913
130	0x3deaf1d8	0.11471909
131	0x3d1fef94	0.03904684
132	0x3e2517c6	0.1612235
133	0x3dd350e4	0.10318163
134	0x3f1bcab1	0.6085616
135	0xbe3b02f8	-0.18262851
136	0x3df38158	0.11889905
137	0xbe35a5fc	-0.177391
138	0x3dba8f4a	0.091093615
139	0xbcd03b44	-0.025418885
140	0xbeee45d5	-0.46537653
141	0xbcf346fb	-0.029696932
142	0x3ef3d46d	0.47623006
143	0xbe2adc20	-0.16685534
144	0xbbc2a418	-0.0059399717
145	0xbe10121a	-0.14069405
146	0xbcda8c48	-0.02667822
147	0xbdcbee9b	-0.0995762
148	0xbe4217a2	-0.18954328
149	0xbe82ff43	-0.25585374
150	0x3d4d63cc	0.050144
151	0xbdc564dc	-0.09638378
152	0x3e15a97e	0.14615437
153	0xbe3cbec0	-0.1843214
154	0xbd12982c	-0.035789654
155	0x3d3381ea	0.043825068
156	0xbe932b4b	-0.28743967
157	0xbe08c853	-0.13357668
158	0x3ebc95c7	0.3683302
159	0xbe145f08	-0.14489377
160	0xbd300f61	-0.042983416
161	0xbdc50db4	-0.09621754
162	0xbe8be5e6	-0.27323836
163	0xbc8547aa	-0.016269524
164	0x3e04c976	0.12967476
165	0x3e62ccbc	0.22148412
166	0x3dfe5da8	0.12420207
167	0xbdaa4de9	-0.083156414
168	0x3ea90723	0.33013257
169	0xbdecc4b9	-0.11560959
170	0xbdcc0a96	-0.099629566
171	0x3ca9f0e1	0.020744743
172	0xbda77e3b	-0.081783734
173	0x3e45e987	0.19327365
174	0x3e0e884e	0.13919184
175	0xbeb96654	-0.36210883
176	0x3e618687	0.22023974
177	0x3d177b85	0.03698303
178	0xbd7f37d1	-0.06230909
179	0xbe1705dd	-0.1474833
180	0xbd38e611	-0.045141283
181	0xbd3ed635	-0.046591002
182	0x3e29f929	0.16598953
183	0x3ccb313b	0.024803748
184	0x3dc5c5b8	0.096568525
185	0xbe8daa57	-0.2766902
186	0x3cfee93f	0.03111708
187	0xbe0e3806	-0.13888559
188	0xbe2b7649	-0.16744341
189	0xbe675474	-0.2259081
190	0xbd90178d	-0.07035742
191	0xbe4323c4	-0.19056612
192	0x3e22aa55	0.15885289
193	0x3e451516	0.19246325
194	0xbe976bc4	-0.29574406
195	0x3e82e5b4	0.25565875
196	0x3ed15db5	0.40891805
197	0x3d2a019e	0.04150545
198	0x3b0379e9	0.0020061678
199	0x3e232f37	0.1593598
200	0x3e4142ef	0.1887319
201	0xbe4af644	-0.19820505
202	0xbe33911a	-0.1753582
203	0xbe7334e4	-0.23750645
204	0xbe70aba4	-0.23502976
205	0x3d101877	0.03517958
206	0xbe086076	-0.13318047
207	0xbe3dafbb	-0.18524067
208	0xbd2e70e0	-0.042588115
209	0xbe6cee57	-0.23137794
210	0xbead5080	-0.3385048
211	0x3e5e237c	0.21693224
212	0x3e9c9c32	0.30587918
213	0xbd057d07	-0.03258994
214	0x3e40694a	0.18790165
215	0x3dcb732e	0.09934078
216	0x3ecf2870	0.4046054
217	0xbea99b12	-0.33126122
218	0x3e38c5d2	0.18044212
219	0x3ea9f9ca	0.33198386
220	0xbdde4d7e	-0.10854624
221	0xbe524ec6	-0.20537862
222	0x3e2284cf	0.15870975
223	0xbcac0276	-0.020997267
224	0x3e84c717	0.25933143
225	0x3e344195	0.17603143
226	0xbe53341b	-0.20625345
227	0x3e4b6e31	0.19866253
228	0x3e3136af	0.17306016
229	0xbd3cc973	-0.046090554
230	0x3f300653	0.6875965
231	0x3d398e93	0.045301985
232	0x3d7a2e40	0.061079264
233	0x3d9bdbf6	0.076103136
234	0x3d2d4155	0.042298634
235	0x3eb4b046	0.35290736
236	0xbdb16342	-0.0866151
237	0xbe44d163	-0.192205
238	0x3e9f81ff	0.31153867
239	0xbf086fd4	-0.53295636
240	0x3e58f7a0	0.21188211
241	0xbdd772bf	-0.10519933
242	0xbcd38133	-0.025818443
243	0x3e7f876b	0.24954002
244	0xbb4ffdea	-0.0031737038
245	0xbdf7e156	-0.12103526
246	0xbddb1218	-0.106968105
247	0xbcfc59aa	-0.030804474
248	0x3e337373	0.17524509
249	0xbdb90888	-0.0903483
250	0x3e237370	0.15962005
251	0xbe01abb7	-0.1266316
252	0xbe874318	-0.26418376
253	0xbe3118a6	-0.17294559
254	0x3eb5ad43	0.3548375
255	0x3d55ea17	0.0522252

lstm.bias_ih_l1 f4 [128]
0	0xbb4e62f8	-0.0031492095
1	0x3e309fcd	0.17248459
2	0x3edead0c	0.434914
3	0x3e0d2d1b	0.13786738
4	0xbdf4dc5c	-0.11956093
5	0x3e9343c7	0.28762648
6	0x3f32bd24	0.69819856
7	0xbe906c87	-0.282078
8	0x3ece95f6	0.40348786
9	0xbda6f38e	-0.08151923
10	0x3d51cd26	0.051221035
11	0x3deb1947	0.11479431
12	0x3e6c6540	0.23085499
13	0x3e9d743e	0.30752748
14	0x3f1312b9	0.57450444
15	0x3f45b4b6	0.7722887
16	0x3e2c36cf	0.16817783
17	0x3e068929	0.1313826
18	0x3ccce3f5	0.025011042
19	0xbc5f5ff7	-0.01363372
20	0x3a3c61a1	0.00071861787
21	0xbe3d9ebe	-0.18517587
22	0xbb5a9412	-0.0033352417
23	0xba0ba172	-0.00053264864
24	0xbe0e8b03	-0.13920216
25	0xbe827ffc	-0.2548827
26	0xbe305001	-0.17218019
27	0x3d41825a	0.047243454
28	0xbd8b2725	-0.067945756
29	0x3d3fc3c2	0.04681755
30	0xbe46fd5e	-0.1943259
31	0x3daa0190	0.08301079
32	0xbe295b57	-0.1653875
33	0xbd825f31	-0.063658126
34	0xbe2e1b66	-0.17002639
35	0xbdd9bf97	-0.10632246
36	0xbd95ed9e	-0.073207125
37	0x3dadd126	0.084871575
38	0x3e01f3ee	0.12690708
39	0xbe1fcae0	-0.15604734
40	0xbd8cd1a8	-0.06875926
41	0xbe19b3bd	-0.15009971
42	0x3c31a4c0	0.010842502
43	0xbe73c310	-0.23804879
44	0xbcfb1a7e	-0.03065228
45	0x3d25aa8a	0.04044584
46	0xbe669396	-0.22517237
47	0xbe0f752d	-0.14009543
48	0xbe599ae8	-0.21250498
49	0xbce15a6e	-0.02750894
50	0xbb253651	-0.0025209377
51	0xbe59355c	-0.21211761
52	0xbe53a7f5	-0.2066954
53	0xbd58262d	-0.052770782
54	0x3d3b0072	0.04565472
55	0x3e2f5e21	0.17125751
56	0xbe18c810	-0.14920068
57	0xbdefa516	-0.117014095
58	0xbd4e96ca	-0.050436772
59	0xbe154d24	-0.14580208
60	0xbca4969d	-0.02009135
61	0xbe029b67	-0.12754594
62	0x3d2d39d2	0.04229147
63	0x3d068ca0	0.032848954
64	0x3db8052a	0.0898536
65	0x3df5aae6	0.11995487
66	0x3cebcc8b	0.028784057
67	0xbdfdea89	-0.1239825
68	0x3e06fe25	0.13182886
69	0x3dec76d7	0.115461044
70	0xbe1a0d77	-0.15044199
71	0x3e0d98ef	0.13827871
72	0xbd46b765	-0.048514742
73	0xbd05e0ab	-0.032684963
74	0x3d947f61	0.07250858
75	0xbdd470fb	-0.10373112
76	0xbd8383b8	-0.06421608
77	0x3d528859	0.051399563
78	0x3d4caa89	0.049967322
79	0xbd603ed1	-0.054747406
80	0xbd923c3c	-0.07140395
81	0xbe434a38	-0.19071281
82	0x3d4fcb21	0.05073083
83	0xbe430ef8	-0.19048679
84	0x3d07fbde	0.033199184
85	0x3e1eba48	0.15500748
86	0x3cca9b7c	0.024732344
87	0x3d9c524e	0.07632886
88	0x3d326fab	0.043563526
89	0xbd260390	-0.04053074
90	0x3d297121	0.041367654
91	0x3d953558	0.07285565
92	0x3e5b6ec0	0.21428967
93	0x3dc18699	0.094495006
94	0xbe10975f	-0.14120243
95	0xbe37ea00	-0.17960358
96	0x3ef65b45	0.48116508
97	0x3d84ea28	0.06489974
98	0x3f17c769	0.5928865
99	0x3b973640	0.0046146214
100	0x3ddb1387	0.10697084
101	0x3ebe9850	0.3722558
102	0x3f0beed7	0.54661316
103	0x3dca748e	0.09885512
104	0x3e99d7c2	0.30047423
105	0x3b705932	0.0036674258
106	0x3e89f619	0.2694557
107	0x3f1321e9	0.5747362
108	0x3ea01133	0.31263122
109	0x3ddac9e2	0.10683037
110	0x3d9c0e7b	0.076199494
111	0x3f2300c0	0.6367302
112	0x3ded1152	0.11575569
113	0x3e6af800	0.22946167
114	0xbd0e1e9b	-0.034697156
115	0x3e0fa706	0.14028558
116	0x3d00189c	0.03127347
117	0x3e332317	0.17493854
118	0x3ccb7b49	0.02483906
119	0x3e4803f4	0.19532758
120	0xbd84c3fe	-0.06482695
121	0x3de690fb	0.112581216
122	0x3d0405cf	0.032232102
123	0x3e178816	0.14798006
124	0x3dd7a15f	0.10528826
125	0x3e1baf4f	0.15203594
126	0x3e2af142	0.16693595
127	0x3d5ccc23	0.053905617

lstm.bias_hh_l1 f4 [128]
0	0x3dd7ee3c	0.105434865
1	0x3c2bf676	0.010495773
2	0x3f0f59bc	0.559963
3	0x3dda4d3c	0.106592625
4	0xbe284ee7	-0.16436349
5	0x3cae84b6	0.021303516
6	0x3f184521	0.5948048
7	0xbdbf3698	-0.09336585
8	0x3eea0026	0.45703238
9	0xbe32effc	-0.1747436
10	0xbe34aaf1	-0.17643334
11	0x3e17528b	0.14777581
12	0x3e4d43d6	0.20045409
13	0x3db28573	0.0871686
14	0x3ed1ee27	0.41002008
15	0x3f6f5900	0.9349518
16	0x3e87cdd9	0.26524237
17	0x3ed187e2	0.40923983
18	0xbd8f4dba	-0.06997247
19	0xbe0b5f96	-0.13610682
20	0xbe77c815	-0.24197419
21	0xbd99021f	-0.07471108
22	0xbd74c49c	-0.059757814
23	0x3c36aa6c	0.01114903
24	0xbd8cc517	-0.068735294
25	0xbe38b5d8	-0.18038118
26	0xbc26c0ee	-0.010177834
27	0x3c5b9448	0.013402052
28	0xbd685e3b	-0.05673049
29	0xbd231010	-0.03981024
30	0xbce08938	-0.027409181
31	0x3e27b392	0.16377094
32	0xbdf50709	-0.119642325
33	0x3dd16699	0.10224647
34	0xbe557118	-0.20843923
35	0xb9fff136	-0.00048817106
36	0xbc8340e0	-0.016022146
37	0xbd995fe2	-0.07488991
38	0xbe1df162	-0.15424111
39	0x3b6a0d26	0.0035713403
40	0xbd3508ce	-0.04419785
41	0xbe2f9a20	-0.17148638
42	0x3e07a006	0.13244638
43	0xbe9c55e2	-0.30534273
44	0xbe35890d	-0.17728062
45	0x3d2c1296	0.042009912
46	0x3ce78ca8	0.028265312
47	0xbe24d2ce	-0.1609604
48	0x3ce27243	0.027642375
49	0x3d4d6a70	0.050150335
50	0x3ca99900	0.020702839
51	0xbe349dc8	-0.17638314
52	0xbcf4b870	-0.029873103
53	0xbe7b7cba	-0.24559298
54	0x3cd4861a	0.02594285
55	0x3e5386e8	0.20656931
56	0xbe3fd05d	-0.18731828
57	0xbe97b730	-0.29631948
58	0xbe465eaf	-0.19372056
59	0xbe14cca3	-0.14531188
60	0x3d274002	0.040832527
61	0xbd9ad7d1	-0.07560695
62	0xbd6e8e59	-0.058241222
63	0xbdf06c63	-0.11739423
64	0x3e5602e4	0.2089954
65	0xbd492082	-0.049103267
66	0xbd9751b0	-0.073886275
67	0x3dfa4dc3	0.12221863
68	0xbe20e85b	-0.15713637
69	0x3d2c9b6e	0.042140417
70	0x3b184040	0.0023231655
71	0xbcc0c021	-0.023529114
72	0x3d61cbcd	0.055126
73	0xbcbf2ca5	-0.023336718
74	0xbd39f128	-0.045396
75	0xbce9986c	-0.028515063
76	0x3e12f4f0	0.14351249
77	0x3e1769c8	0.14786446
78	0xbdc33b70	-0.09532821
79	0xbd4c19a9	-0.04982916
80	0x3d9b277c	0.075758904
81	0xbdfe046d	-0.12403188
82	0x3e4c3bb8	0.19944656
83	0xbe1c9219	-0.15290107
84	0x3e539239	0.20661248
85	0xba724b50	-0.000924279
86	0x3de1303e	0.109955296
87	0x3ddd6fed	0.10812364
88	0xbe089b59	-0.1334051
89	0x3e2c1e5a	0.16808453
90	0xbdd8ab86	-0.105795905
91	0x3e077ed2	0.13231972
92	0x3df5546a	0.11978991
93	0xbce562c1	-0.028001191
94	0xbd634381	-0.0554843
95	0xbdc47006	-0.09591679
96	0x3ef59771	0.47967103
97	0x3e6ac93a	0.22928324
98	0x3ef73ee2	0.48290163
99	0x3dc9e075	0.09857265
100	0xbcf1ec90	-0.029531747
101	0x3dbc20f3	0.09185972
102	0x3f3b15bc	0.7308004
103	0xbd0580de	-0.0325936
104	0x3f022b1f	0.5084705
105	0x3cac3741	0.02102244
106	0x3df5d586	0.12003617
107	0x3f3d62dc	0.7397897
108	0x3e9ab110	0.30213213
109	0x3e9f6c58	0.31137347
110	0x3e92004d	0.28515854
111	0x3f5c830e	0.86137474
112	0x3e9c8857	0.3057277
113	0x3e90aad7	0.2825534
114	0xbd53d789	-0.051719222
115	0x39d02bf3	0.00039705596
116	0x3db3dccf	0.0878235
117	0x3e6b6d63	0.22990946
118	0x3e8e981f	0.27850434
119	0xbb254d50	-0.0025223084
120	0x3e3094e0	0.17244291
121	0xbcad2ecf	-0.021140484
122	0xbd0e30eb	-0.03471462
123	0x3e38abda	0.18034306
124	0xbca08ea6	-0.01959927
125	0x3e0a3fe3	0.13500933
126	0x3e4efb24	0.2021299
127	0x3dae3cf5	0.085077204

fc.weight f4 [1, 32]
0	0xbf28bb36	-0.6591066
1	0x3f8073f1	1.0035383
2	0x3f2b4119	0.66896206
3	0x3f76c15b	0.9638879
4	0x3f7f16a8	0.99643946
5	0x3f53dc00	0.8275757
6	0xbf69387e	-0.91101825
7	0x3f6458bc	0.891979
8	0xbf653fef	-0.8955068
9	0xbf829b3c	-1.0203624
10	0x3f829744	1.0202413
11	0xbf6f278c	-0.9341972
12	0x3f764a3a	0.9620701
13	0x3f505f86	0.8139576
14	0xbf83a59f	-1.0284919
15	0x3f91c2be	1.1387556
16	0xbf34a4e5	-0.7056411
17	0x3f4eef3f	0.8083381
18	0xbf797cb8	-0.9745593
19	0x3f6025cc	0.87557673
20	0x3f7200a9	0.9453226
21	0xbf66c489	-0.9014364
22	0x3f66c5a9	0.90145355
23	0xbf7799c7	-0.9671902
24	0x3f72cf80	0.9484787
25	0xbf6c8972	-0.92397225
26	0x3f75ff3b	0.96092576
27	0x3f79011f	0.97267336
28	0xbf69b6b9	-0.9129444
29	0xbf6ef25b	-0.93338555
30	0x3f7eb275	0.99491054
31	0x3f5c26ba	0.8599659
