best_model.pth (torch, 55083 bytes, 9 tensors)

lstm.weight_ih_l0 f4 [128, 1]
0.27109435 -0.08203609 0.0066717425 0.32533193 -0.16710968 0.08829917 0.0028778196 0.24484135
0.13586313 -0.0040614055 0.076046355 0.46843112 -0.06264621 0.1955421 -0.044457152 -0.0131134195
0.18560539 0.004377161 0.10580964 -0.084358364 0.05810292 0.050176416 0.07977113 -0.014465017
0.015651869 0.048993744 -0.19201934 -0.13203497 0.12222182 0.038525667 0.15002695 0.39704338
0.10094472 -0.060848493 0.040101826 -0.09598953 0.091767155 0.0812865 0.13030073 -0.11651559
-0.019876221 0.0028545125 -0.14370786 -0.15115024 -0.06332403 0.019200852 0.030962665 -0.2525183
0.0016132807 -0.09252178 -0.065706275 0.055409312 -0.04784682 0.12541914 -0.12006756 0.100580685
-0.09996608 -0.08688051 0.051526457 0.06957799 0.043762427 0.07849377 0.00916913 -0.0013264887
0.29284537 0.14629087 0.23361002 0.055700164 0.08734259 0.16989344 0.06265118 -0.13045768
0.13209438 0.08894898 0.111694574 0.15521969 0.06739143 -0.086763 -0.17262703 -0.09094021
-0.11648513 -0.25994503 -0.21318708 -0.08034559 0.10874334 -0.17205119 -0.30853936 0.12189912
0.04821412 -0.043728597 0.29449478 -0.043805044 0.07078759 -0.14193386 -0.13825116 0.14146094
0.015000998 0.10499358 -0.06623564 -0.11757603 0.11477587 0.021034745 0.110402375 0.2587803
0.092447996 0.06167452 0.041314922 0.14100048 0.16308814 -0.16617996 -0.034522023 0.101194486
-0.034450613 -0.19352606 0.26665324 0.2520235 0.095484614 0.20296171 0.20213154 0.06743773
-0.09879947 0.08286697 -0.123970106 0.1795243 0.19172959 0.09155145 0.20715636 -0.041768257
00000000: e1cc 8a3e 8a02 a8bd a29e da3b e891 a63e
00000010: cd1e 2bbe 32d6 b43d cd99 3c3b b1b7 7a3e
00000020: b41f 0b3e 8a15 85bb 31be 9b3d 34d6 ef3e
00000030: a84c 80bd 303c 483e b418 36bd abd9 56bc
00000040: 570f 3e3e 4a6e 8f3b b9b2 d83d 14c4 acbd
00000050: 54fd 6d3d c985 4d3d 0c5f a33d aefe 6cbc
00000060: 5938 803c aaad 483d b8a0 44be 2d34 07be
00000070: 6f4f fa3d 17cd 1d3d aaa0 193e 4549 cb3e
00000080: 1bbc ce3d 453c 79bd d041 243d 2996 c4bd
00000090: 6bf0 bb3d 8979 a63d 8e6d 053e ba9f eebd
000000a0: 75d3 a2bc c612 3b3b 2728 13be 21c7 1abe
000000b0: 07b0 81bd 1b4b 9d3c 6aa5 fd3c 144a 81be
000000c0: b874 d33a 0f7c bdbd 0391 86bd e0f4 623d
000000d0: 07fb 43bd e06d 003e fbe5 f5bd 3ffd cd3d
000000e0: 04bb ccbd 69ee b1bd 680d 533d e87e 8e3d
000000f0: 3b40 333d 57c1 a03d 1e3a 163c 93dd adba
00000100: d4ef 953e 46cd 153e 7737 6f3e db25 643d
00000110: ace0 b23d 8cf8 2d3e 434f 803d b396 05be
00000120: c043 073e e22a b63d 20c0 e43d e9f1 1e3e
00000130: 8504 8a3d cdb0 b1bd 24c5 30be dc3e babd
00000140: c18f eebd 8417 85be b74d 5abe 3b8c a4bd
00000150: d4b4 de3d 302e 30be dff8 9dbe 3fa6 f93d
00000160: 2b7c 453d c21c 33bd 05c8 963e eb6c 33bd
00000170: 16f9 903d 1c57 11be b691 0dbe 23db 103e
00000180: bfc6 753c e006 d73d 8da6 87bd b4cb f0bd
00000190: 9d0f eb3d 0f51 ac3c a41a e23d da7e 843e
000001a0: 6055 bd3d 6c9e 7c3d d639 293d 6e62 103e
000001b0: 9400 273e 142b 2abe f766 0dbd 0e3f cf3d
000001c0: 161c 0dbd b22b 46be c686 883e 3909 813e
000001d0: 708d c33d 32d5 4f3e 92fb 4e3e cb1c 8a3d
000001e0: 6057 cabd 28b6 a93d 0ae4 fdbd 38d5 373e
000001f0: c354 443e 547f bb3d cc20 543e 3115 2bbd

lstm.weight_hh_l0 f4 [128, 32]
-0.008709472 0.35029733 -0.05340475 0.21240157 0.14647676 0.43156967 -0.07770344 0.04186578
0.3001516 0.15661146 -0.019229088 0.22077641 -0.13263956 -0.24371842 -0.086510494 0.21768701
-0.22768247 -0.011777564 0.0640133 -0.3385812 0.122309834 0.16044126 0.085186124 0.52367663
0.24418296 -0.05578101 0.038441278 0.15493234 0.07133931 -0.54120845 -0.15697996 0.16637067
-0.038210187 0.13132179 0.018213583 -0.06703518 0.096965805 0.048984747 -0.057898782 0.055839516
0.17664616 0.18923064 0.053345297 0.4490616 0.017686974 0.0393158 -0.22261375 -0.19445495
-0.3946041 0.24746534 -0.07727425 0.114594914 0.33796418 -0.06184513 0.1339189 0.2645671
0.21421409 -0.08658816 0.14691997 -0.23300616 -0.07671016 -0.25591293 -0.0060060387 0.09679593
-0.0067001004 0.12952901 0.0033573653 0.28109714 0.11674528 0.15546645 0.33850995 -0.10355796
0.27994424 0.2539231 0.022707706 0.03637153 -0.06079955 0.048319858 -0.16422315 -0.19961473
0.14353415 0.25481725 -0.11247813 -0.08028801 0.051583737 -0.13925406 -0.22541201 0.23347463
0.26704073 0.17574356 0.040398456 -0.23295392 -0.115869574 -0.095716655 0.014624468 -0.34697926
0.20429708 0.12209578 -0.06488727 -0.30789298 -0.02361969 0.14804797 0.3194817 0.21987617
0.18086453 -0.056173097 -0.02668494 0.17643811 0.39062563 -0.29530528 0.000556404 -0.13289966
-0.123782314 -0.13403392 -0.15575922 -0.30227143 -0.15859376 0.04226859 -0.4221461 0.099371225
0.29469916 -0.28292984 0.03592669 -0.11424988 0.3719452 0.14442429 -0.30686933 -0.14241697
-0.17250967 -0.14527729 -0.26889965 0.32583442 -0.33522892 0.10328046 0.2574776 -0.11468554
0.17487054 0.4451304 -0.082234405 0.10252337 -0.286336 -0.46665967 -0.33123028 -0.34039485
-0.56742656 0.4237787 0.3015945 0.20673822 0.24433972 -0.011463626 -0.0619794 0.20879462
0.4969779 0.04431967 -0.06311146 -0.046111207 0.08655266 0.20558497 0.27411973 0.27530265
-0.036150288 -0.04484437 0.057514448 -0.19386955 0.2594773 0.00043884516 0.056009255 0.044681836
-0.34085926 -0.15776351 -0.1866926 -0.25362292 -0.23207234 0.11602069 0.26600328 0.13776453
0.08249118 -0.7825921 -0.24595594 0.22618786 -0.19985165 0.0072054253 0.01796447 0.22125888
0.41342765 -0.4595133 0.6281718 -0.09205512 0.23001017 -0.33197746 -0.18651384 -0.17885801
-0.33095217 -0.32313302 -0.43563604 0.5436455 -0.5220017 -0.26236373 0.02643614 0.015077277
-0.25618535 0.1817998 -0.032377087 -0.25842202 -0.3799974 -1.2052106 -0.53771204 -0.12056058
-1.0557225 0.52661794 0.38805142 0.24319208 0.32748327 0.3790557 0.33434957 -0.23147237
-0.1795548 0.17385334 -0.36665782 0.14419451 -0.09144328 0.20116413 0.3045984 0.9357167
0.02015554 0.012552041 0.53466487 -0.24693169 0.01876419 -0.022594998 -0.21388729 -0.11137136
-0.23568657 0.33932757 0.110226594 -0.27687547 0.34856328 -0.0075226184 0.1891314 -0.30445415
0.30852306 -0.7235184 -0.4048585 0.14828926 -0.28948107 -0.2825936 -0.14821854 -0.4435403
-0.13311702 -0.17530663 0.4404615 0.04886809 0.25431055 0.17711379 -0.12520954 -0.31802374
00000000: 2cb2 0ebc 2c5a b33e f0be 5abd cc7f 593e
00000010: 01fe 153e b3f6 dc3e fb22 9fbd 747b 2b3d
00000020: 78ad 993e c15e 203e 5286 9dbc 3613 623e
00000030: aad2 07be 5291 79be 6a2c b1bd 58e9 5e3e
00000040: 9825 69be aff6 40bc 6819 833d 845a adbe
00000050: 947d fa3d b74a 243e 1076 ae3d ac0f 063f
00000060: 190b 7a3e a17a 64bd 9a74 1d3d 95a6 1e3e
00000070: 581a 923d a38c 0abf 5bbf 20be 135d 2a3e
00000080: 4982 1cbd 3879 063e a734 953c be49 89bd
00000090: 0296 c63d 3ba4 483d 4627 6dbd fab7 643d
000000a0: bbe2 343e adc5 413e 9980 5a3d 67eb e53e
000000b0: 46e4 903c 9b09 213d dcf4 63be 331f 47be
000000c0: 8c09 cabe 8e67 7d3e f641 9ebd bdb0 ea3d
000000d0: a409 ad3e 5251 7dbd 0922 093e 5775 873e
000000e0: f05a 5b3e 2255 b1bd 3072 163e 2b99 6ebe
000000f0: 371a 9dbd 0507 83be 4ece c4bb f23c c63d
00000100: 848c dbbb 41a3 043e 3e07 5c3b f7eb 8f3e
00000110: 2618 ef3d 9932 1f3e 2d51 ad3e 3216 d4bd
00000120: da54 8f3e 3502 823e 8305 ba3c 50fa 143d
00000130: f308 79bd 0beb 453d 1d2a 28be ce67 4cbe
00000140: 9efa 123e 6877 823e ef5a e6bd 0a6e a4bd
00000150: 7849 533d 9e98 0ebe 68d2 66be f913 6f3e
00000160: 90b9 883e 1ff6 333e da78 253d 798b 6ebe
00000170: 074d edbd 1807 c4bd 779b 6f3c 44a7 b1be
00000180: 4133 513e 5a0d fa3d 9ee3 84bd 26a4 9dbe
00000190: 157e c1bc e399 173e 1b93 a33e 3827 613e
000001a0: 8d34 393e c315 66bd 609a dabc 31ac 343e
000001b0: 1500 c83e 4132 97be a4db 113a d916 08be
000001c0: 9581 fdbd 3040 09be 587f 1fbe 52c3 9abe
000001d0: 6766 22be d421 2d3d 8923 d8be 2483 cb3d
000001e0: cfe2 963e 2edc 90be dd27 133d d7fb e9bd
000001f0: 9a6f be3e f6e3 133e fa1d 9dbe c1d5 11be
00000200: 60a6 30be 92c3 14be 37ad 89be c5d3 a63e
00000210: 20a3 abbe b584 d33d 1bd4 833e 41e0 eabd
00000220: 4311 333e 22e8 e33e 836a a8bd c6f7 d13d
00000230: a29a 92be 04ee eebe 0497 a9be 3c48 aebe
00000240: de42 11bf 86f9 d83e 986a 9a3e 2fb3 533e
00000250: 3134 7a3e efd1 3bbc 1dde 7dbd 42ce 553e
00000260: e373 fe3e 8b88 353d 9540 81bd 1bdf 3cbd
00000270: 8542 b13d de84 523e 6c59 8c3e 78f4 8c3e
00000280: 5312 14bd bbae 37bd 4594 6b3d bd85 46be
00000290: 35da 843e cd14 e639 f669 653d 4d04 373d
000002a0: 1b85 aebe c28c 21be 582c 3fbe ddda 81be
000002b0: 5fa4 6dbe 419c ed3d 9531 883e 2512 0d3e
000002c0: 23f1 a83d f557 48bf e0db 7bbe ca9d 673e
000002d0: e9a5 4cbe 7d1b ec3b 392a 933c b091 623e
000002e0: caac d33e 5445 ebbe decf 203f 6587 bcbd
000002f0: c987 6b3e f3f8 a9be 7cfd 3ebe 8e26 37be
00000300: 9072 a9be b171 a5be b00b dfbe 5a2c 0b3f
00000310: e7a1 05bf 8a54 86be 9b90 d83c af06 773c
00000320: ba2a 83be ba29 3a3e d69d 04bd e44f 84be
00000330: 058f c2be 5744 9abf 7fa7 09bf 77e8 f6bd
00000340: ea21 87bf 6fd0 063f adae c63e 5807 793e
00000350: e3ab a73e 9713 c23e de2f ab3e 1807 6dbe
00000360: 37dd 37be 9c06 323e 93ba bbbe baa7 133e
00000370: 9d46 bbbd f8fd 4d3e 52f4 9b3e 218b 6f3f
00000380: 3b1d a53c 13a7 4d3c ccdf 083f a9db 7cbe
00000390: 5cb7 993c 2519 b9bc 4505 5bbe ab16 e4bd
000003a0: d257 71be 58bc ad3e 7bbe e13d 9fc2 8dbe
000003b0: e376 b23e 4c80 f6bb a9ab 413e 6ae1 9bbe
000003c0: bcf6 9d3e 8038 39bf 9d49 cfbe 24d9 173e
000003d0: dd36 94be 1cb0 90be 9ac6 17be b717 e3be
000003e0: d44f 08be 9583 33be 2b84 e13e e829 483d
000003f0: fe34 823e 515d 353e ee36 00be 02d4 a2be

lstm.bias_ih_l0 f4 [128]
-0.1366634 0.12464744 0.39088663 -0.35133693 -0.002964596 0.4871463 -0.30106202 -0.007540378
-0.10714926 -0.06742845 0.13647771 0.094917595 0.30739492 0.36482108 0.3114501 0.111684844
-0.019914271 0.62673825 0.36467347 0.12341633 -0.08252975 0.036899693 -0.03339622 0.1583322
-0.4199468 -0.30710283 0.28343818 -0.29380047 -0.23542653 0.23506229 -0.24381915 -0.17942646
-0.18601544 -0.080122694 0.15122233 -0.48250583 -0.030251598 -0.1970837 -0.24761987 -0.29163572
-0.22171286 -0.21776894 -0.10815956 -0.4469177 0.1342203 -0.07597867 -0.013782791 0.017801056
-0.2217321 0.043848075 0.20816357 -0.06754687 -0.32977757 0.043755323 -0.024804898 -0.120336056
-0.46129227 -0.1630062 0.1644001 0.02477122 -0.23295608 -0.10963695 -0.1650904 -0.10106468
-0.07571725 -0.17630537 0.1513766 -0.07852079 0.21285121 -0.013693544 0.10865685 -0.016820963
-0.20419003 0.03059782 -0.1808311 -0.16700485 -0.37306312 0.0012105558 0.071118996 0.09531508
0.2935035 -0.24578346 -0.078626126 0.045635816 -0.19990705 -0.22210015 0.035645228 0.030945932
-0.100200236 -0.05704726 0.43708652 0.1397757 -0.10499414 -0.1988368 0.17837968 -0.26829496
-0.14136693 0.32437906 0.30286327 -0.1365019 -0.08613208 0.5329823 -0.3632642 0.3306913
-0.18825993 -0.19896963 0.28583464 0.12768112 0.21718954 0.0738083 0.20909372 -0.4257199
0.110884584 0.54872674 0.3581387 0.28791946 0.032158323 0.22472635 0.07476004 0.0377725
-0.098157056 -0.013742951 0.4606417 -0.3380553 0.09830756 0.4502284 -0.087943755 0.11350894
00000000: 7ef1 0bbe 2847 ff3d 4b22 c83e 6fe2 b3be
00000010: ab49 42bb 3d6b f93e cd24 9abe 4615 f7bb
00000020: 1271 dbbd ed17 8abd d0c0 0b3e 2864 c23d
00000030: de62 9d3e d4c9 ba3e 6376 9f3e 06bb e43d
00000040: 4123 a3bc eb71 203f 7bb6 ba3e b3c1 fc3d
00000050: 5c05 a9bd 2224 173d 7aca 08bd d621 223e
00000060: 4403 d7be 953c 9dbe cf1e 913e 046d 96be
00000070: a713 71be 2bb4 703e baab 79be 92bb 37be
00000080: d57a 3ebe 5e17 a4bd 07da 1a3e 010b f7be
00000090: 33d2 f7bc 4fd0 49be 1090 7dbe 4751 95be
000000a0: b208 63be d2fe 5ebe c282 ddbd 66d2 e4be
000000b0: 0c71 093e b49a 9bbd 37d1 61bc 85d3 913c
000000c0: bd0d 63be 0a9a 333d d528 553e 0356 8abd
000000d0: 9bd8 a8be c838 333d a433 cbbc c072 f6bd
000000e0: 802e ecbe 19eb 26be 8058 283e 03ed ca3c
000000f0: 0a8c 6ebe 5689 e0bd 750d 29be 00fb cebd
00000100: a511 9bbd 6589 34be 7802 1b3e 82cf a0bd
00000110: abf5 593e e35a 60bc 7c87 de3d 1ecc 89bc
00000120: 3117 51be 48a8 fa3c ca2b 39be 5203 2bbe
00000130: 2102 bfbe 83ab 9e3a d6a6 913d 8d34 c33d
00000140: 1746 963e a9ae 7bbe bc06 a1bd 9fec 3a3d
00000150: 6fb4 4cbe 396e 63be bb00 123d 5382 fd3c
00000160: c835 cdbd 63aa 69bd cec9 df3e 5c21 0f3e
00000170: 2b07 d7bd e09b 4bbe 2aa9 363e f55d 89be
00000180: 7ec2 10be 0315 a63e e510 9b3e 27c7 0bbe
00000190: 0466 b0bd 8771 083f c4fd b9be 5f50 a93e
000001a0: 36c7 40be b2be 4bbe eb58 923e d7be 023e
000001b0: ef66 5e3e ce28 973d aa1c 563e f5f7 d9be
000001c0: 7517 e33d 5b79 0c3f f55d b73e 2e6a 933e
000001d0: 72b8 033d aa1e 663e cb1b 993d 56b7 1a3d
000001e0: 9106 c9bd 1d2a 61bc 3bd9 eb3e 9615 adbe
000001f0: 7955 c93d 5684 e63e db1b b4bd 6077 e83d

lstm.bias_hh_l0 f4 [128]
-0.13316025 0.14256275 0.34929726 -0.061115306 -0.11348495 0.62977487 -0.097800046 0.13856114
0.04672752 -0.15434304 -0.039498817 0.09973553 0.10314749 0.26237512 0.19343984 -0.04972397
-0.06404634 0.6237209 0.2934419 -0.1412407 -0.0008876245 0.11184789 0.22853398 0.1873847
-0.37679613 -0.1358959 0.2805779 -0.11174731 -0.26175097 0.38997936 0.040205427 -0.110022396
-0.204888 -0.10361926 0.2190148 -0.3450257 0.004490166 -0.23598339 0.032424543 -0.29325202
-0.2813538 -0.1485234 -0.373865 -0.45314884 0.1319649 -0.010219991 -0.07186494 0.05006736
0.013756584 0.009161973 0.3366139 -0.113331094 -0.3003166 -0.13800932 0.16070445 -0.117044255
-0.30602187 -0.09986863 0.080399245 -0.17358418 -0.12189416 -0.28596792 -0.025547894 -0.05677321
-0.09293739 0.044147953 0.39304003 0.14653441 -0.016471444 0.045549866 0.14241995 0.05624876
-0.14160511 0.046530664 0.090611845 -0.19821072 -0.26587114 0.104430474 -0.2637921 -0.03880055
0.25849837 -0.5571284 -0.13155788 0.2093285 0.066123456 -0.07817554 -0.040717617 0.10497703
0.09224931 0.21114746 0.4844016 -0.0032787577 -0.31567946 0.055120103 0.11769831 -0.18625802
0.118526675 0.19600897 0.43406987 -0.0114820795 -0.08105977 0.5599309 -0.35759407 0.069499955
0.075988896 -0.30045384 -0.0047457796 0.10971651 0.33401167 0.0584026 0.048571028 -0.47973016
-0.09293315 0.38310257 0.28084108 0.02510591 -0.11381943 0.061962806 0.07823981 0.27066213
-0.18200472 -0.33628365 0.29144827 -0.40046218 0.18357131 0.39741924 -0.014982134 0.13079357
00000000: 295b 08be f8fb 113e 17d7 b23e 0b54 7abd
00000010: cc6a e8bd ed38 213f 644b c8bd f9e2 0d3e
00000020: 5b65 3f3d 1a0c 1ebe 83c9 21bd 2442 cc3d
00000030: fe3e d33d 0856 863e 1815 463e 5dab 4bbd
00000040: ba2a 83bd 2cac 1f3f 043e 963e 67a1 10be
00000050: 79af 68ba 8210 e53d d004 6a3e c6e1 3f3e
00000060: 6ceb c0be 4b28 0bbe e8a7 8f3e c6db e4bd
00000070: 3904 86be 60ab c73e 72ae 243d 6c53 e1bd
00000080: 29ce 51be 5636 d4bd 6a45 603e 35a7 b0be
00000090: 3e22 933b a1a5 71be 99cf 043d 2125 96be
000000a0: 9b0d 90be 8516 18be 3c6b bfbe 2003 e8be
000000b0: cf21 073e c071 27bc ed2d 93bd 6f13 4d3d
000000c0: 4c63 613c 1a1c 163c a858 ac3e 221a e8bd
000000d0: 19c3 99be 5152 0dbe b58f 243e e6b4 efbd
000000e0: e6ae 9cbe ed87 ccbd 5ca8 a43d 0dc0 31be
000000f0: a5a3 f9bd 636a 92be d149 d1bc 078b 68bd
00000100: f555 bebd 7cd4 343d 8b3c c93e 1e0d 163e
00000110: 1fef 86bc 7f92 3a3d 89d6 113e 1a65 663d
00000120: ee00 11be f096 3e3d b492 b93d c0f7 4abe
00000130: 4320 88be a5df d53d c20f 87be 53ed 1ebd
00000140: e659 843e f89f 0ebf 1cb7 06be 365a 563e
00000150: bc6b 873d 7f1a a0bd 84c7 26bd 32fe d63d
00000160: 35ed bc3d 0a37 583e 7d03 f83e 6de0 56bb
00000170: bda0 a1be 9ec5 613d d00b f13d 6cba 3ebe
00000180: 1dbe f23d 93b6 483e 683e de3e 551f 3cbc
00000190: aa02 a6bd a257 0f3f 9216 b7be fe55 8e3d
000001a0: 11a0 9b3d 16d5 99be 7c82 9bbb 0db3 e03d
000001b0: 9403 ab3e 9137 6f3d 6af2 463d 319f f5be
000001c0: bc53 bebd 0526 c43e 67ca 8f3e e9aa cd3c
000001d0: 291a e9bd b6cc 7d3d 323c a03d 3a94 8a3e
000001e0: 725f 3abe 5f2d acbe b538 953e 6109 cdbe
000001f0: 1efa 3b3e 897a cb3e a077 75bc c0ee 053e

lstm.weight_ih_l1 f4 [128, 32]
0.23899126 -0.22459048 -0.3084631 0.08338247 0.36067426 0.023086525 -0.015024719 -0.3889434
0.032655638 -0.26856813 0.026958002 0.28195727 -0.01911612 0.22838792 0.32179868 0.13643806
0.23751397 0.24913745 0.012191348 -0.15173449 -0.10590701 -0.016870176 -0.12561272 0.21356209
0.19612655 -0.34939468 -0.2615421 -0.21359567 0.15199505 0.066379495 -0.1736458 -0.13117437
0.14484264 0.21258627 0.0032086186 0.072777025 0.184056 0.09086503 0.24030074 -0.15507352
0.11589385 -0.013217565 0.1317081 0.0081456825 0.24781021 0.018359672 0.0038788542 -0.07598228
0.18690543 0.41883048 -0.03733577 0.061292294 -0.033855353 -0.025620436 -0.122549005 -0.015884286
0.109289065 -0.108955316 -0.12596703 -0.17638466 0.28572258 0.034475967 -0.2594062 -0.004016951
0.07973703 0.15199803 -0.053951032 -0.31421855 0.41794592 0.027831972 0.23030752 -0.16211854
-0.008446309 -0.1620441 0.14537208 0.40679976 -0.09302688 -0.10255345 0.05332348 0.03710142
-0.035895146 0.58782417 0.04790192 -0.09347444 -0.27226573 -0.11748138 -0.16976869 -0.010810879
-0.039367355 -0.2940303 -0.47212532 -0.019610893 0.20899035 0.006201005 -0.03636758 -0.19682504
0.28576186 0.16565645 0.18235853 0.21657847 -0.14511488 -0.0017668369 0.016068095 -0.23306537
0.12619902 -0.16210635 -0.20878322 -0.095916025 0.18294588 0.0035727052 -0.10690267 -0.06342103
0.04467952 0.1534312 -0.17710567 -0.09821996 -0.011833051 0.01724592 -0.033337303 0.11045476
0.2876237 -0.24185269 -0.17626749 -0.05653005 0.14538248 -0.117794596 -0.08135363 -0.22887497
0.52194095 0.0013522792 0.07294311 -0.36994508 0.2747667 0.19294015 0.20079364 -0.70672
0.18040594 -0.5174101 0.07327217 0.2804085 0.09209423 -0.021447333 0.32986796 0.04200688
0.07647301 0.24280265 -0.2370295 -0.104477674 -0.05434215 -0.4384853 -0.3717763 0.28881598
0.46108675 -0.13653204 -0.1613056 0.049701508 0.07332588 -0.030417416 -0.349412 -0.090152286
-0.03972384 -0.08842197 -0.112359 0.12278327 0.2207119 0.17933121 0.037711423 0.03680445
-0.074466966 -0.09867571 -0.035646062 0.22239667 0.21927759 0.20923316 -0.12669344 -0.112018704
-0.10966916 0.55212307 -0.08116816 -0.09567033 0.008186509 0.0485888 -0.12077431 0.14891857
0.13170855 -0.22693957 -0.06456334 -0.24962685 0.22518522 -0.07615571 -0.02250786 -0.13029355
-0.041704845 0.26892218 0.00036630404 -0.09381345 0.123792544 0.36171636 0.42537814 -0.122801244
0.40794083 0.051683057 0.30364668 0.32117364 -0.1153349 -0.09713136 0.046692505 -0.13107362
-0.11906075 0.1554105 -0.109703116 -0.15070522 0.0339541 0.07619222 -0.113695405 0.10165268
0.3800844 -0.120218195 -0.1469851 -0.5944984 0.18049294 -0.3314399 0.124918245 0.1923418
0.24729674 -0.015885519 -0.036303915 0.1237327 0.10361756 -0.10387623 0.033714708 -0.2696473
0.055182822 -0.06360549 0.13628276 0.102269925 0.01370569 -0.056667514 -0.14127316 0.029986177
0.01858829 0.18650189 -0.04805576 -0.13271996 0.18162182 -0.14180851 -0.19884798 0.085679315
0.009180613 -0.23801787 -0.16866958 -0.26938075 0.2893676 0.01519984 -0.17697504 -0.14210089
00000000: 20ba 743e 0cfb 65be e0ee 9dbe 6ec4 aa3d
00000010: 4caa b83e f41f bd3c 3d2a 76bc 9723 c7be
00000020: ebc1 053d c381 89be 07d7 dc3c b45c 903e
00000030: 6999 9cbc 86de 693e ccc2 a43e 6bb6 0b3e
00000040: dd36 733e e31d 7f3e 38be 473c 4960 1bbe
00000050: c6e5 d8bd 5333 8abc 9fa0 00be 05b0 5a3e
00000060: 66d5 483e dce3 b2be d9e8 85be d3b8 5abe
00000070: 97a4 1b3e f9f1 873d 34d0 31be 9352 06be
00000080: a151 143e 37b0 593e b047 523b 1f0c 953d
00000090: 2d79 3c3e 7217 ba3d 6611 763e 98cb 1ebe
000000a0: c159 ed3d 7c8e 58bc 7dde 063e 7875 053c
000000b0: f6c1 7d3e 0667 963c 6034 7e3b 999c 9bbd
000000c0: 2364 3f3e f370 d63e 64ed 18bd a10d 7b3d
000000d0: e9ab 0abd f3e1 d1bc f9fa fabd c31f 82bc
000000e0: f2d2 df3d f723 dfbd 80fd 00be 2e9e 34be
000000f0: 3b4a 923e ac36 0d3d e4d0 84be a1a0 83bb
00000100: 2b4d a33d 5fa5 1b3e c2fb 5cbd 41e1 a0be
00000110: 02fd d53e e0ff e33c bcd5 6b3e 6702 26be
00000120: 6362 0abc e3ee 25be 6bdc 143e 0f48 d03e
00000130: e084 bebd 8b07 d2bd b969 5a3d a9f7 173d
00000140: ca06 13bd a57b 163f ce34 443d 876f bfbd
00000150: 6a66 8bbe 149a f0bd d8d7 2dbe 1d20 31bc
00000160: aa3f 21bd 248b 96be 69ba f1be 06a7 a0bc
00000170: 9101 563e cd31 cb3b 2cf6 14bd 818c 49be
00000180: 614f 923e d8a1 293e 32bc 3a3e bfc6 5d3e
00000190: ff98 14be 3595 e7ba 3da1 833c b0a8 6ebe
000001a0: 513a 013e 35ff 25be 45cb 55be 9f6f c4bd
000001b0: 2a56 3b3e 0c24 6a3b c9ef dabd e3e2 81bd
000001c0: df01 373d 121d 1d3e 305b 35be 8c27 c9bd
000001d0: 6adf 41bc 5147 8d3c b28c 08bd 1b36 e23d
000001e0: 6a43 933e 3ba8 77be 777f 34be 0e8c 67bd
000001f0: 25df 143e 4b3e f1bd bb9c a6bd 335e 6abe
00000200: ec9d 053f f63e b13a 3263 953d 7169 bdbe
00000210: 39ae 8c3e 1a92 453e d99c 4d3e 9aeb 34bf
00000220: 56bc 383e fd74 04bf b80f 963d b491 8f3e
00000230: e69b bc3d 51b2 afbc 74e4 a83e 680f 2c3d
00000240: e29d 9c3d 42a1 783e dcb7 72be 64f8 d5bd
00000250: e095 5ebd 2581 e0be 7759 bebe b0df 933e
00000260: 9013 ec3e 0ecf 0bbe 4c2d 25be cf93 4b3d
00000270: e12b 963d f22d f9bc 21e6 b2be c3a1 b8bd
00000280: 77b5 22bd 9416 b5bd 7a1c e6bd cc75 fb3d
00000290: 4d02 623e 9aa2 373e 4b77 1a3d 43c0 163d
000002a0: 2382 98bd 7e16 cabd 9b01 12bd f4bb 633e
000002b0: 4e8a 603e 3841 563e edbb 01be 106a e5bd
000002c0: 399a e0bd f057 0d3f 7e3b a6bd ceee c3bd
000002d0: b520 063c 0d05 473d 8558 f7bd 1c7e 183e
000002e0: 9bde 063e d962 68be c939 84bd 2e9e 7fbe
000002f0: f496 663e 86f7 9bbd 6762 b8bc ac6b 05be
00000300: b3d2 2abd 2bb0 893e 7f0c c039 4421 c0bd
00000310: f286 fd3d e332 b93e 2acb d93e 387f fbbd
00000320: 9fdd d03e 9db1 533d 9477 9b3e df70 a43e
00000330: b434 ecbd ceec c6bd a440 3f3d 2a38 06be
00000340: 1fd6 f3bd ee23 1f3e 07ac e0bd 7852 1abe
00000350: 7413 0b3d ab0a 9c3d 23d9 e8bd 482f d03d
00000360: 6c9a c23e f534 f6bd 4383 16be 0c31 18bf
00000370: 24d3 383e 7eb2 a9be 23d5 ff3d 40f5 443e
00000380: 5b3b 7d3e 5922 82bc 6ab3 14bd 9267 fd3d
00000390: 7135 d43d 10bd d4bd 6f18 0a3d 360f 8abe
000003a0: 6207 623d 9843 82bd b58d 0b3e e572 d13d
000003b0: d58d 603c 321c 68bd e9a9 10be 92a5 f53c
000003c0: 7846 983c 5afa 3e3e 1ed6 44bd bee7 07be
000003d0: 12fb 393e 4036 11be ce9e 4bbe a378 af3d
000003e0: 486a 163c f5ba 73be b8b7 2cbe 46ec 89be
000003f0: fd27 943e c008 793c f238 35be e582 11be

lstm.weight_hh_l1 f4 [128, 32]
0.20379226 -0.017076375 -0.0059896614 -0.20131122 0.32056114 -0.25611776 -0.08533467 0.22253047
-0.07741135 0.0054208697 0.026902605 0.21230312 -0.10412222 -0.24473985 0.19689816 -0.11128892
-0.062721424 0.18512027 -0.36938196 0.18752424 -0.015100994 -0.058645125 0.1280327 0.28061697
-0.2401826 -0.25298557 0.01181924 0.38827515 -0.1664637 -0.04226009 0.0079066465 -0.0682509
-0.09911773 0.17715673 -0.18562837 0.009783798 0.08313274 0.19944091 0.027117914 0.031814083
0.30614188 0.059135985 0.17149527 -0.08880398 0.28320056 -0.12902527 -0.2183992 0.04485828
-0.1553182 0.3066702 -0.20220397 -0.21752466 -0.05959103 0.0840089 -0.05878125 -0.09586899
0.09723557 0.058621466 -0.024081968 0.25045395 0.051770605 -0.16344115 0.03250267 -0.07628853
-0.15502149 0.17314726 0.06461073 0.01694996 0.10607767 -0.20993738 0.10973932 -0.02622636
0.0852782 -0.03892424 0.12398363 -0.2368401 -0.2578262 0.033738077 0.18105124 -0.1957992
0.034058653 0.082929015 0.02063323 0.0017888028 -0.20188525 0.095116206 0.1414551 0.1557589
0.11494482 0.038136724 0.36976197 -0.23036304 -0.11806175 -0.0003199687 0.12506817 -0.09861839
-0.027409583 0.0069059557 -0.19200489 0.06626099 0.15968917 -0.044420373 0.11279322 0.17225525
0.21814886 0.12570871 0.22921877 -0.014677531 -0.0033858954 0.09259868 -0.1006829 0.082131125
-0.3214104 0.1514701 -0.10928386 0.08603084 -0.020416327 0.26507953 -0.20962533 -0.085870504
-0.06978264 0.057770282 0.15903848 0.3948418 0.0074195657 -0.124315105 -0.15851454 0.13570319
0.07708117 -0.21161883 0.13909295 -0.030074399 0.26225537 -0.090300106 -0.0705105 0.3000623
0.034502413 -0.24202594 0.2635958 0.20684147 -0.10137114 -0.17622246 0.27604774 -0.09123972
-0.14764243 0.041791596 -0.09293749 0.16772544 -0.049074218 0.08606721 0.25492698 0.14542128
0.04198259 -0.12112721 0.28971294 -0.0078106616 -0.2720413 0.058463708 -0.22638105 -0.16325709
-0.17010039 -0.06312614 -0.07745045 0.16231064 -0.08568823 0.16653202 0.17638436 0.12861738
0.26019078 0.21387601 0.002349693 0.005196349 -0.111236475 0.18097074 -0.19277255 0.009963307
-0.2030715 0.08437795 0.122366816 -0.21077837 0.19620807 0.06680334 0.1393343 -0.11574921
-0.083613314 -0.06166725 0.17764863 0.23629811 0.038883775 -0.15497568 0.18615216 -0.0007516472
-0.2740592 -0.14345463 -0.25510994 0.009584463 0.03851028 -0.09475557 0.12368747 0.02497895
0.23875983 0.10907274 -0.07183064 0.08025022 0.1326221 -0.021898089 -0.065984264 -0.096818544
-0.16751114 -0.028294262 -0.013710913 -0.14952458 -0.22896715 -0.19792911 0.19853964 0.001831472
0.084276676 0.12203069 0.2559559 -0.026714295 0.090401374 -0.09826199 -0.08814903 0.1059063
-0.10312731 -0.090573244 -0.26631615 -0.1587808 0.04315749 0.15837282 0.25207525 -0.11408032
0.062072214 -0.0026940815 -0.031101413 -0.0018998175 0.00408076 -0.08159935 -0.060372956 0.15953296
0.018952748 -0.0063399244 -0.24449483 0.03637126 0.052720863 0.21696593 -0.13483365 -0.24158819
-0.0074308678 -0.052137442 -0.108369075 0.41340357 0.08204988 0.03532261 0.15284376 0.10085469
00000000: ebae 503e c1e3 8bbc ec44 c4bb 8724 4ebe
00000010: 9720 a43e de21 83be f2c3 aebd 07df 633e
00000020: d889 9ebd 8da1 b13b da62 dc3c fd65 593e
00000030: 083e d5bd 159d 7abe ac9f 493e 72eb e3bd
00000040: 1774 80bd 2b90 3d3e a21f bdbe 5b06 403e
00000050: 296a 77bc df35 70bd 011b 033e 07ad 8f3e
00000060: 6df2 75be 5387 81be 7ca5 413c 00cc c63e
00000070: 7675 2abe eb18 2dbd e18a 013c 21c7 8bbd
00000080: 3dfe cabd 9368 353e 5d15 3ebe 394c 203c
00000090: 7f41 aa3d 3d3a 4c3e 6326 de3c 7c4f 023d
000000a0: a1be 9c3e 9338 723d 759c 2f3e dcde b5bd
000000b0: aaff 903e 331f 04be 0aa4 5fbe 51bd 373d
000000c0: bc0b 1fbe e003 9d3e 8f0e 4fbe c9be 5ebe
000000d0: b915 74bd dc0c ac3d 9cc4 70bd f656 c4bd
000000e0: 7123 c73d 101d 703d 8c47 c5bc 803b 803e
000000f0: 6a0d 543d 1e5d 27be 8521 053d 293d 9cbd
00000100: f4bd 1ebe 844d 313e a152 843d a4da 8a3c
00000110: 403f d93d d3f9 56be 02bf e03d aad8 d6bc
00000120: 56a6 ae3d 066f 1fbd 21eb fd3d 3686 72be
00000130: cc01 84be f030 0a3d 7f65 393e 967f 48be
00000140: 1681 0b3d b0d6 a93d 0507 a93c 4376 ea3a
00000150: 02bb 4ebe 49cc c23d 9bd9 103e 437f 1f3e
00000160: 3168 eb3d 4135 1c3d 7151 bd3e 4ae4 6bbe
00000170: 5cca f1bd 79c1 a7b9 df11 003e 70f8 c9bd
00000180: 108a e0bc 5b4b e23b ee9c 44be d8b3 873d
00000190: 8f85 233e 23f2 35bd 2200 e73d ae63 303e
000001a0: 6a62 5f3e c9b9 003e 53b8 6a3e 077a 70bc
000001b0: e6e5 5dbb 60a4 bd3d d632 cebd 5d34 a83d
000001c0: e78f a4be fa1a 1b3e 37d0 dfbd f030 b03d
000001d0: 2440 a7bc 81b8 873e 06a8 56be e0dc afbd
000001e0: 33ea 8ebd 88a0 6c3d fcda 223e b428 ca3e
000001f0: d41f f33b eb98 febd a351 22be c7f5 0a3e
00000200: bcdc 9d3d 9bb2 58be 626e 0e3e 965e f6bc
00000210: 5646 863e 43ef b8bd cf67 90bd c4a1 993e
00000220: 6752 0d3d a6d5 77be 07f6 863e 40ce 533e
00000230: ac9b cfbd a973 34be 2156 8d3e e4db babd
00000240: 942f 17be aa2d 2b3d 0356 bebd 38c0 2b3e
00000250: 0c02 49bd 0144 b03d ca85 823e 51e9 143e
00000260: f0f5 2b3d 8b11 f8bd 4155 943e 94f0 ffbb
00000270: ff48 8bbe a477 6f3d 6fd0 67be de2c 27be
00000280: cc2e 2ebe 4748 81bd 579e 9ebd c334 263e
00000290: 507d afbd 5f87 2a3e 1a9e 343e 46b4 033e
000002a0: ba37 853e 5002 5b3e 4ffd 193b 2346 aa3b
000002b0: f3cf e3bd 6550 393e 2b66 45be 233d 233c
000002c0: faf1 4fbe 59ce ac3d 749b fa3d 49d6 57be
000002d0: c5ea 483e 31d0 883d a7ad 0e3e ec0d edbd
000002e0: 753d abbd cc96 7cbd 86e9 353e 22f8 713e
000002f0: 9844 1f3d f2b1 1ebe ac9e 3e3e 310a 45ba
00000300: 7d51 8cbe c5e5 12be c59d 82be 2708 1d3c
00000310: f5bc 1d3d 350f c2bd db4f fd3d a8a0 cc3c
00000320: 757d 743e 8761 df3d f11b 93bd 3a5a a43d
00000330: 16ce 073e 9f63 b3bc c222 87bd cd48 c6bd
00000340: 0a88 2bbe 5ec9 e7bc bda3 60bc f91c 19be
00000350: 5d76 6abe eead 4abe fa4d 4b3e 010e f03a
00000360: 4099 ac3d 3aeb f93d a70c 833e f0d7 dabc
00000370: 5b24 b93d 953d c9bd 7b87 b4bd 67e5 d83d
00000380: 6934 d3bd 777e b9bd 975a 88be 6f97 22be
00000390: e9c5 303d 7c2c 223e 0210 813e f1a2 e9bd
000003a0: 6f3f 7e3d 308f 30bb 64c8 febc 4c03 f9ba
000003b0: e5b7 853b 8f1d a7bd a249 77bd 9c5c 233e
000003c0: cb42 9b3c 24bf cfbb da5c 7abe 08fa 143d
000003d0: d5f1 573d 512c 5e3e d511 0abe e562 77be
000003e0: a37e f3bb 128e 55bd 9bf0 ddbd a2a9 d33e
000003f0: c409 a83d 71ae 103d 1383 1c3e e78c ce3d

lstm.bias_ih_l1 f4 [128]
0.13423783 0.18173687 0.11571845 0.19086765 0.023605699 -0.0025661145 0.2155067 -0.012960108
0.24313845 0.11928304 0.10630397 -0.10357985 0.38369218 0.039472267 0.1324379 0.0917379
0.01437337 0.30347613 0.8151319 0.1715153 -0.019319627 0.03497612 0.27018422 -0.18708235
0.18102525 0.23682797 0.43868545 -0.12544562 0.109930016 0.35968846 0.2530693 0.12965204
0.1877469 0.043779068 0.17376281 -0.067294255 -0.05500293 0.21138798 -0.10944363 0.06593841
0.16547966 -0.25951627 -0.118187524 0.035406634 -0.17617324 -0.0398078 -0.12741528 0.11207258
0.038467605 -0.0684598 0.19373922 -0.09779534 0.13833503 -0.08874508 0.08280698 0.0234897
-0.025212081 -0.14777283 -0.14211842 0.1701485 -0.0027508 -0.036044564 0.061002627 -0.047453646
0.061605547 -0.110173255 -0.17081033 -0.034968395 0.0027163392 0.07009424 -0.005804982 0.19537549
0.009295362 0.04423596 -0.027917583 0.10816206 0.16673589 -0.14800164 -0.12121853 -0.03364567
0.03563732 0.041336123 -0.030204851 -0.03862709 -0.09826317 -0.17624928 -7.996765e-06 -0.10206206
-0.020672616 -0.13723442 -0.017443888 0.082724504 0.09063226 0.20079547 -0.25734398 0.051759988
0.283812 0.12739946 0.29703775 0.3421438 0.20977215 0.39425057 0.3763533 0.32326669
0.093890145 -0.025776701 0.2158281 0.08157208 0.04913422 0.36153045 -0.07336138 0.06666956
0.02388552 0.27561936 0.86352026 0.094863385 0.3053793 -0.043954268 0.49073428 -0.014845609
0.36517447 0.10204418 0.6981482 0.017342607 0.1752457 0.43773928 0.00033530206 0.2182312
00000000: a475 093e 3b19 3a3e cbfd ec3d cf72 433e
00000010: bd60 c13c 422c 28bb caad 5c3e a256 54bc
00000020: 49f9 783e ab4a f43d e5b5 d93d ac21 d4bd
00000030: 4d73 c43e acad 213d cd9d 073e 15e1 bb3d
00000040: 497e 6b3c 3961 9b3e 7cac 503f b5a1 2f3e
00000050: 3244 9ebc 1f43 0f3d 9655 8a3e 8492 3fbe
00000060: af5e 393e 0883 723e 619b e03e d174 00be
00000070: fd22 e13d 1629 b83e 4d92 813e 81c3 043e
00000080: b940 403e ae51 333d e1ee 313e 92d1 89bd
00000090: c14a 61bd 1776 583e fb23 e0bd b80a 873d
000000a0: 8073 293e 51df 84be 4d0c f2bd 8c06 113d
000000b0: c266 34be 810d 23bd 2779 02be 4f86 e53d
000000c0: 3590 1d3d a734 8cbd 9363 463e ec48 c8bd
000000d0: b3a7 0d3e fbbf b5bd b596 a93d 796d c03c
000000e0: 9189 cebc c351 17be 7e87 11be 693b 2e3e
000000f0: c446 34bb 77a3 13bd e4dd 793d c15e 42bd
00000100: 1956 7c3d 84a2 e1bd e7e8 2ebe 053b 0fbd
00000110: 9c04 323b 928d 8f3d b837 bebb 8310 483e
00000120: 934b 183c c430 353d 6ab3 e4bc 1284 dd3d
00000130: d0bc 2a3e be8d 17be 6c41 f8bd 0bd0 09bd
00000140: 70f8 113d 1150 293d 2a70 f7bc 7137 1ebd
00000150: 333e c9bd b17a 34be d829 06b7 ea05 d1bd
00000160: 9e59 a9bc 2e87 0cbe 7ce6 8ebc 776b a93d
00000170: 689d b93d 549d 4d3e 97c2 83be 4802 543d
00000180: ce4f 913e 0175 023e 5515 983e 792d af3e
00000190: 83ce 563e 36db c93e 61b1 c03e 3683 a53e
000001a0: 7a49 c03d a929 d3bc 0b02 5d3e 430f a73d
000001b0: f740 493d 851a b93e 7e3e 96bd 0d8a 883d
000001c0: 91ab c33c fb1d 8d3e aa0f 5d3f bc47 c23d
000001d0: ad5a 9c3e 6409 34bd 8641 fb3e ff3a 73bc
000001e0: 26f8 ba3e 8afc d03d d7b9 323f 1512 8e3c
000001f0: 9c73 333e 5d1f e03e 7bcb af39 0078 5f3e

lstm.bias_hh_l1 f4 [128]
0.27190378 0.30109486 0.13994771 0.2635263 -0.004910036 0.17424515 0.293293 0.12856993
0.1564417 0.1934813 0.28693023 0.14232661 0.123453 0.09843802 -0.04893019 0.06885263
0.012467371 0.24773961 0.55079424 0.024448352 -0.07622913 -0.117455125 0.51509327 0.11266763
0.04484114 0.12169563 0.5447022 0.11385606 0.31397256 0.15680619 0.21279554 0.25290084
0.14136067 0.22492306 -0.13149029 -0.096945 0.10090943 0.06968439 -0.09732885 0.026887486
0.024583055 -0.094157726 -0.12537518 -0.07908343 -0.09437743 -0.09878311 -0.09070789 -0.05696035
0.014277784 -0.18145019 -0.04245636 -0.007820477 0.15249434 -0.071183056 0.012799974 -0.154829
0.20090283 0.09108707 -0.022131814 0.20713912 0.099423856 -0.036163233 0.034993596 0.13397713
-0.092764474 -0.061096814 -0.118427694 -0.113850184 0.16652349 -0.09547206 -0.11612479 -0.02717534
0.22519897 -0.1353241 -0.13549185 0.103129394 -0.11423966 0.07222783 0.023745615 -0.17434537
-0.0024612437 -0.006727318 -0.2659533 0.11670799 -0.062559456 0.06533392 -0.11961282 -0.1603688
0.10712942 -0.042823404 0.14706066 -0.06983683 -0.036548764 0.061180495 0.049598835 -0.14367577
0.057054024 0.19782521 0.18158463 0.23848237 0.12544969 0.37611735 0.123607546 0.1511627
0.11662828 -0.0423213 0.2985634 -0.12229611 0.029089363 0.18872236 -0.03173572 0.10138103
-0.031662446 0.45920402 0.7919143 0.120222814 0.073246375 -0.06352518 0.45600113 -0.004931102
0.15463486 0.10896598 0.53435427 0.10454022 0.2931508 0.17193654 0.0952323 0.34292793
00000000: f936 8b3e 1b29 9a3e 744e 0f3e ebec 863e
00000010: 5ee4 a0bb 526d 323e 802a 963e d6a7 033e
00000020: 4132 203e f61f 463e 85e8 923e 11be 113e
00000030: edd4 fc3d df99 c93d 066b 48bd 9c02 8d3d
00000040: f243 4c3c 74af 7d3e da00 0d3f e947 c83c
00000050: 051e 9cbd 508c f0bd 27dd 033f 49be e63d
00000060: 58ab 373d 8f3b f93d 9a71 0b3f 5e2d e93d
00000070: 03c1 a03e cd91 203e 13e7 593e 387c 813e
00000080: dac0 103e 3b52 663e 64a5 06be 1a8b c6bd
00000090: 9aa9 ce3d b1b6 8e3d 5954 c7bd 2543 dc3c
000000a0: 6762 c93c c4d5 c0bd 5a62 00be 7ef6 a1bd
000000b0: f448 c1bd cd4e cabd 0fc5 b9bd 424f 69bd
000000c0: 5eed 693c 14ce 39be b8e6 2dbd 7521 00bc
000000d0: 7a27 1c3e 6cc8 91bd fbb6 513c 7e8b 1ebe
000000e0: 79b9 4d3e dc8b ba3d c74d b5bc 471c 543e
000000f0: bc9e cb3d e61f 14bd 7255 0f3d 4d31 093e
00000100: 4dfb bdbd a740 7abd 388a f2bd 492a e9bd
00000110: 2285 2a3e db86 c3bd d5d2 edbd d29e debc
00000120: 8f9a 663e 6792 0abe 60be 0abe 8135 d33d
00000130: 7cf6 e9bd 2fec 933d 2a86 c23c 9887 32be
00000140: d14c 21bb d570 dcbb 082b 88be 9904 ef3d
00000150: 2c1f 80bd cacd 853d 91f7 f4bd b837 24be
00000160: ab66 db3d 9867 2fbd 1297 163e 9d06 8fbd
00000170: 28b4 15bd 6698 7a3d 2628 4b3d be1f 13be
00000180: 7bb1 693d b192 4a3e 52f1 393e b934 743e
00000190: e275 003e 7492 c03e f425 fd3d 65ca 1a3e
000001a0: cfda ee3d 1959 2dbd 4ddd 983e 6276 fabd
000001b0: d14c ee3c 6f40 413e 50fd 01bd dca0 cf3d
000001c0: 7bb0 01bd ca1c eb3e e5ba 4a3f 6137 f63d
000001d0: 3202 963d 7d19 82bd fb78 e93e 1595 a1bb
000001e0: 9a58 1e3e 8e29 df3d 71cb 083f 2f19 d63d
000001f0: dd17 963e 2210 303e 2709 c33d 4094 af3e

fc.weight f4 [1, 32]
1.039104 -0.99521214 1.0961267 -0.91703594 0.9072246 -0.91444105 -1.0102468 0.92471504
-1.0342661 -0.9933458 -1.015014 1.0024958 0.96630645 -0.9115228 -0.9322262 -1.036808
1.1012268 -1.043474 0.79635704 1.0068742 -0.9132084 -1.0474472 1.2041723 0.9896206
-1.0246338 -0.99078417 -0.96237457 -1.2139602 -0.9495132 0.8036131 -0.9774968 -0.91321826
00000000: 5c01 853f 39c6 7ebf e14d 8c3f dec2 6abf
00000010: df3f 683f cf18 6abf c44f 81bf 20ba 6c3f
00000020: d562 84bf e94b 7ebf fbeb 81bf c851 803f
00000030: dc5f 773f 8f59 69bf 60a6 6ebf 20b6 84bf
00000040: 00f5 8c3f 8e90 85bf 0ede 4b3f 41e1 803f
00000050: 07c8 69bf c012 86bf 5122 9a3f c757 7d3f
00000060: 3327 83bf 08a4 7dbf 2e5e 76bf 0c63 9bbf
00000070: 4c13 73bf 97b9 4d3f 3b3d 7abf acc8 69bf
