best_model.pth (torch, 55083 bytes, 9 tensors)

lstm.weight_ih_l0 f4 [128, 1]
-0.16693595 -0.08014385 -0.09887207 0.1769341 -0.051947664 0.3556998 0.79207903 0.05461891
0.29231057 -0.049606986 0.1576872 -0.17357448 0.05003786 0.5529171 0.3961449 0.15141594
-0.07676832 -0.016527815 -0.12735902 -0.0028040998 0.044689447 -0.14694373 0.14501953 -0.12053893
-0.10780433 0.7583251 0.022808203 0.12047206 -0.17325999 0.9321248 0.35260454 -0.06255634
-0.019431751 0.17069115 -0.022161376 0.067769125 0.13785736 -0.01431494 0.030803014 0.053367563
-0.118173614 0.2910283 0.015633263 0.13860968 0.16241446 0.0833293 -0.2858752 0.026090708
-0.0268904 -0.028450964 -0.073166095 -0.027383272 0.17727885 0.20490076 -0.103916876 0.20650122
0.21159005 -0.051628474 0.041268233 0.28276277 -0.16568139 -0.12818244 -0.09697631 0.18569401
0.26009098 -0.043726776 0.3038296 0.14388262 -0.059551124 0.063331194 0.16395237 0.13877724
0.20977044 -0.19304952 -0.113239296 0.072892725 0.061040726 -0.12599102 -0.18292406 -0.074639276
0.29735872 0.073429726 -0.1730194 -0.10676826 0.15361936 0.07880359 0.142912 0.1041717
0.13489237 -0.13285373 -0.34604213 -0.18213993 0.030857122 0.13871792 0.30486768 -0.0656875
0.2793373 0.14156716 -0.077928014 0.3965066 0.21982458 0.019616 0.37244028 0.18364401
0.37307832 0.10720521 0.1997157 0.033851784 0.11606591 0.31573418 0.6830663 0.24233203
0.062104426 0.11766607 0.08814914 0.05428972 0.41556877 0.2320868 0.26684326 0.34380147
0.15880844 0.27694258 0.06291959 -0.22549015 0.0791238 0.1766781 0.3796947 0.010412409
00000000: 42f1 2abe 7522 a4bd 717d cabd 362e 353e
00000010: 13c7 54bd 491e b63e b1c5 4a3f 14b8 5f3d
00000020: bba9 953e b230 4bbd c178 213e 82bd 31be
00000030: 80f4 4c3d fa8b 0d3f 81d3 ca3e c80c 1b3e
00000040: b538 9dbd 5765 87bc 676a 02be fdc4 37bb
00000050: 480c 373d 6b78 16be 0080 143e 1ddd f6bd
00000060: 84c8 dcbd 9821 423f 45d8 ba3c 0eba f63d
00000070: 116b 31be bb9f 6e3f 9588 b43e 8a1d 80bd
00000080: 562f 9fbc a9c9 2e3e c68b b5bc 8aca 8a3d
00000090: 7b2a 0d3e 3689 6abc 9a56 fc3c f297 5a3d
000000a0: 0205 f2bd a901 953e 5411 803c b2ef 0d3e
000000b0: fa4f 263e 8da8 aa3d 3c5e 92be 2ebc d53c
000000c0: 4249 dcbc ff11 e9bc 1bd8 95bd e252 e0bc
000000d0: 9688 353e 81d1 513e 5fd2 d4bd 0e75 533e
000000e0: 10ab 583e 6178 53bd e108 293d 48c6 903e
000000f0: 62a8 29be 4242 03be 849b c6bd 9226 3e3e
00000100: a52a 853e d91a 33bd 8e8f 9b3e f755 133e
00000110: e1eb 73bd c9b3 813d 21e3 273e 9f1b 0e3e
00000120: 10ce 563e c6ae 45be 01ea e7bd c848 953d
00000130: d705 7a3d ca03 01be 7250 3bbe 7adc 98bd
00000140: 673f 983e 5362 963d ff2b 31be 51a9 dabd
00000150: 654e 1d3e c763 a13d 8657 123e f957 d53d
00000160: 3a21 0a3e cf0a 08be 6f2c b1be e482 3abe
00000170: 13c8 fc3c 120c 0e3e 9e17 9c3e 2b87 86bd
00000180: 4c05 8f3e fbf6 103e b998 9fbd ea02 cb3e
00000190: b219 613e bcb1 a03c 7eb0 be3e 2d0d 3c3e
000001a0: 1f04 bf3e 688e db3d 4682 4c3e 2ba8 0a3d
000001b0: f7b3 ed3d e9a7 a13e 6fdd 2e3f e325 783e
000001c0: 3661 7e3d e9fa f03d 8987 b43d e65e 5e3d
000001d0: 6ec5 d43e 29a8 6d3e ae9f 883e bf06 b03e
000001e0: ae9e 223e 6bcb 8d3e fcdb 803d e4e6 66be
000001f0: a90b a23d 1beb 343e 5867 c23e cf98 2a3c

lstm.weight_hh_l0 f4 [128, 32]
0.010192219 0.18654418 -0.120491795 -0.028070979 0.10980027 0.12515587 0.24715391 -0.06082286
0.20239677 -0.044930503 -0.18978986 0.2189862 -0.029728977 -0.3400094 -0.04345631 -0.18253212
0.040772043 -0.15601875 0.110252164 -0.06558842 0.12680554 -0.07376569 0.19811729 0.0017255751
-0.04246442 -0.3164022 -0.1777686 0.104810424 0.12788448 0.26323676 0.17538944 -0.25778502
0.18510583 0.071854144 0.5110299 0.3467246 -0.3098235 0.0064075068 0.14432238 0.36317325
0.36348274 -0.31236136 -0.44781998 0.3711667 0.37752268 -0.19580375 -0.20294936 0.1231289
0.30708832 0.37002504 -0.35008153 -0.4833648 0.55819404 0.3405355 0.2476549 0.27991602
0.25554377 -0.24358782 -0.506362 -0.043853734 -0.44809997 0.1610885 0.40781334 -0.03512395
0.29564884 0.15059799 0.06609615 0.1667714 -0.048186917 -0.12455034 0.066370614 0.16118695
-0.007204508 -0.012063025 -0.1547184 0.047954164 0.113148235 -0.031239519 0.0048621017 0.18743679
0.1509503 -0.018911013 -0.15538363 -0.0703485 0.24616612 0.03132864 0.16155605 0.027187873
0.37865156 -0.11309339 -0.15014847 -0.06289015 -0.1792108 0.06617896 0.106472105 0.045613226
0.14480254 0.02271964 0.21750191 -0.48945144 -0.14347796 -0.059916932 -0.44649196 -0.25516126
0.23260878 -0.06332115 0.29377228 -0.43748578 -0.36570278 0.12881735 0.40047133 0.2519446
-0.17663246 0.3390391 0.117575094 0.5433136 0.010074966 -0.024597477 -0.7059209 -0.2601912
-0.0721553 0.23566781 0.1334153 -0.25271386 -0.111359 -0.6377283 -0.042166155 -0.2150635
-0.01316217 -0.40205157 -0.03821277 0.12768754 0.15663117 0.48115027 0.26078328 0.31306446
-0.33449018 0.31831977 -0.24884525 0.15559082 0.11277969 -0.7502148 -0.5234882 -0.28400382
0.15346679 0.0011486332 0.17310347 -0.16821128 0.43051302 0.024942176 0.035637084 -0.02741001
0.06439452 -0.7454577 0.07636479 0.5909223 0.414978 0.27964318 -0.16321704 0.21712631
0.1810314 0.32007045 0.43584839 0.17303254 -0.05346487 -0.13294315 -0.046726987 0.14774282
0.1450494 -0.11732755 -0.2320853 0.022566328 0.37431124 0.33691952 -0.022474175 0.21640454
0.12018836 0.23290735 -0.19323626 -0.081938475 0.061584376 0.06536711 0.017274812 0.15973133
0.2487443 -0.069670916 0.062398188 -0.13206394 -0.41907725 -0.24845216 0.24238808 -0.106395364
0.5517921 0.69372046 0.3548729 0.08999396 -0.45576 -0.4323417 -0.7275866 0.061526883
0.71017015 -0.59173304 -0.14858717 0.24440435 0.18588074 0.46804637 0.6750482 0.6573644
0.19283032 0.07262934 -0.5129041 0.45937017 0.010516822 0.091375776 -0.15674879 -0.0989554
0.032040883 0.6126944 -0.44279897 -0.45030108 -0.8070883 -0.7570214 0.7823282 -0.45111218
0.07676365 -0.057061337 0.093567014 0.03914167 -0.5290653 0.073708475 0.013919173 0.07203141
0.12889498 0.017570196 0.2797718 0.04657449 0.11813339 -0.10426048 0.22094093 0.029236106
0.020632157 0.11872049 0.19824255 0.027181054 0.42406863 0.4470162 -0.3911702 0.39332318
0.22557038 -0.21136448 0.052904125 0.02337461 -0.18217108 -0.26082355 0.19834721 -0.004190938
00000000: 44fd 263c 7005 3f3e 67c4 f6bd 1cf5 e5bc
00000010: f7de e03d dc28 003e ea15 7d3e 6421 79bd
00000020: 1941 4f3e 0c09 38bd 4658 42be eb3d 603e
00000030: 2f8a f3bc b615 aebe 3eff 31bd b3e9 3abe
00000040: 9600 273d 61c3 1fbe e3cb e13d 3953 86bd
00000050: 50d9 013e 7712 97bd 42df 4a3e b12c e23a
00000060: 2cef 2dbd 78ff a1be f908 36be d9a6 d63d
00000070: 26f4 023e f8c6 863e 4a99 333e 66fc 83be
00000080: 628c 3d3e 4428 933d dbd2 023f e385 b13e
00000090: 30a1 9ebe 10f6 d13b 3fc9 133e d8f1 b93e
000000a0: 691a ba3e d4ed 9fbe a948 e5be 9009 be3e
000000b0: a74a c13e c780 48be f5d1 4fbe 012b fc3d
000000c0: ae3a 9d3e ec73 bd3e e33d b3be 977b f7be
000000d0: cee5 0e3f ab5a ae3e 3f99 7d3e 2751 8f3e
000000e0: a2d6 823e 166f 79be f1a0 01bf f99f 33bd
000000f0: 5c6d e5be 62f4 243e e9cc d03e 22de 0fbd
00000100: 495f 973e 5c36 1a3e 6b5d 873d 1fc6 2a3e
00000110: a55f 45bd 4014 ffbd 51ed 873d 310e 253e
00000120: cb13 ecbb fea3 45bc 806e 1ebe 966b 443d
00000130: 43ba e73d 05ea ffbc 4452 9f3b 6eef 3f3e
00000140: b792 1a3e 45eb 9abc e31c 1fbe e012 90bd
00000150: f912 7c3e 7652 003d f36e 253e 1ab9 de3c
00000160: 9ede c13e 829d e7bd 85c0 19be 8dcc 80bd
00000170: 0983 37be d688 873d 0c0e da3d efd4 3a3d
00000180: 1e47 143e 8a1e ba3c d2b8 5e3e 6199 fabe
00000190: e3eb 12be 756b 75bd 989a e4be 7fa4 82be
000001a0: ff30 6e3e 85ae 81bd 5269 963e 23fe dfbe
000001b0: 653d bbbe b2e8 033e 940a cd3e e2fe 803e
000001c0: 24df 34be 8896 ad3e 36cb f03d 9a16 0b3f
000001d0: 7811 253c a680 c9bc 3bb7 34bf c837 85be
000001e0: 28c6 93bd e752 713e 059e 083e b663 81be
000001f0: 3010 e4bd 2942 23bf 6bb6 2cbd 9b39 5cbe
00000200: 24a6 57bc b4d9 cdbe fe84 1cbd 86c0 023e
00000210: ec63 203e 5459 f63e 6385 853e fc49 a03e
00000220: 4c42 abbe cffa a23e 4ad1 7ebe 3353 1f3e
00000230: 0af9 e63d 140e 40bf 5303 06bf f368 91be
00000240: 6626 1d3e bc8d 963a 0942 313e 943f 2cbe
00000250: 346c dc3e 8953 cc3c 31f8 113d f58a e0bc
00000260: 46e1 833d 51d6 3ebf 2565 9c3d af46 173f
00000270: ff77 d43e 642d 8f3e 5e22 27be 5c56 5e3e
00000280: 4c60 393e 46e0 a33e 8527 df3e 712f 313e
00000290: fbfd 5abd 4022 08be cc64 3fbd e549 173e
000002a0: d487 143e 6d49 f0bd c5a7 6dbe 05dd b83c
000002b0: b9a5 bf3e b780 ac3e c31b b8bc 2799 5d3e
000002c0: 5125 f63d 447f 6e3e badf 45be 5ccf a7bd
000002d0: e63f 7c3d 31df 853d e883 8d3c 9c90 233e
000002e0: d3b6 7e3e a0af 8ebd 3e95 7f3d c53b 07be
000002f0: 4b91 d6be 3e6a 7ebe 9534 783e d0e5 d9bd
00000300: 3f42 0d3f aa97 313f e7b1 b53e c14e b83d
00000310: 6059 e9be e45b ddbe 1e43 3abf 9d03 7c3d
00000320: b6cd 353f d17b 17bf 3c27 18be 2245 7a3e
00000330: 8557 3e3e c6a3 ef3e f5cf 2c3f 0949 283f
00000340: 5075 453e b1be 943d af4d 03bf 9132 eb3e
00000350: c04e 2c3c 3923 bb3d c182 20be 21a9 cabd
00000360: 4d3d 033d 8ad9 1c3f 8cb6 e2be dd8d e6be
00000370: 579d 4ebf 28cc 41bf a946 483f 2df8 e6be
00000380: 4336 9d3d 26b9 69bd 10a0 bf3d 0453 203d
00000390: d370 07bf 78f4 963d 3e0d 643c 3485 933d
000003a0: 0cfd 033e 5fef 8f3c 403e 8f3e e4c4 3e3d
000003b0: ebef f13d 8586 d5bd 573e 623e 8f80 ef3c
000003c0: c504 a93c ba23 f33d 1800 4b3e cdaa de3c
000003d0: 861f d93e 4fdf e43e 7647 c8be a861 c93e
000003e0: ecfb 663e ee6f 58be ffb1 583d 1c7c bf3c
000003f0: 0e8b 3abe aa8a 85be 881b 4b3e 2354 89bb

lstm.bias_ih_l0 f4 [128]
0.012627303 -0.17441683 0.27941203 0.084025614 -0.11018879 0.08663888 0.6693177 0.09919011
0.31011513 -0.118935816 -0.049997404 -0.1193385 -0.2357261 0.40726578 0.529286 0.167692
-0.1134114 0.04516598 0.1940569 -0.13013627 0.101881914 0.0022959858 0.38838512 0.0041298904
-0.05384658 0.6578514 0.004846117 0.17481062 -0.10561309 0.8958688 0.16102956 0.12543604
0.024212934 0.06219414 0.039409883 -0.23201957 -0.14146388 0.3083134 -0.15613998 -0.27355528
0.062304493 0.4258161 0.07743917 -0.07304251 0.08397364 0.21555685 -0.35636196 -0.052510843
0.08087797 0.09244097 0.1073987 -0.24250428 -0.017230565 -0.118806735 -0.32112554 0.14412946
-0.025968783 -0.0046556233 -0.20994556 0.14913847 0.0066676117 -0.085598074 0.20420627 0.13724972
0.20114121 0.050166402 0.20027684 -0.018402305 0.074840344 0.08783056 -0.09268865 -0.21461768
-0.014352553 -0.3557888 -0.022507617 -0.034283884 -0.08529677 0.30312172 -0.13635412 -0.09725052
-0.0049434034 -0.15472205 0.025512628 -0.13369395 0.031617727 0.009841376 0.07355206 -0.19469322
-0.045240473 -0.05541454 -0.02375424 -0.30335864 -0.21522062 -0.2313986 0.18824063 -0.21313937
0.44831043 0.18012343 0.09790535 0.39005196 0.022881156 0.14426342 0.58427405 0.2769011
0.32831633 0.3335439 -0.035574242 -0.35414487 -0.19417956 0.2334164 0.60322595 0.41640595
0.00689572 -0.0509506 0.281762 -0.04371671 0.39200637 -0.1406304 0.66929096 0.39245677
0.06956999 0.5992305 -0.24257521 0.1369491 0.13935864 0.49370885 0.2110639 0.13525468
00000000: bfe2 4e3c 539a 32be 180f 8f3e 9f15 ac3d
00000010: a9aa e1bd ba6f b13d 6858 2b3f 2f24 cb3d
00000020: 69c7 9e3e 9f94 f3bd 14ca 4cbd be67 f4bd
00000030: 2f62 71be 2485 d03e 4a7f 073f 74b7 2b3e
00000040: 3c44 e8bd f6ff 383d dab6 463e 7142 05be
00000050: 77a7 d03d 4078 163b 6ada c63e 0854 873b
00000060: 3b8e 5cbd f368 283f 2dcc 9e3b 8e01 333e
00000070: ad4b d8bd a857 653f efe4 243e 4e72 003e
00000080: 345a c63c 48bf 7e3d 426c 213d 8a96 6dbe
00000090: e8db 10be 41db 9d3e 29e3 1fbe 700f 8cbe
000000a0: ff32 7f3d 9104 da3e 6d98 9e3d 5097 95bd
000000b0: 5ffa ab3d efba 5c3e 1375 b6be 9c15 57bd
000000c0: 59a3 a53d b151 bd3d daf3 db3d 0b53 78be
000000d0: 1d27 8dbc f250 f3bd 916a a4be ac96 133e
000000e0: 7cbc d4bc 338e 98bb f8fb 56be c1b7 183e
000000f0: fb7b da3b 0b4e afbd 731b 513e 318b 0c3e
00000100: f6f7 4d3e 497b 4d3d 5f15 4d3e 6ec0 96bc
00000110: e545 993d 82e0 b33d 8cd3 bdbd bdc4 5bbe
00000120: f826 6bbc f329 b6be e561 b8bc 426d 0cbd
00000130: 13b0 aebd c532 9b3e 6aa0 0bbe 482b c7bd
00000140: 46fc a1bb 756f 1ebe dcff d03c 11e7 08be
00000150: 9781 013d b93d 213c 76a2 963d a95d 47be
00000160: 134e 39bd 5bfa 62bd 4098 c2bc d351 9bbe
00000170: cb62 5cbe c1f3 6cbe 27c2 403e 3541 5abe
00000180: f288 e53e 4772 383e 9a82 c83d e4b4 c73e
00000190: 4371 bb3c cab9 133e fc92 153f fbc5 8d3e
000001a0: 1419 a83e 44c6 aa3e 4cb6 11bd 7a52 b5be
000001b0: 02d7 46be b504 6f3e 046d 1a3f 2933 d53e
000001c0: 7ef5 e13b 94b1 50bd 1c43 903e 4b10 33bd
000001d0: 0fb5 c83e 6a01 10be a756 2b3f 18f0 c83e
000001e0: b67a 8e3d 2c67 193f a365 78be 633c 0c3e
000001f0: 08b4 0e3e 68c7 fc3e 2321 583e 3480 0a3e

lstm.bias_hh_l0 f4 [128]
-0.092883185 0.06306072 0.21380207 0.24794954 -0.06570833 0.32573232 0.6200212 0.065255925
0.11388672 -0.27985832 -0.180515 -0.102498375 -0.3687691 0.56250155 0.55379474 0.26573986
-0.23135741 -0.23262298 -0.12772056 0.1274326 -0.0934197 -0.05989604 0.23230577 -0.1234556
0.0015410647 0.75850874 -0.13228855 0.121909864 0.01783725 0.7133043 0.25393885 0.031876203
0.14543897 0.18194427 -0.064943425 -0.24880503 -0.108667046 0.28145698 -0.29036966 -0.13712767
0.053031743 0.21070723 -0.11506247 -0.2398189 0.054360706 0.045275047 -0.30879378 0.25569773
-0.031243818 0.014718082 -0.01587599 -0.11131554 0.13792408 -0.043302678 -0.52942896 0.08277242
-0.111484714 -0.1729952 -0.006381867 0.048325974 0.16154161 0.055060208 0.034461945 0.22012913
0.056397457 -0.017433723 0.27597818 -0.096334904 0.21808772 0.12624864 0.009149687 -0.24490626
0.2023593 -0.20656148 0.2546393 0.046338305 -0.042140365 0.14774655 0.06604077 -0.16759643
-0.11106189 0.07129792 0.1053961 -0.04386493 -0.027264621 -0.01786097 0.0645396 0.009754295
0.10889983 0.16731575 -0.048907135 -0.029438373 -0.14697456 0.02582498 0.00096809573 -0.22382538
0.24720201 0.24165107 0.11790078 0.49993715 0.16232544 0.24597006 0.43787405 0.41600227
0.35500774 0.26767164 0.0054016826 -0.31864053 -0.12133577 0.25853488 0.59969103 0.26858214
0.059622128 -0.13945828 0.24465133 -0.11388307 0.27242526 -0.08421748 0.5817737 0.5227911
-0.185004 0.3629409 -0.04507125 0.09346602 0.14949186 0.48008645 0.29219964 0.2015307
00000000: 8a39 bebd fb25 813d eeee 5a3e 7ce6 7d3e
00000010: 1792 86bd 63c6 a63e b6b9 1e3f e6a4 853d
00000020: 713d e93d 9749 8fbe edd8 38be abea d1bd
00000030: 4ecf bcbe 1a00 103f 7ec5 0d3f 0e0f 883e
00000040: f5e8 6cbe b834 6ebe 2ec9 02be b17d 023e
00000050: d452 bfbd 8d55 75bd 90e1 6d3e 4ad6 fcbd
00000060: 8dfd c93a a12d 423f a676 07be e1ab f93d
00000070: 6d1f 923c 1c9b 363f 4604 823e 9f90 023d
00000080: f4ed 143e 994f 3a3e 0f01 85bd bfc6 7ebe
00000090: d48c debd 211b 903e 55ab 94be 326b 0cbe
000000a0: d037 593d a3c3 573e dfa5 ebbd 1693 75be
000000b0: 55a9 5e3d 5472 393d 381a 9ebe d0ea 823e
000000c0: 09f3 ffbc 1c24 713c 5d0e 82bc 67f9 e3bd
000000d0: f83b 0d3e 265e 31bd a888 07bf 9684 a93d
000000e0: 1952 e4bd a725 31be fb1e d1bb 75f1 453d
000000f0: 2a6b 253e d086 613d f827 0d3d 8869 613e
00000100: 0501 673d 2bd1 8ebc 034d 8d3e 3c4b c5bd
00000110: 6352 5f3e 5347 013e 92e8 153c b5c8 7abe
00000120: 4737 4f3e da84 53be 1560 823e 3ccd 3d3d
00000130: 609b 2cbd df4a 173e 6240 873d 669e 2bbe
00000140: 6b74 e3bd a504 923d e9d9 d73d b6ab 33bd
00000150: 0e5a dfbc 2b51 92bc 562d 843d 7bd0 1f3c
00000160: e006 df3d d254 2b3e d952 48bd be28 f1bc
00000170: 8080 16be e98e d33c cec7 7d3a 7b32 65be
00000180: 8622 7d3e 6173 773e f775 f13d c3f7 ff3e
00000190: a438 263e 93df 7b3e 0731 e03e 40fe d43e
000001a0: 93c3 b53e 420c 893e 9900 b13b da24 a3be
000001b0: e37e f8bd af5e 843e 5a85 193f 9983 893e
000001c0: 5536 743d 27ce 0ebe e185 7a3e 873b e9bd
000001d0: 537b 8b3e 377a acbd 1fef 143f a3d5 053f
000001e0: b071 3dbe 64d3 b93e a29c 38bd 1d6b bf3d
000001f0: 6514 193e e4cd f53e 319b 953e 105e 4e3e

lstm.weight_ih_l1 f4 [128, 32]
-0.2217564 -0.16947542 -0.12739834 0.28873342 0.04452284 0.085859075 0.55781734 0.3028655
-0.1653201 -0.070282355 -0.030605866 0.23140135 0.27565876 -0.08133002 -0.43357968 -0.34004724
0.1326517 0.2910741 0.2517966 -0.3543914 0.5877852 0.16494167 0.95409316 0.24676786
0.3635763 -0.30534354 -0.19396366 0.5925324 0.41840205 0.6967997 -0.21750967 0.37102467
0.2548573 0.12629822 0.35787228 -0.081256256 -0.2508949 -0.0037180583 -0.2031704 0.22802918
0.30053526 -0.3165377 0.17539027 0.2024756 0.28622663 0.26797697 0.29314923 0.3029395
0.20069598 0.61281055 -0.24171793 0.17585562 0.42377082 0.26931134 -0.046177745 0.19724084
0.4918143 -0.055756465 -0.22094226 -0.1594339 -0.3578949 -0.1581961 0.35226178 -0.054269087
-0.23602992 0.047548324 0.2268959 0.19423002 -0.1587954 0.13912365 -0.16540533 0.37704918
0.025590947 0.15162921 0.074886076 -0.0070092008 0.24381284 0.020651381 -0.038468152 -0.07184008
0.26146674 0.3219646 0.06084171 0.12936968 0.2684692 0.3859583 0.19834377 0.40468815
0.44622633 -0.040968567 0.03743863 0.38493335 0.069966786 0.34409037 -0.0010618926 0.020512525
0.060861528 0.25457117 0.16786592 0.18508413 -0.08423199 -0.35684252 -0.29544827 -0.09251903
0.05144531 -0.18269111 -0.2858508 -0.19148132 -0.024654511 0.2997262 -0.0028364216 0.046543583
0.2445726 0.33510348 -0.16602208 0.22902282 0.14748158 0.14745854 -0.12892082 0.20191087
0.22717388 0.21632937 -0.2622794 -0.08036846 -0.15857814 -0.16886088 0.26265645 -0.2349687
0.12436099 -0.2586523 -0.16010116 -0.048101112 -0.12675984 0.26335803 0.17458259 -0.042449187
0.058153912 0.22814718 0.15660729 -0.19502154 0.01096854 -0.31252185 -0.026486471 0.0033136504
0.040202834 -0.04511198 0.2801444 -0.25525433 0.16849872 0.2810196 -0.094737954 -0.13831216
0.18212521 -0.043280836 0.22698073 0.21877639 0.08690106 0.16569017 -0.17798874 0.35517994
0.025412478 -0.004460571 0.20034565 -0.07366822 0.1447536 -0.06619873 -0.17670742 0.05129789
0.12538204 -0.003429835 -0.014405382 -0.014562539 -0.17987175 0.3527401 0.0584978 0.012973773
0.028149622 -0.034675445 -0.17019312 0.24084015 -0.09199132 -0.12969598 -0.2876225 0.12171232
-0.07872257 -0.09596087 0.2078977 0.041141808 -0.15022537 -0.26814348 0.08076761 -0.12602195
-0.18965966 0.05751643 -0.09023373 0.11767001 -0.147167 -0.3203885 0.14571902 0.02126025
0.12536567 -0.08326004 -0.166719 -0.18624921 0.06343745 0.012862887 0.032320283 0.0047539547
-0.07635062 -0.09098661 -0.110379145 0.011557952 0.119180426 0.031705093 0.019820172 0.064633705
0.0402329 0.05637618 0.110829495 0.13813798 -0.18352261 0.056343414 0.1644373 0.05419784
0.0013362985 0.17283642 -0.120118976 -0.12799406 -0.12342237 0.0411177 -0.022669645 0.11428135
0.109351255 0.175842 -0.04257506 -0.3355895 -0.01068961 0.099804886 0.23778826 0.18207982
-0.014541675 0.06235765 -0.1473369 0.18606326 -0.14191028 -0.015368029 0.09640675 -0.048575148
-0.23143838 0.13393237 0.021538481 0.3215975 -0.20572045 -0.10510341 -0.12047378 -0.17990994
00000000: 1c14 63be f78a 2dbe b674 02be ded4 933e
00000010: 955d 363d e2d6 af3d 1ecd 0e3f 3011 9b3e
00000020: ac49 29be 32f0 8fbd 27b9 fabc 7af4 6c3e
00000030: 2523 8d3e 5b90 a6bd 28fe ddbe ac1a aebe
00000040: d9d5 073e aa07 953e 7ceb 803e ca72 b5be
00000050: 1779 163f 78e6 283e 733f 743f b7b0 7c3e
00000060: ac26 ba3e fd55 9cbe 699e 46be 34b0 173f
00000070: cb38 d63e 7761 323f dbba 5ebe f2f6 bd3e
00000080: a87c 823e 5254 013e 093b b73e ae69 a6bd
00000090: 4c75 80be abaa 73bb e70b 50be 7b80 693e
000000a0: c2df 993e 3b11 a2be 8299 333e c455 4f3e
000000b0: 4c8c 923e 4734 893e a817 963e e31a 9b3e
000000c0: 3f83 4d3e 27e1 1c3f e884 77be 7f13 343e
000000d0: 7df8 d83e 2de3 893e e024 3dbd 81f9 493e
000000e0: 15cf fb3e e460 64bd b03e 62be a442 23be
000000f0: 003e b7be 29fe 21be a85b b43e 4349 5ebd
00000100: d4b1 71be 08c2 423d 6657 683e 3ce4 463e
00000110: 439b 22be 6e76 0e3e 0460 29be 970c c13e
00000120: 1ba4 d13c b044 1b3e df5d 993d 70ad e5bb
00000130: 13aa 793e 162d a93c c890 1dbd e420 93bd
00000140: f8de 853e 8bd8 a43e 2835 793d 7c79 043e
00000150: cc74 893e 549c c53e a11a 4b3e 4933 cf3e
00000160: c777 e43e a8ce 27bd 4059 193d fc15 c53e
00000170: bf4a 8f3d 9d2c b03e 342f 8bba e209 a83c
00000180: f049 793d 2757 823e 0be5 2b3e b286 3d3e
00000190: d281 acbd 10b4 b6be ff44 97be 9e7a bdbd
000001a0: 51b8 523d 6113 3bbe 095b 92be ae13 44be
000001b0: 42f8 c9bc b675 993e 42e3 39bb 7ca4 3e3d
000001c0: 3d71 7a3e af92 ab3e b101 2abe f584 6a3e
000001d0: 6905 173e 5fff 163e d203 04be b9c1 4e3e
000001e0: 45a0 683e 7285 5d3e 7c49 86be 3898 a4bd
000001f0: 4f62 22be dee9 2cbe e87a 863e a39b 70be
00000200: fab0 fe3d 136e 84be 8ff1 23be ac05 45bd
00000210: 55cd 01be ddd6 863e c7c5 323e 33df 2dbd
00000220: cc32 6e3d 6a9f 693e a95d 203e bab3 47be
00000230: 64b5 333c dd02 a0be 28fa d8bc d429 593b
00000240: baab 243d 57c7 38bd 166f 8f3e b2b0 82be
00000250: ee8a 2c3e cde1 8f3e f905 c2bd b4a1 0dbe
00000260: 087f 3a3e 3f47 31bd a36d 683e eb06 603e
00000270: 2ff9 b13d afaa 293e ae42 36be 25da b53e
00000280: d42d d03c fb29 92bb 6927 4d3e 5ddf 96bd
00000290: 4a3a 143e 3393 87bd caf2 34be bc1d 523d
000002a0: 2664 003e 15c7 60bb 8d04 6cbc b797 6ebc
000002b0: 4d30 38be 5a9a b43e 649b 6f3d f38f 543c
000002c0: 099a e63c d707 0ebd 1b47 2ebe cd9e 763e
000002d0: f265 bcbd 06cf 04be 4243 93be 4f44 f93d
000002e0: 4c39 a1bd 2287 c4bd 22e3 543e 5084 283d
000002f0: aed4 19be 1a4a 89be 7d69 a53d e60b 01be
00000300: 2436 42be 5996 6b3d 76cc b8bd f9fc f03d
00000310: f2b2 16be f609 a4be 5e37 153e fa29 ae3c
00000320: dc5f 003e 3d84 aabd 63b8 2abe 1db8 3ebe
00000330: 7eeb 813d dcbe 523c 4662 043d 10c7 9b3b
00000340: b75d 9cbd 3057 babd 760e e2bd 905d 3d3c
00000350: de14 f43d 33dd 013d ea5d a23c ad5e 843d
00000360: 41cb 243d b6ea 663d 93fa e23d 0b74 0d3e
00000370: 5aed 3bbe 5ac8 663d 4062 283e 8efe 5d3d
00000380: bd26 af3a 08fc 303e f000 f6bd e010 03be
00000390: dec4 fcbd 096b 283d b1b5 b9bc 570c ea3d
000003a0: 8df3 df3d ed0f 343e 3063 2ebd 63d2 abbe
000003b0: 7923 2fbc 8166 cc3d c47e 733e 2273 3a3e
000003c0: 3540 6ebc bc6a 7f3d 7cdf 16be 5e87 3e3e
000003d0: ee50 11be 2fca 7bbc e770 c53d bcf6 46bd
000003e0: 2ffe 6cbe 9125 093e 7871 b03c 6da8 a43e
000003f0: 62a8 52be 7540 d7bd f5ba f6bd 503a 38be

lstm.weight_hh_l1 f4 [128, 32]
0.21069713 -0.157338 0.1393521 0.088614956 0.07304748 0.20743017 0.025633717 0.12792484
0.10685025 0.15497816 0.27611014 -0.014150586 0.15482539 -0.042941555 -0.023374684 -0.02829741
0.008993297 -0.17864017 0.09428899 0.12883498 0.18102396 0.020398103 0.15780309 0.030642685
0.15989698 -0.19096088 0.56873894 -0.31497782 -0.1624695 0.26401636 0.10570231 0.13118267
0.024210565 0.35344785 0.24613988 -0.17504424 0.11943773 -0.32809126 -0.3692678 -0.10238086
-0.17033784 0.16954906 -0.34857178 0.12863654 -0.15351383 -0.35973015 0.23986971 0.19811153
0.0069303457 -0.101378694 -0.115058854 -0.38369596 -0.1672081 0.43182608 -0.2870489 0.25426605
-0.18890256 0.17720677 -0.46202275 0.16705479 -0.22604601 0.016105564 -0.08850127 -0.3366014
-0.017852394 0.23078944 0.18754314 0.005157373 0.16286251 -0.13642107 -0.055410277 0.015246931
0.077569716 -0.16248767 -0.11831638 -0.040547807 -0.06881491 -0.3248196 -0.1695829 0.03488178
0.05124241 -0.20390198 -0.050663333 0.023255 -0.16820073 -0.21381181 0.1906431 -0.14921954
0.05833375 -0.3490724 0.19644286 0.057282202 -0.025807342 0.12269665 0.14062627 -0.03430621
-0.29584506 0.21171498 -0.11071846 -0.3171875 0.004533239 -0.06743656 -0.21576321 -0.1720055
0.20187365 -0.1927196 -0.3682181 0.14290051 -0.122317456 -0.2420988 0.19092761 0.16185734
-0.08652797 -0.2960402 -0.16756247 -0.2312482 0.02223841 0.273009 -0.19546017 -0.26179814
-0.19956662 0.08040293 -0.019056033 0.32275057 0.34452438 -0.27103066 -0.14368643 -0.042253558
0.36331883 -0.41283274 0.16505104 -0.04568605 0.25276807 0.018805189 0.13758285 0.19408458
-0.35891393 0.5217133 -0.06101364 -0.12810813 0.17145117 0.43513176 0.17941089 0.023266017
0.19653884 0.55402213 0.16809365 0.29022256 0.14626005 -0.35151944 0.048957717 0.2676514
-0.0713556 -0.129566 0.08737774 -0.0051276 -0.41454437 0.022785302 -0.007827835 0.06448083
-0.1310967 0.0055815517 0.052603744 -0.058371868 -0.052806493 -0.15220898 -0.0036667387 -0.25162804
-0.04963683 -0.32414243 -0.26818267 -0.25229338 0.07694991 -0.14724521 -0.088909484 0.28426996
-0.020372428 -0.14445724 -0.44531703 -0.09600092 0.104276806 0.33454096 -0.33507547 -0.025769338
0.14592953 -0.009666511 -0.012571461 0.14407146 0.057965785 -0.36865622 -0.04382194 -0.043602828
0.11122037 -0.09881432 -0.03182345 -0.18136641 -0.01939643 -0.015363492 -0.21766049 0.033310466
0.0063137794 0.21689372 -0.31117412 0.041320655 0.16336802 0.19002503 0.14088692 0.35766625
0.040119164 -0.15590453 -0.26479825 0.01726984 -0.0597734 -0.061204664 -0.27938354 0.23058432
0.04617776 0.07898704 -0.113461316 0.11256931 -0.23293073 -0.018423393 -0.07623872 -0.34519604
0.11438453 0.0873185 0.08247226 -0.08952199 0.08696927 -0.22531907 -0.45219287 -0.5913283
0.12828878 0.04662743 -0.14533818 0.0008552204 0.010427596 -0.06707993 -0.026211709 0.5416364
-0.03942487 -0.008621881 -0.6393056 0.066664465 -0.1469176 0.043195583 -0.57844454 -0.099281825
0.15535615 -0.099171825 -0.19144985 0.25655112 -0.16617961 -0.4102554 -0.49824563 -0.035161667
00000000: fdc0 573e 361d 21be 51b2 0e3e c27b b53d
00000010: eb99 953d 9368 543e cdfd d13c bbfe 023e
00000020: 4ed4 da3d 98b2 1e3e 4f5e 8d3e dcd7 67bc
00000030: 8c8a 1e3e 7ce3 2fbd 447c bfbc f8cf e7bc
00000040: 9f58 133c 73ed 36be 961a c13d 51ed 033e
00000050: 585e 393e ec19 a73c 2297 213e 5e06 fb3c
00000060: 09bc 233e 408b 43be e098 113f c644 a1be
00000070: 685e 26be 272d 873e 747a d83d c054 063e
00000080: 3c55 c63c 1ef7 b43e 180c 7c3e cc3e 33be
00000090: c59b f43d 94fb a7be ab10 bdbe 0ead d1bd
000000a0: 0b6d 2ebe 459e 2d3e 0078 b2be 4cb9 033e
000000b0: bb32 1dbe 8d2e b8be 68a0 753e c0dd 4a3e
000000c0: f417 e33b a29f cfbd faa3 ebbd cc73 c4be
000000d0: 9a38 2bbe 4f18 dd3e 13f8 92be 292f 823e
000000e0: ac6f 41be b175 353e 3f8e ecbe 6910 2b3e
000000f0: 9b78 67be d1ef 833c 2740 b5bd 0557 acbe
00000100: 2f3f 92bc 1154 6c3e 4f0b 403e 2eff a83b
00000110: 6ec5 263e f7b1 0bbe e3f5 62bd 44ce 793c
00000120: dfdc 9e3d 2b63 26be dc4f f2bd 7515 26bd
00000130: d5ee 8cbd c14e a6be 24a7 2dbe 33e0 0e3d
00000140: 90e3 513d aecb 50be 5b84 4fbd 4581 be3c
00000150: d03c 2cbe 7cf1 5abe f237 433e 02cd 18be
00000160: 5fef 6e3d 9eb9 b2be 5128 493e bea0 6a3d
00000170: eb69 d3bc 6248 fb3d 5500 103e ab84 0cbd
00000180: 0179 97be d0cb 583e 5cc0 e2bd 6666 a2be
00000190: 918b 943b 2e1c 8abd 08f1 5cbe 3622 30be
000001a0: f7b7 4e3e 4958 45be 1587 bcbe 8354 123e
000001b0: 9381 fabd bfe8 77be 8782 433e eebd 253e
000001c0: 9435 b1bd 9592 97be 7f95 2bbe 54cc 6cbe
000001d0: 532d b63c d6c7 8b3e b626 48be 680a 86be
000001e0: 315b 4cbe 4baa a43d 661b 9cbc 903f a53e
000001f0: 8065 b03e 88c4 8abe 8922 13be 1112 2dbd
00000200: ed04 ba3e d05e d3be 2403 293e 4c21 3bbd
00000210: d16a 813e 570d 9a3c 85e2 0c3e 1cbe 463e
00000220: 91c3 b7be 018f 053f 70e9 79bd c72e 03be
00000230: e590 2f3e 97c9 de3e 7db7 373e 6098 be3c
00000240: 7a41 493e 65d4 0d3f be20 2c3e 0d98 943e
00000250: 32c5 153e 5bfa b3be e387 483d 9b09 893e
00000260: e322 92bd f3ac 04be 1af3 b23d 6d05 a8bb
00000270: 293f d4be 3ea8 ba3c 5240 00bc 870e 843d
00000280: 373e 06be 73e5 b63b 0677 573d 5717 6fbd
00000290: 9f4b 58bd acdc 1bbe ab4d 70bb 64d5 80be
000002a0: fd4f 4bbd fff5 a5be 3d4f 89be 992c 81be
000002b0: ea97 9d3d 73c7 16be 2d16 b6bd d58b 913e
000002c0: 14e4 a6bc 99ec 13be 9800 e4be 219c c4bd
000002d0: 148f d53d f448 ab3e 038f abbe 381a d3bc
000002e0: 8d6e 153e 4960 1ebc 87f8 4dbc 7887 133e
000002f0: 886d 6d3d 82c0 bcbe a27e 33bd e198 32bd
00000300: 81c7 e33d 2a5f cabd 4e59 02bd 1eb8 39be
00000310: 43e5 9ebc 28b7 7bbc 64e2 5ebe 8e70 083d
00000320: d2e3 ce3b 6319 5e3e 3752 9fbe d93f 293d
00000330: f249 273e ec95 423e a944 103e 0820 b73e
00000340: fe53 243d 70a5 1fbe a393 87be 7b79 8d3c
00000350: f4d4 74bd beb1 7abd 5c0b 8fbe 4c1e 6c3e
00000360: e424 3d3d f5c3 a13d 685e e8bd bd8a e63d
00000370: 6585 6ebe a8ec 96bc 0c23 9cbd 89bd b0be
00000380: 7042 ea3d 0bd4 b23d 37e7 a83d 4e57 b7bd
00000390: f21c b23d 0bba 66be d385 e7be 4b61 17bf
000003a0: 225e 033e 67fc 3e3d 88d3 14be df30 603a
000003b0: 82d8 2a3c 3461 89bd f0b9 d6bc afa8 0a3f
000003c0: f97b 21bd ca42 0dbc 88a9 23bf 6187 883d
000003d0: 9171 16be daed 303d f114 14bf 4554 cbbd
000003e0: af15 1f3e 991a cbbd 6e0b 44be ab5a 833e
000003f0: fd2a 2abe ff0c d2be 0d1a ffbe ae05 10bd

lstm.bias_ih_l1 f4 [128]
0.07713749 0.3457914 -0.0835762 0.15932256 -0.24256156 0.096710525 0.077735566 0.08339165
-0.14178443 -0.33553424 -0.20022754 0.008422421 0.1973226 0.032517143 -0.10315979 -0.06495477
0.08924228 0.06610274 -0.17261332 0.14650236 -0.015123306 0.20031907 0.40660867 0.031375304
0.14583619 0.30259496 0.42390746 0.12488784 -0.21682373 0.069310926 0.32021895 -0.12479997
0.056245267 -0.0014429764 -0.09566994 -0.001091635 0.012821323 0.17074512 -0.05249283 0.087864526
-0.018111542 -0.04598668 0.2624936 0.1731224 0.07149767 -0.053276595 0.07631105 0.13303612
0.1004207 -0.10184358 0.23554482 -0.041612405 -0.10611842 -0.07140386 -0.1514692 -0.14865011
0.08093384 -0.27093345 -0.24164984 0.16541085 -0.1080076 0.19139409 0.070248075 0.18905878
-0.06607122 -0.0840996 -0.12533692 -0.09169459 -0.13394403 0.09263818 -0.013589018 0.05847249
0.09866172 -0.10302433 -0.10568117 0.020863337 -0.07142964 0.074254625 -0.0670053 -0.015845202
0.11496645 -0.12667562 0.18703334 -0.0069530257 -0.041941192 -0.0695047 -0.006586559 -0.014883746
-0.16168627 -0.19307557 -0.008345631 -0.058076978 -0.036776632 -0.02804953 0.058073647 0.07965256
-0.07851925 0.6486053 0.2165633 0.11261241 -0.11600727 0.12613708 0.08684711 -0.0011843098
0.25915805 0.6323715 0.038906842 0.09141674 0.22087914 0.4903099 0.14521283 0.24827452
-0.055317868 0.6121557 0.07476949 0.6813858 -0.011585693 0.17227347 0.21859244 -0.0076947454
-0.043834716 0.4577004 0.46913105 0.25864422 -0.10103803 0.055151217 -0.0075032343 -0.029101005
00000000: 43fa 9d3d 920b b13e 002a abbd 7425 233e
00000010: 0f62 78be 2b10 c63d d333 9f3d 3ec9 aa3d
00000020: f02f 11be 25cb abbe 7308 4dbe 32fe 093c
00000030: f00e 4a3e b230 053d 7145 d3bd 0207 85bd
00000040: a8c4 b63d e060 873d 8cc1 30be b704 163e
00000050: bec7 77bc 7120 4d3e 032f d03e 6483 003d
00000060: 1556 153e baed 9a3e 660a d93e 32c5 ff3d
00000070: 0a07 5ebe e3f2 8d3d bdf3 a33e 2097 ffbd
00000080: 7061 663d 4122 bdba 9aee c3bd 3115 8fba
00000090: 8710 523c cfd7 2e3e b902 57bd 51f2 b33d
000000a0: a85e 94bc 875c 3cbd 9065 863e 0047 313e
000000b0: 5f6d 923d 8f38 5abd f848 9c3d 9f3a 083e
000000c0: 5ea9 cd3d 5e93 d0bd a932 713e c571 2abd
000000d0: 9d54 d9bd 303c 92bd be1a 1bbe bc37 18be
000000e0: a4c0 a53d cab7 8abe 0e73 77be 7661 293e
000000f0: 1733 ddbd d0fc 433e 39de 8f3d a098 413e
00000100: 5950 87bd 693c acbd 5258 00be 60ca bbbd
00000110: a028 09be 16b9 bd3d 79a4 5ebc da80 6f3d
00000120: 280f ca3d 6cfe d2bd 5f6f d8bd 97e9 aa3c
00000130: b449 92bd cf12 983d 133a 89bd cccd 81bc
00000140: 8873 eb3d 41b7 01be ab85 3f3e 35d6 e3bb
00000150: 87ca 2bbd 7b58 8ebd 10d4 d7bb f5da 73bc
00000160: 1691 25be 9ab5 45be 1dbc 08bc 20e2 6dbd
00000170: 18a3 16bd 21c8 e5bc a2de 6d3d e220 a33d
00000180: b3ce a0bd ff0a 263f c5c2 5d3e 56a1 e63d
00000190: 3895 edbd 142a 013e e6dc b13d d83a 9bba
000001a0: 5db0 843e 19e3 213f c85c 1f3d b338 bb3d
000001b0: 242e 623e e609 fb3e acb2 143e ad3b 7e3e
000001c0: fd94 62bd 3cb6 1c3f bf20 993d 4d6f 2e3f
000001d0: ebd1 3dbc 7568 303e b2d6 5f3e 3424 fcbb
000001e0: 088c 33bd b557 ea3e f231 f03e 046d 843e
000001f0: 07ed cebd 3ee6 613d b1dd f5bb 3b65 eebc

lstm.bias_hh_l1 f4 [128]
-0.03215743 0.2457804 -0.13703416 -0.022070285 -0.17068022 -0.16470708 -0.1231105 -0.12057793
0.053806562 -0.15217939 -0.13924173 0.28718805 0.19896832 0.19883169 0.09892205 -0.1725179
0.035026945 -0.013894803 -0.008554827 0.25187293 -0.06571586 0.022076506 0.14991458 -0.08968311
-0.09893327 0.21930458 0.24457388 -0.10621791 -0.1852934 0.071359254 0.21383399 -0.022668298
0.024864314 -0.18377154 -0.081456654 0.030590214 -0.086368725 0.08724805 0.25111353 -0.045596905
0.0014634074 0.11100289 0.29214707 0.23671472 -0.20341058 -0.09832595 0.013186679 0.14823006
-0.084879294 -0.2056099 0.24670471 -0.20301794 -0.15980819 -0.060945712 0.1213948 0.03195449
-0.028371433 0.022986066 -0.12858465 0.056570634 -0.010266795 -0.09469053 0.039817348 0.12067214
-0.065925285 0.06715779 0.17806853 -0.11819778 -0.017979637 0.19399829 -0.02591631 0.20515874
-0.09300959 0.06691517 0.14432082 0.17099914 0.075389385 -0.057928074 0.06301675 0.09198761
0.1442483 -0.002523494 0.007114801 -0.12204973 -0.18909466 -0.102055565 0.21994017 -0.021007845
-0.3114758 0.107054524 -0.1232388 -0.13129966 -0.03674551 0.05412074 0.02426291 0.01636413
0.017566185 0.7132566 -0.06554046 -0.06533062 -0.12327024 0.27116057 0.0410419 0.011041884
-0.047542736 0.44122732 0.22983328 0.12536922 0.22309746 0.44462395 -0.008079194 0.23934308
-0.19184957 0.43116662 -0.024381258 0.68290055 0.11367669 0.13595265 0.28230077 0.15719727
-0.124819554 0.40029332 0.37316722 -0.05100765 0.04290522 0.10507464 0.24501203 0.16477096
00000000: 82b7 03bd dbad 7b3e af52 0cbe becc b4bc
00000010: ccc6 2ebe f9a8 28be 5c21 fcbd 90f1 f6bd
00000020: 4564 5c3d ead4 1bbe 6295 0ebe 500a 933e
00000030: 5abe 4b3e 899a 4b3e a597 ca3d 88a8 30be
00000040: 6a78 0f3d 07a7 63bc 8c29 0cbc 7df5 803e
00000050: 0996 86bd cad9 b43c 3583 193e c7ab b7bd
00000060: 879d cabd 6191 603e 9371 7a3e c788 d9bd
00000070: 8ebd 3dbe cd24 923d 4cf7 5a3e deb2 b9bc
00000080: 3fb0 cb3c 9b2e 3cbe bfd2 a6bd 5498 fa3c
00000090: 16e2 b0bd 1baf b23d f491 803e d2c3 3abd
000000a0: cecf bf3a 7c55 e33d 4d94 953e 5865 723e
000000b0: dd4a 50be 1e5f c9bd f10c 583c 9fc9 173e
000000c0: 32d5 adbd 678b 52be 29a0 7c3e efe3 4fbe
000000d0: c2a4 23be 36a2 79bd d69d f83d b6e2 023d
000000e0: 356b e8bc 464d bc3c b2ab 03be 9cb6 673d
000000f0: 0f36 28bc 1ced c1bd 8417 233d f422 f73d
00000100: d603 87bd 068a 893d 9957 363e ad11 f2bd
00000110: 084a 93bc 7da7 463e 714e d4bc 2215 523e
00000120: d07b bebd d20a 893d d6c8 133e 661a 2f3e
00000130: c065 9a3d fd45 6dbd ed0e 813d 0064 bc3d
00000140: d4b5 133e 3461 25bb 4723 e93b 35f5 f9bd
00000150: 08a2 41be 8202 d1bd ff37 613e a518 acbc
00000160: c279 9fbe 673f db3d a064 fcbd 6b73 06be
00000170: 7682 16bd b6ad 5d3d 03c3 c63c 110e 863c
00000180: f6e6 8f3c fc97 363f 143a 86bd 0fcc 85bd
00000190: 1c75 fcbd 8fd5 8a3e 8d1b 283d 05e9 343c
000001a0: 2cbc 42bd 8ce8 e13e 6a59 6b3e ca60 003e
000001b0: a973 643e c0a5 e33e 995e 04bc 5a16 753e
000001c0: 3774 44be dfc1 dc3e 34bb c7bc 92d2 2e3f
000001d0: 53cf e83d 2c37 0b3e ba89 903e 52f8 203e
000001e0: 65a1 ffbd 3ff3 cc3e c60f bf3e 66ed 50bd
000001f0: 62bd 2f3d 5f31 d73d 6fe4 7a3e b8b9 283e

fc.weight f4 [1, 32]
0.7989371 -0.91698617 0.8363163 -1.0118955 0.8507246 -0.71208715 -0.73957264 -0.8400082
-0.7634147 1.0067782 -0.8522831 0.71653235 0.8291872 0.9476231 0.85286003 0.6975685
0.83510435 1.0350004 -0.77129894 0.78286564 -0.7831549 -0.87395793 -0.7273209 0.9440311
-0.7506671 -0.80805814 1.4039972 0.8172923 -0.8277407 -0.74153274 -0.7405748 -0.7431461
00000000: 2487 4c3f 9bbf 6abf d318 563f cb85 81bf
00000010: 16c9 593f 584b 36bf a254 3dbf c70a 57bf
00000020: 256f 43bf 1cde 803f 3a2f 5abf aa6e 373f
00000030: 9d45 543f 6d97 723f 0955 5a3f d993 323f
00000040: 66c9 553f e57a 843f d973 45bf e269 483f
00000050: d77c 48bf b5bb 5fbf b431 3abf 06ac 713f
00000060: b82b 40bf e6dc 4ebf 2eb6 b33f 113a 513f
00000070: d1e6 53bf 17d5 3dbf 4f96 3dbf d33e 3ebf
