best_model.pth (torch, 141995 bytes, 17 tensors)

lstms.0.weight_ih_l0 f4 [128, 1]
000000 9a 82 ae bd 2a e1 f8 3b 31 4a ca 3e 35 bd 54 3e
       -0.08521004 0.007595201 0.3950973 0.20775302
000010 55 d6 ed 3c 00 9c 45 3e 49 05 f5 3c a7 3a 2c ba
       0.029032866 0.1929779 0.029909747 -0.0006570019
000020 c5 f3 0e be a6 51 a4 bd 6d c3 b4 bd e9 20 5f 3e
       -0.13960178 -0.08023386 -0.08826337 0.21789898
000030 ed 74 a7 3d 32 3c 71 be 72 ff 6e bd bc 5f a8 3c
       0.08176599 -0.23558119 -0.05834908 0.020553462
000040 58 80 3e be cf b2 97 3e 6e 01 a1 3d 2e 47 bc 3e
       -0.18603647 0.29628608 0.07861601 0.36773056
000050 16 5a e1 bb 9a 45 13 3e cd f4 3c bd 16 6e 58 3e
       -0.006877194 0.1438202 -0.046131898 0.21135744
000060 c3 c9 01 3f e2 6f f0 3e ce 2f a0 bd fe 2c 5a 3e
       0.5069849 0.4696036 -0.07821618 0.21306226
000070 b6 10 34 3e 78 b1 8b bd bf 37 19 be 44 35 a2 bd
       0.175845 -0.06820959 -0.14962672 -0.07920316
000080 01 45 8c bd 0f a9 38 3e 34 c7 15 3e 0e 9a 98 3d
       -0.06849099 0.1803324 0.14626771 0.074512586
000090 d1 0a 19 3e 1e b5 3c be b4 36 9f 3d f6 02 3c 3e
       0.14945532 -0.18428466 0.07774106 0.18360505
0000a0 33 0e 39 3e 66 fb 79 3e 79 4c d2 3d 7d b0 a6 3c
       0.18071823 0.24412307 0.10268492 0.020347828
0000b0 28 99 8e 3b 93 69 ac bc 8e 3b 7a 3e 23 5a a9 3d
       0.0043517537 -0.021046435 0.24436781 0.08269145
0000c0 07 af 16 3e dc f9 36 be 22 c4 0d 3e 68 e6 1e 3e
       0.14715205 -0.17868751 0.1384435 0.1551758
0000d0 0b 66 9f 3d af 05 17 be 3c 42 f8 bd 2f 18 5c be
       0.07783135 -0.14748262 -0.12122008 -0.214936
0000e0 ad ac 0d 3d a4 f9 03 3e ec 6f 05 be 65 a2 51 bd
       0.034588505 0.12888199 -0.13030976 -0.051180262
0000f0 25 9e 26 be 1b 56 b8 3c 96 a8 89 be 67 25 f4 3b
       -0.16271265 0.022501996 -0.26886433 0.007450748
000100 22 e6 14 3e af 23 cd bd 5e 05 4b 3e db 38 3a be
       0.14540914 -0.10016572 0.19826266 -0.18185751
000110 67 c6 44 be d0 15 9e be 2c 6c 34 3e 25 6d 75 bc
       -0.1921631 -0.30876017 0.1761939 -0.014979635
000120 93 23 33 3d 42 fe 4c bc 79 36 3e be 35 61 97 be
       0.043735098 -0.012511792 -0.18575467 -0.2956635
000130 8a a3 74 be ae e0 94 3d e1 2b 7a bd d2 3b 60 3e
       -0.2389051 0.07269417 -0.061077002 0.2189782
000140 91 13 87 3e 68 6a 7d bd 9f a0 19 3e 2e b3 2f be
       0.26382115 -0.061869055 0.15002678 -0.17158195
000150 4a 6b f6 3d 8b b5 72 be e2 0e 88 3e 07 48 75 3e
       0.120321825 -0.23702066 0.26573855 0.23953258
000160 3d c8 1f be 4c 4d 4c 3e b8 74 0a 3d 27 ab e0 bd
       -0.15603729 0.19951361 0.033802718 -0.10970145
000170 0a 7f ba 3e 65 ae 61 3e aa 4f 41 be 42 4e 5a be
       0.36425048 0.22039182 -0.18878046 -0.21318915
000180 ba 69 d5 3e a7 64 60 3e fc f8 f3 ba f3 56 73 3e
       0.41682225 0.21913396 -0.0018613632 0.23763637
000190 84 02 9c 3e e1 1e 14 3e 2f f7 76 3e 4d a0 e5 3d
       0.3047067 0.14464904 0.2411773 0.112122156
0001a0 06 09 53 3e 22 c9 24 3d 21 9c bd 3e 78 ad 17 3b
       0.20608911 0.040230878 0.3703318 0.0023144167
0001b0 06 0a 19 3e c1 71 9f 3e 25 a4 a3 3e c1 ea f8 bd
       0.1494523 0.31141475 0.3196117 -0.12154151
0001c0 9b 08 39 be 4c b7 3b 3e 3b 5d 95 3e 56 5c 3d 3e
       -0.18069689 0.18331641 0.29172692 0.18492255
0001d0 98 ca 95 3e f5 3b cc bd cb d9 3c be eb d2 29 3d
       0.2925613 -0.099723734 -0.18442456 0.041460913
0001e0 65 89 81 3e 4c 75 cb 3d 1e f8 8d 3c fd 11 9d 3e
       0.25300136 0.09934482 0.017330226 0.30677786
0001f0 af c7 c8 3c 5e 95 64 be 8b fe b9 bd d4 0e 3b be
       0.024509279 -0.22322604 -0.09081753 -0.18267375

lstms.0.weight_hh_l0 f4 [128, 32]
000000 c2 00 bc be 81 ca 93 be c6 44 11 bf b6 2d 63 3e
       -0.36719328 -0.28865436 -0.56745565 0.22185406
000010 46 7f d6 3e 2c b9 d2 3d 34 7f 15 bf 4b 6c 9e be
       0.41893977 0.10289225 -0.5839722 -0.30941996
000020 59 46 e8 bd 71 fb 2c 3c ca 32 dc 3e bc 47 29 bd
       -0.11341543 0.010557995 0.430075 -0.041328177
000030 af 09 11 be 8b c7 23 3d 6d e9 0c be 0e 86 0b 3d
       -0.1416385 0.03998522 -0.1376092 0.03406339
000040 9a 91 2b 3e 03 9e f1 bd 65 4e 38 bf e7 27 e6 3e
       0.16754761 -0.117977165 -0.7199462 0.44952318
000050 45 89 cf be cf ca 95 bd 4a 52 f7 3c 3e 61 95 3d
       -0.40534416 -0.07314073 0.030190606 0.07293938
000060 cc 6b 4c 3f ad e4 65 bf 06 43 4b 3d af b9 52 be
       0.79851985 -0.89802057 0.049624465 -0.20578645
000070 e9 c8 83 bd e6 eb 4f 3e b5 dc 8d 3e d2 d9 e9 bc
       -0.06434805 0.20304832 0.2770745 -0.028546248
000080 dc 55 39 be c7 64 ff bd 35 c7 0d be 88 01 94 be
       -0.18099159 -0.12470394 -0.13845523 -0.28907418
000090 08 0f 93 3c 24 08 32 3c a0 c3 d7 3d 58 f4 ec bc
       0.017951503 0.010866199 0.105353594 -0.028925106
0000a0 ed c8 84 3e 01 b0 b7 3e fc f1 22 be 29 fa cd 3d
       0.25934544 0.35876468 -0.15912622 0.1005748
0000b0 d7 e8 c9 3d 0b 74 30 be fc c7 05 be 04 a7 14 be
       0.09858864 -0.17231767 -0.13064569 -0.14516836
0000c0 18 c7 26 3d f5 ab 26 3e a9 aa cd 3c 07 a1 22 bd
       0.040717214 0.16276534 0.025105791 -0.03970435
0000d0 06 07 c0 3d 76 b3 92 3d dd f5 8f 3e 3f 5e 1a 3e
       0.093763396 0.07163136 0.28117266 0.15075015
0000e0 55 5b f9 3c 84 79 5c 3e 00 74 83 be 93 dc d5 bc
       0.030439058 0.2153073 -0.25674438 -0.026106155
0000f0 96 b1 bd bb 26 f8 35 3e 71 26 07 3e 97 88 5f 3d
       -0.005788992 0.17770442 0.13198258 0.05457362
000100 a0 38 aa 3d d0 a1 78 bd 09 2d c0 3d c4 6e dc bd
       0.083115816 -0.06070119 0.0938359 -0.10763314
000110 a3 08 0d 3d 9e 75 9a be a2 ac fb 3c d2 97 3b 3e
       0.034432065 -0.3016786 0.030721966 0.18319634
000120 5d e7 b6 3e 47 a2 84 be 8f a0 9e 3d 55 95 04 be
       0.3572339 -0.25905058 0.07745468 -0.1294759
000130 0c 66 98 3b 53 3c dc 3e fa 00 28 3c 58 c6 25 3f
       0.004650837 0.43014774 0.010254139 0.64755774
000140 7f c9 c3 3e d6 62 32 3e a1 cc 7f 3d b2 ed ef bd
       0.38239667 0.17420515 0.06245101 -0.11715259
000150 5b 54 bd 3d 42 62 95 be e4 25 fb 3e 16 37 02 3e
       0.09244605 -0.29176527 0.49052346 0.12716326
000160 49 b5 e7 bd fa 96 b6 3d 35 01 90 be 6e 2b 42 3e
       -0.11313874 0.08915515 -0.2812592 0.1896188
000170 b8 d6 20 3e c4 4d e5 3e 8e a5 09 bf 89 2a f2 be
       0.15706909 0.44785893 -0.5376824 -0.47298077
000180 11 70 dd 3e ab 85 0a be a0 f6 6c 3e 6d 8f 1e be
       0.43249562 -0.13527553 0.23140955 -0.154844
000190 0b 56 1d be 84 17 b4 be 2a ca 55 3e 6d 9c a0 3e
       -0.15364854 -0.3517419 0.208779 0.31369343
0001a0 81 77 cc 3e 65 53 32 be 89 2d 89 be 73 ef dd be
       0.39934924 -0.17414625 -0.26792553 -0.43346748
0001b0 66 e9 8f 3e 0c 69 bb 3e 72 fd 98 3d 00 af fc 3e
       0.28107756 0.36603582 0.07470216 0.49352264
0001c0 e5 eb ed 3e 6e 8f 4b be 8f a9 b4 3d 4c 38 1d be
       0.46469036 -0.19878933 0.08821403 -0.15353507
0001d0 dc 22 05 3f ba 09 b6 be 17 97 13 3f c5 8e 94 3e
       0.52006316 -0.35554296 0.5765242 0.29015175
0001e0 0f 25 fe be 03 69 7f 3e 3d 16 8d be 12 4b 8b 3d
       -0.49637648 0.24942403 -0.2755603 0.06801428
0001f0 93 33 9e 3e 10 46 d5 3e 60 ba 87 bf 95 10 66 be
       0.30898723 0.41655016 -1.0603752 -0.22467263
000200 6c f8 97 3d 12 26 ab be 34 1a 99 be b3 a2 8b 3e
       0.074204296 -0.33427483 -0.29902804 0.27272567
000210 9e 8d 61 3e 2b aa c7 bd 05 54 8a 3e 26 c4 3e 3f
       0.22026679 -0.09749254 0.27017227 0.7451805
000220 a3 8b fa 3e 40 f4 2f 3e 92 d8 93 bc 5b 2f cb be
       0.4893466 0.17183018 -0.018047605 -0.39684567
000230 40 b8 10 bd 1e 86 bd 3e 26 d1 38 be d1 6b 05 3e
       -0.035331964 0.37016386 -0.18048534 0.1302941
000240 14 b4 88 3e bb 5d 3d bd 5c 73 ce 3c ba ca 0e 3d
       0.2669989 -0.046231966 0.025201492 0.034861304
000250 3d 9b 08 3f 66 40 62 be ec 71 cd 3e fb 14 26 3e
       0.53361875 -0.22094879 0.40125978 0.16218941
000260 fd 25 b9 3c b1 50 c0 bb 0f d9 26 bf df 9d 94 be
       0.022601122 -0.005868994 -0.65174955 -0.29026696
000270 2f da ff 3d ec a4 88 3e 22 7b 2d bf d9 c7 cf be
       0.12492787 0.26688325 -0.6776601 -0.4058216
000280 c3 97 e0 bd ac da b3 be d2 9a 1e bf cb 3c 46 3e
       -0.10966446 -0.3512777 -0.6195499 0.19359128
000290 b3 f4 58 3e 37 bf 1a 3d f9 a3 cf be 1a 96 0c 3e
       0.21187095 0.037780013 -0.4055479 0.13729134
0002a0 f6 a8 29 be d6 9d 3c 3f 6f a9 bf be 5c 24 92 be
       -0.1656836 0.7367834 -0.37433955 -0.28543365
0002b0 80 e4 43 bf 6c 5f 85 3e 03 69 39 be 7b 57 c6 3b
       -0.7652054 0.26049364 -0.18106465 0.006052909
0002c0 fb e1 cf 3e 33 53 0b be d9 70 a4 bc c7 cc 13 3d
       0.40602097 -0.13605957 -0.020073341 0.036083963
0002d0 05 b7 5e be d6 d4 9a 3d ae 3c c2 3e e5 75 41 3e
       -0.21749504 0.075601265 0.3793692 0.1889263
0002e0 c4 05 87 3e 3d d5 91 bd 21 54 b9 3d 00 f7 67 be
       0.26371586 -0.0712075 0.090492494 -0.22652817
0002f0 65 af af bc 92 cf 42 3e f5 8b f4 bd 9e 12 bd 3c
       -0.02144594 0.19024494 -0.11940757 0.023080166
000300 dc d7 35 bf 05 a8 ae 3d 47 8e a9 3c 19 c3 a9 bc
       -0.710325 0.08528141 0.020697726 -0.020722913
000310 c0 3b 20 3e 2e 80 67 3e 8e 6e 26 3c 8a d7 0d 3f
       0.15647793 0.2260749 0.010158194 0.5540701
000320 61 05 00 3f c9 1a 4f be 20 a0 1d 3e 89 df 48 3e
       0.5000821 -0.20225061 0.15393114 0.19616522
000330 10 3d 7b 3d d8 49 f5 3e 00 c8 8a be 28 82 17 3e
       0.06133753 0.479079 -0.27105713 0.14795744
000340 49 e6 f6 bd 5e 18 1d 3e 93 7e a0 bd 2a 7b 3d 3d
       -0.12055642 0.15341327 -0.07836642 0.046260037
000350 e3 2c 50 3e ce 32 09 be 1a 4a 85 bc 95 f5 aa bc
       0.20329623 -0.13398287 -0.016270686 -0.020869056
000360 04 5c 3c 3e 4c e2 e7 bd c9 92 d2 be 17 18 35 3e
       0.18394476 -0.113224596 -0.41127613 0.17684971
000370 7c 94 44 bd a8 ed 3f be b1 69 18 3e b3 c3 01 3e
       -0.04799317 -0.18743002 0.14884068 0.1267231
000380 0f 1e 27 3e 6d 12 80 3c 61 8b 0d 3f aa e4 c5 be
       0.1632006 0.015633786 0.552908 -0.3865102
000390 39 f4 ed be 9b 57 6b be 30 53 0d 3f 70 35 e1 3e
       -0.4647539 -0.22982638 0.5520506 0.43986082
0003a0 42 72 9f 3e fe b9 7c be a7 54 c2 be 7d 9f 06 be
       0.3114186 -0.24680325 -0.3795521 -0.13146777
0003b0 8a a9 58 3d bc 59 10 bd 7b 3e 57 be 63 8e cf 3d
       0.05289606 -0.035241827 -0.21019928 0.1013458
0003c0 e7 e0 73 be fc 2a bb 3d 50 37 c6 3e c2 16 ad be
       -0.23816262 0.09139058 0.38714075 -0.33806425
0003d0 66 fd c3 3e 61 67 62 bd 12 fb e8 bc ec 20 0b 3e
       0.38279265 -0.05527437 -0.028440032 0.13586777
0003e0 b2 b0 a2 be 0c c7 d6 3e 1e e3 d1 be 16 e9 6e 3c
       -0.31775433 0.41948736 -0.4099359 0.014581939
0003f0 ae 0f 17 3e 37 3f 66 be 0c 85 03 3e df d3 c5 3d
       0.14752075 -0.22485052 0.12843722 0.09659552

lstms.0.bias_ih_l0 f4 [128]
000000 e4 7d 01 3e 99 a4 48 be 2f 15 17 be 38 c6 27 be
       0.1264568 -0.19594039 -0.14754175 -0.16384208
000010 5b cf 16 be df 63 43 3d 6e dc c4 bc 08 13 fb bd
       -0.14727537 0.047702666 -0.02403089 -0.12259489
000020 b6 d5 30 3c 4b 7c 67 be 93 57 a2 be 68 44 d9 3d
       0.01079314 -0.22606008 -0.3170744 0.106087506
000030 4d fd e2 bd ac 5b 99 be ce 52 da be 30 3c 89 3e
       -0.110834695 -0.29952753 -0.426413 0.26803732
000040 82 37 98 3e 0c 2b a9 3e 23 26 c9 be 30 22 2e be
       0.2972985 0.33040655 -0.39286909 -0.17005229
000050 f3 05 0e be af 37 4a 3e e3 20 d6 3e f8 08 52 3e
       -0.13869457 0.19747804 0.41821966 0.20511234
000060 12 09 ea be 87 65 86 be 1f 60 ee bd 0e fc 76 be
       -0.45710045 -0.26249334 -0.116394274 -0.24119589
000070 2b b9 c8 3c 72 30 bb 3e 1a 44 aa bc 3f 5a 98 3e
       0.024502357 0.36560398 -0.020784426 0.29756352
000080 ae 00 ae bc cc 12 2d 3e 3c 1b 57 be 3b 95 59 be
       -0.021240558 0.16901702 -0.21006483 -0.21248333
000090 2a 91 34 be 09 de 7b 3c 7b e6 1f be 97 14 40 bd
       -0.176335 0.0153727615 -0.15615265 -0.046894636
0000a0 e8 59 74 bc af b8 8e 3e de 68 7d be 8a 0c bc bd
       -0.014914013 0.27875277 -0.24747035 -0.09182079
0000b0 c3 71 b8 3e 81 36 48 3e 1e 28 49 bd 3d 66 b1 3d
       0.36024293 0.19552042 -0.049110524 0.086620785
0000c0 e4 d1 3e bd cc ed 64 3d d5 82 b7 be b4 e0 d8 be
       -0.046586886 0.055890843 -0.35842004 -0.42358935
0000d0 8e 5e b3 be a3 af 46 be 50 6b 0b 3d 5f ea 72 be
       -0.35033077 -0.19402938 0.034037888 -0.23722218
0000e0 ce 47 67 be 39 a5 4a be 46 09 19 be 49 a2 f1 bd
       -0.22585985 -0.1978959 -0.14944944 -0.117985316
0000f0 33 86 ce bc 29 28 7f 3a 4c a0 9e bb 36 93 be bd
       -0.025210476 0.00097334624 -0.004840886 -0.09305422
000100 29 9d 48 3d 9f 22 eb bd e8 da 90 bd 74 a8 b5 3e
       0.048978005 -0.11481213 -0.07073003 0.35480082
000110 d4 56 8d 3e 6c 01 cf bd e1 cc 13 3c 2d 96 b1 3d
       0.27605307 -0.10107693 0.009021015 0.08671222
000120 d4 e5 81 bd 0e f0 23 3d 17 13 c7 3e 39 33 51 bc
       -0.06342664 0.040023856 0.38881752 -0.01276856
000130 53 90 2b be 85 1c 9e 3e e3 03 10 bc 2b ed b4 3d
       -0.16754274 0.30881134 -0.008789989 0.08834299
000140 f8 de e1 3b 09 8b 0c bf 25 b5 46 be 35 04 ae 3e
       0.006893035 -0.5489965 -0.19405039 0.33987585
000150 61 de 17 be ea 52 57 be fc 8c 8e bd ee f2 34 bc
       -0.14830925 -0.21027723 -0.069604844 -0.011044247
000160 1e d7 a0 3e 06 e3 85 be f0 68 6e be 4b f1 d5 bd
       0.3141412 -0.26149768 -0.23282218 -0.104464136
000170 23 fc 83 3d cd 5c d9 39 45 0f ba 39 27 f2 0e be
       0.06444576 0.00041458607 0.0003548806 -0.13959561
000180 d5 d2 ca 3d 3c aa 4c 3e af d2 a6 be 78 c4 92 bd
       0.09903494 0.19986814 -0.32582614 -0.0716638
000190 5d d5 3a be 5c 96 8e 3e 34 d0 91 bd 74 40 aa be
       -0.18245454 0.2784909 -0.0711979 -0.332523
0001a0 7b 93 50 3e 41 68 9c 3e 68 7d 43 be 55 aa 8b 3e
       0.2036876 0.3054829 -0.19090807 0.2727839
0001b0 63 83 01 3f 9d 5a 29 3e 19 fc 96 be a6 d6 fc 3d
       0.50591105 0.16538472 -0.2948921 0.123456284
0001c0 9e c7 4a 3c d5 fb 61 3e 41 aa 1c be 2a 0e f6 bc
       0.012376694 0.22068723 -0.15299322 -0.03003605
0001d0 97 42 ae be d1 5b 3e 3d 1c 76 72 bd 1a fd 11 3e
       -0.3403518 0.04647428 -0.05919467 0.14256707
0001e0 ec a3 84 bd 07 fc 1a 3e cb b5 03 be 57 92 46 3d
       -0.06476578 0.15135203 -0.12862317 0.048479404
0001f0 8a 9c 35 3e 56 9a a6 3c 3e bd c4 3e 44 2b 28 3e
       0.17735496 0.020337265 0.3842563 0.16422755

lstms.0.bias_hh_l0 f4 [128]
000000 8d c6 0a 3d 1c 55 c0 be 0d 5c 6d be 38 4a 50 bc
       0.03388076 -0.37564933 -0.23179646 -0.012713008
000010 d9 e7 5b be 0b 17 9e bd 41 62 72 be 9d 4d 91 3d
       -0.21475162 -0.07719239 -0.23670293 0.07094882
000020 22 3e 8e bd 4b 40 8b be 44 d7 43 be 4b d7 8c 3e
       -0.06945445 -0.2719749 -0.19125086 0.27508005
000030 a4 6b 7b 3d 28 0b 71 bd 6e 01 87 be f6 87 ec 3e
       0.06138195 -0.05884853 -0.26368278 0.4619748
000040 3d 09 23 3e de 3b cd 3e 2f f2 d8 be 36 34 a3 bd
       0.15921493 0.40084738 -0.4237227 -0.07968943
000050 b8 4a 80 be 11 94 9c 3e 42 d1 96 3e 4a 44 98 3e
       -0.25057006 0.30581716 0.29456526 0.297396
000060 72 89 c5 be 01 88 d2 3c 65 1a e3 bd 31 93 8d be
       -0.38581425 0.025699617 -0.11089019 -0.2765136
000070 23 10 a9 3d 5f 0a b5 3e 33 75 42 3e 89 56 bf 3e
       0.08255031 0.35359475 0.1899002 0.3737071
000080 96 bd 8b bd 0b de 6f bd a7 65 db be ed 7e 88 be
       -0.0682327 -0.058561366 -0.42850992 -0.26659337
000090 3f 65 12 be 98 cf 81 be 1f 9f d5 be fd 9c 04 be
       -0.14296435 -0.25353694 -0.41722962 -0.12950511
0000a0 fe 6c 6c 3d 5e 5a a6 3e 92 13 57 be 76 23 27 3e
       0.05772113 0.3249082 -0.21003559 0.16322121
0000b0 b6 53 f1 3e e2 e6 96 3d a7 e8 36 be 3b 20 02 3e
       0.4713418 0.07368256 -0.17862187 0.12707607
0000c0 46 80 f3 3c 93 cb 33 bd 48 92 d7 be 6c 33 dd be
       0.029724251 -0.043895315 -0.4210379 -0.43203294
0000d0 66 5c 47 be 8d 6b 18 3d c2 66 27 3e 1d b9 1d be
       -0.19468841 0.037211943 0.16347793 -0.15402646
0000e0 de c3 56 be db 66 c9 be ac 79 de be da 79 f5 3d
       -0.20973155 -0.39336285 -0.43452203 0.11986132
0000f0 55 34 3d bc 27 11 28 bd 6b 84 47 bd 19 00 1a 3c
       -0.011548121 -0.041031983 -0.048710268 0.009399437
000100 a7 91 09 3e b7 fa 0b 3e b4 bd ce bd 32 ae 88 3e
       0.13434468 0.13669859 -0.10094777 0.266954
000110 99 74 23 3e 54 23 1f be 00 ab 5e bb 4b 11 15 3e
       0.15962447 -0.1554082 -0.0033976436 0.14557378
000120 b1 ab 8c 3e c5 79 f9 3d 6e 51 17 3e ad 6e 09 be
       0.2747474 0.12181429 0.14777157 -0.13421126
000130 0e 28 f9 bc 35 6b b8 3e 6a 98 7e 3e 81 41 84 3e
       -0.030414607 0.36019292 0.24862829 0.25831226
000140 b1 31 f8 bd 11 52 3e bf e0 ea 83 be 57 1a 68 3e
       -0.12118853 -0.74343973 -0.25765133 0.22666298
000150 85 90 cd bc 07 cd b9 bd 5f ce 0b 3d be 1d 85 3e
       -0.025093326 -0.09072309 0.034132358 0.25999254
000160 39 f7 95 3c 7f 1e 88 be 8b fc 89 bd 32 87 1d be
       0.018306362 -0.26585767 -0.06737622 -0.15383604
000170 f4 4f 4b 3d 9a 24 43 3e a4 c2 16 bd 2c 82 86 3d
       0.049636796 0.19056931 -0.036806718 0.06567797
000180 ed 97 37 be 75 62 03 3e d9 6e b6 be 59 15 7f 3d
       -0.17929049 0.12830527 -0.35631445 0.062276218
000190 3a b4 11 be 33 bf 45 3e a6 e5 29 bc e5 2f e4 be
       -0.14228907 0.19311218 -0.010369694 -0.4456779
0001a0 56 cb 89 3e b1 e1 c5 3e 18 17 66 bc 3c 9c da 3c
       0.26912946 0.3864875 -0.014043592 0.026685826
0001b0 5f 21 49 3e ec d9 b3 bd 92 3b be be 19 89 95 bd
       0.19641636 -0.087818 -0.37154824 -0.0730154
0001c0 41 a8 05 3e d9 9c 9f 3d 58 16 85 3b 71 06 98 3d
       0.13052465 0.07793588 0.0040615015 0.074231036
0001d0 bb fa cd be 70 b9 91 3d e7 91 07 3e 8d 67 f5 3d
       -0.40230355 0.071154475 0.13239251 0.11982641
0001e0 f8 09 94 3d 38 a6 7f 3d ee 2e e2 be 16 46 76 be
       0.07228464 0.062414378 -0.4417643 -0.24050173
0001f0 20 b6 97 3e 77 ef ef 3d 09 5a ff 3e 7a 7f 13 3d
       0.29631138 0.11715596 0.4987338 0.036010243

lstms.0.weight_ih_l0_reverse f4 [128, 1]
000000 af fc 00 be 70 49 90 3d ee dc d6 3d 1d 57 c1 3d
       -0.12596391 0.07045257 0.10491358 0.09440444
000010 16 cc 96 bd 92 6a d4 3d a3 b7 97 3d 40 11 a8 3d
       -0.07363145 0.10371889 0.07408073 0.08206415
000020 21 ac f7 ba 58 f8 2c 3b 28 9c fd 3d 7d 48 ba bd
       -0.0018895903 0.0026393142 0.123833 -0.09095857
000030 dd af 04 be b1 70 e8 bd ae b7 6f be 21 84 d7 3d
       -0.12957712 -0.11349619 -0.23409912 0.105232485
000040 93 54 05 3e 83 3d 06 be e6 2f cf bd 95 08 8c 3d
       0.13020544 -0.13109402 -0.10116558 0.068375744
000050 dc eb 18 bd 90 16 00 be 42 9e a7 bd 06 74 a5 3d
       -0.037334308 -0.12508607 -0.08184482 0.0807877
000060 4b 60 f8 bd f7 b1 13 be c3 e6 40 3d 00 be 8a bd
       -0.121277414 -0.14423357 0.04709507 -0.06774521
000070 ed 7f 93 3c 32 58 2a 3d 7e be ea 3d 28 46 0d 3e
       0.018005336 0.041588016 0.11462115 0.13796294
000080 f2 85 16 3e e8 1b b3 bd 74 5f 27 3e 50 f2 9a 3b
       0.14699534 -0.08745557 0.16345006 0.004728593
000090 62 73 8a 3d 45 97 ae bc 04 3a 9c 3d 72 8e 80 3e
       0.06760289 -0.021312365 0.07628253 0.25108677
0000a0 31 a1 02 3e d4 5d 5d bc e2 8e 4c 3e ac 2c 87 3e
       0.12756802 -0.01351114 0.1997638 0.2640127
0000b0 3f 2f 6f 3e 01 08 44 3d 50 2d a9 3d 11 20 16 be
       0.23357867 0.047859196 0.08260596 -0.1466067
0000c0 05 63 c8 3c 46 b9 af 3d c8 87 47 3e 9a 69 b1 3d
       0.024461279 0.0858026 0.1948539 0.0866272
0000d0 a2 f3 b1 3e ac db b9 3e f2 7e a9 3e ef 1e ac 3e
       0.3475619 0.3630041 0.33104664 0.3361735
0000e0 db e6 62 3e 78 65 11 3f 7f 7c 47 3e d2 3b a5 3d
       0.22158377 0.56795454 0.19481085 0.080680504
0000f0 46 66 a7 3d 47 c2 58 3d 44 16 dc 3d 9a 1c b1 3e
       0.08173804 0.052919652 0.10746434 0.34592134
000100 58 35 17 3e 28 14 8b 3d 8d 03 90 bd 5a a5 91 3d
       0.14766443 0.06790954 -0.07031927 0.071116164
000110 f6 79 dc 3c d2 8b b4 3d d3 73 a9 bd 87 a5 c0 bd
       0.026913624 0.08815731 -0.08274045 -0.09406572
000120 17 bf 64 3d aa 23 65 3d 13 6b 82 3d cf 74 42 be
       0.0558463 0.055942215 0.06368079 -0.18989871
000130 8c 57 27 be 6d 2d 04 3e d2 9d 83 3e 2c 46 4f 3d
       -0.1634199 0.12907954 0.25706345 0.05060403
000140 54 10 91 3d 4f d8 ef bd bd be 0f 3e c9 eb 66 bd
       0.070831925 -0.117111795 0.14037605 -0.056377206
000150 48 c3 14 3e 33 19 00 3e 9d 06 50 3e a3 9f 6f bd
       0.14527619 0.12509613 0.20315023 -0.05850185
000160 ba 28 cc bd 00 68 af bd 73 fd c8 3d b2 47 e6 bd
       -0.099687055 -0.08564758 0.098139666 -0.112441435
000170 a4 36 8e bd 88 49 71 3d 43 b8 8e bd e4 4c e5 bd
       -0.069440156 0.058908015 -0.06968739 -0.11196306
000180 3b 3f 8f 3d 7b 18 02 3e 39 25 4f 3e 68 4a f1 3d
       0.06994482 0.12704651 0.20229043 0.1178177
000190 68 f0 bc bc 6d 03 03 3e 9b 4d de 3d 4d a1 0b 3e
       -0.023063853 0.12794276 0.10854646 0.1363575
0001a0 46 39 ae bd 71 b0 0a bd 2e 0e 19 3e 78 12 d1 bd
       -0.08507018 -0.033859674 0.14946815 -0.10208601
0001b0 4e fe 9e bc 8d 0a 5f 3e 0d 28 83 be c7 17 22 3e
       -0.019408371 0.21781369 -0.25616494 0.15829383
0001c0 0f bd 44 3e 78 ee 43 3d ba 28 86 3d f5 ae b5 3d
       0.19212745 0.047834843 0.06550737 0.08871261
0001d0 78 3a 02 be 13 59 c8 bd a5 86 9a bd aa 17 35 3e
       -0.12717617 -0.097826146 -0.07545213 0.17684808
0001e0 af c1 ba bd 82 0b 31 be 11 57 16 be 8b 75 02 be
       -0.091189735 -0.17289546 -0.1468165 -0.12740152
0001f0 6c 5f a1 3d 2c 19 32 3d aa ef eb 3d 5f 74 e0 bd
       0.078795284 0.043481037 0.11520322 -0.10959696

lstms.0.weight_hh_l0_reverse f4 [128, 32]
000000 a2 63 55 3d cd 3e 27 be ed ba 8f 3e 01 e8 71 be
       0.05209697 -0.1633255 0.280723 -0.23623659
000010 0c 6a e2 bd e1 4d 9c be 85 3a 91 3e 59 70 85 3d
       -0.11055383 -0.30528167 0.2836496 0.06515569
000020 07 20 ae be 92 a3 ee bd ae f1 78 bd a6 bc 37 3d
       -0.3400881 -0.11652292 -0.06077736 0.044857644
000030 a2 86 8c bd 46 31 39 3e 04 b1 34 bf da 4a bf 3e
       -0.06861617 0.18085203 -0.70582604 0.37361795
000040 22 74 fb bd 25 01 71 be 0c ce 44 3d 28 7b bb 3e
       -0.1227801 -0.23535593 0.048048064 0.36617398
000050 d5 54 d9 3c e9 34 19 3d 96 c7 9a 3d 13 ea 7d 3e
       0.026529709 0.037403975 0.07557599 0.24796323
000060 cf 4e 39 bd 3d 54 0d 3c 10 af c1 3d 10 4f 18 3d
       -0.045241173 0.008626041 0.09457219 0.037184775
000070 a5 3c 45 3c a2 0b 91 be 67 39 ce 3e 2a 5b 80 be
       0.012038385 -0.28329188 0.4027817 -0.25069553
000080 ee 90 f5 bd 41 ff 4a 3e 22 02 05 3c b6 f6 50 be
       -0.11990534 0.19823934 0.008118184 -0.20406613
000090 cf bb 0b 3e 84 45 9b be bc b6 4c 3e 47 19 6a 3e
       0.13645862 -0.30326474 0.19991583 0.22861205
0000a0 2a f1 b8 3e 82 50 4a 3c c0 74 13 be b5 e6 aa 3d
       0.36121494 0.012348296 -0.14400005 0.08344785
0000b0 8a e0 30 3e 11 1c 4d be b2 23 97 bc 89 84 94 bc
       0.17273155 -0.20030238 -0.018449638 -0.018129604
0000c0 9f d2 c9 bd 05 ce 3a 3e 87 70 b3 be 1e 3b a6 3e
       -0.09854626 0.18242653 -0.3504679 0.32466978
0000d0 0c 79 97 be 48 36 77 bd 8a fc 73 bd 44 31 2b 3e
       -0.2958454 -0.0603545 -0.059567012 0.16718012
0000e0 aa 49 10 3e 07 43 c8 3d ea 16 42 be 34 ab 97 3d
       0.140906 0.097784095 -0.18954054 0.07405701
0000f0 ac 90 17 3e d3 ea 08 3d 6b 5c 11 3e 07 2a c1 3e
       0.14801282 0.03342707 0.14195411 0.37727377
000100 71 28 e4 be ed fc 00 be 6f 20 e0 3d b0 f5 ef bd
       -0.44562104 -0.12596484 0.10943686 -0.11716783
000110 22 82 9d 3d 5d 0b b2 be 96 0b f3 3d 3a d2 f2 3e
       0.076908365 -0.34774294 0.11867444 0.47426015
000120 07 7a 39 bd f9 b5 71 be e1 93 24 be 71 ee f8 3e
       -0.04528239 -0.23604573 -0.16072036 0.48619416
000130 8d eb 0e 3f 4a 32 b9 be 2f 67 89 bd ab bb c1 3e
       0.5582817 -0.3617118 -0.06709134 0.37838492
000140 96 47 55 3d 2b a2 2f 3f 7e 1d 47 bf 79 b9 b0 3e
       0.052070223 0.68606824 -0.77779377 0.34516504
000150 2f 7a ff be 6b 5d 44 bf 7d 0d f2 be 7d 98 a5 3e
       -0.49897906 -0.76705045 -0.47275916 0.32342902
000160 3b 22 39 3f d8 68 91 be e5 ee 19 bf e2 e8 be 3d
       0.72317857 -0.28400302 -0.6013015 0.093217626
000170 1a 09 8b 3e 12 2d 28 be e7 1f 2b 3e 03 39 ee 3e
       0.2715538 -0.16423443 0.16711389 0.4652787
000180 38 a2 40 bd 60 95 cb bc 62 6b 21 be 74 9a b5 bc
       -0.047029704 -0.024851501 -0.1576362 -0.022168376
000190 1f 49 c3 3e 0d f9 c5 bd 33 d6 5c 3d 3b 87 f3 bd
       0.38141724 -0.09666643 0.053915214 -0.118910275
0001a0 fe d2 88 3d e4 4a 86 3d 79 59 88 3e 2c 09 d0 bd
       0.066808686 0.06557253 0.26630762 -0.101579994
0001b0 0e aa 81 3e b7 f4 b2 be f9 f9 53 3e 43 a5 c9 3d
       0.25325054 -0.34952328 0.20700826 0.09845974
0001c0 9a 38 ad 3e fd 56 4f 3e 92 f8 3f be 94 f2 7e bd
       0.33832246 0.20248027 -0.18747166 -0.06224306
0001d0 2d 9b 92 bd 0e fb fb 3d 0a 89 ba b9 96 2d 6c be
       -0.07158504 0.12303744 -0.00035578787 -0.23064265
0001e0 b3 b1 69 be f1 7c 2a 3e 82 2d 98 bc ff 97 0b be
       -0.22821693 0.16649224 -0.018576387 -0.136322
0001f0 54 38 c9 bd 3d c1 ea 3c 2a 70 f7 bd d9 c6 0f bd
       -0.09825197 0.028656596 -0.120819405 -0.035101745
000200 a3 c7 ae bd a3 89 2b 3f 09 5e 3e bf e9 cd 29 3f
       -0.085341714 0.6700689 -0.74362236 0.6632982
000210 21 a4 8e bc 7a 10 0a 3f 25 1b 33 bf 74 1c bc be
       -0.017412247 0.5393139 -0.69963294 -0.36740458
000220 82 ed 02 3f b1 31 6a 3e e5 74 1a 3f 5c e0 47 3c
       0.5114366 0.22870518 0.60334617 0.012199488
000230 f7 c7 21 3c 26 54 89 3c 3b 51 14 3d a6 25 3c 3f
       0.0098743355 0.016763758 0.03621028 0.73494947
000240 20 3b 3b 3f 9d 8c d0 bd c6 75 d9 bd 0a 7d 2f bf
       0.7313709 -0.1018307 -0.106181666 -0.6855017
000250 3a 66 93 be cd c0 18 be ed a4 be bd 87 72 a7 be
       -0.2878893 -0.14917298 -0.09308801 -0.32704565
000260 ef ef 1e bd a5 fd a8 be b0 60 ee 3d d1 e0 9b be
       -0.038803037 -0.33006015 0.116395354 -0.3044496
000270 27 3a 91 be c5 a9 04 3f 45 c9 0e bf 1f 65 8a 3e
       -0.2836468 0.5182155 -0.5577586 0.27030274
000280 66 5b 08 be 45 24 51 3e 00 12 3b 3e 5c 5e 90 be
       -0.13316116 0.20423992 0.18268585 -0.2819699
000290 cb b4 b7 3e 8d 4c 66 be 1d c2 07 3e 4d a4 b3 3e
       0.35880122 -0.2249014 0.13257642 0.3508629
0002a0 f4 42 91 3e 00 98 85 3c 0f ae 51 3d ba e0 32 bd
       0.28371394 0.01630783 0.051191386 -0.043671347
0002b0 3a b2 a2 3d 81 ff 81 be 52 71 fc be 50 1d a8 be
       0.0794415 -0.25390247 -0.49305207 -0.32834864
0002c0 5b 66 96 3d ab 2f a4 3e d1 eb e4 be cb dd 83 3e
       0.073437415 0.32067618 -0.44711164 0.25755152
0002d0 41 b4 c4 be c8 e0 b8 be 44 7e bf bd fa 0f 19 bc
       -0.38418773 -0.36108994 -0.09350255 -0.009342188
0002e0 a3 89 52 3e d1 75 32 3e 7e 54 ee bc 22 6b a5 bd
       0.20560317 0.17427756 -0.029093023 -0.080770746
0002f0 4e 43 e6 3c 8a 3f 5b be c2 1e 89 3d ab b6 da 3e
       0.028108265 -0.21410957 0.0669532 0.4271749
000300 f9 63 6c be 1e 57 e4 3a cb 29 24 3e cc 97 44 be
       -0.23085012 0.0017420982 0.16031568 -0.19198531
000310 dc 3a 8e 3e 0b 87 40 bd 2f 1c e3 3d 49 33 c9 3e
       0.2777928 -0.047003787 0.1108936 0.3929694
000320 33 09 21 3d 32 2e f0 bd 9a 2f 65 3d 07 81 9a 3e
       0.039315414 -0.11727561 0.0559536 0.30176565
000330 1d a9 a7 3e cb 85 da bd d5 2f 3c be c2 82 5c bd
       0.3274621 -0.1067005 -0.18377621 -0.053835638
000340 30 a0 78 bd f7 63 d8 3e 94 2c 87 be 5e 8a 8a 3d
       -0.06069964 0.42263767 -0.26401198 0.06764673
000350 25 77 d3 be 01 16 ab be 5a 00 f1 bd 17 81 b4 3d
       -0.41301838 -0.33415225 -0.11767645 0.088136844
000360 c9 eb a9 3e 80 16 a1 3e 71 70 cf be c7 fc 8b 3e
       0.33187702 0.3146248 -0.40515473 0.2734129
000370 96 4d 80 3e 7b 54 75 bc 5b e5 d2 bd cc 68 84 3e
       0.25059193 -0.014973755 -0.10297652 0.25861204
000380 82 2f c4 be 79 00 10 bb bf ec 03 3e 0b b5 8a 3d
       -0.38317496 -0.0021972938 0.1288328 0.067728125
000390 18 28 5e 3e 8c c5 9c be 34 f6 7e 3e 87 61 19 3f
       0.21694982 -0.30619466 0.24898607 0.5991444
0003a0 1e a7 c1 bd fc ee 0c be 4e d9 16 3c 00 b6 bc 3e
       -0.09455703 -0.1376304 0.009207083 0.36857605
0003b0 14 32 30 3e 5d f2 b0 be 10 c9 b3 be 3d 74 9c bd
       0.17206603 -0.34559909 -0.35114336 -0.07639358
0003c0 11 fc fc bc 7f 8e fd 3e d5 14 d4 be fe c5 38 3e
       -0.030881913 0.49522778 -0.41422144 0.18044278
0003d0 cf 1a 85 be a1 76 d7 be aa 22 03 bf 8c a8 f4 3c
       -0.25997016 -0.42082694 -0.5122477 0.029865526
0003e0 0e 7c e3 3e dd 7b d5 3c 2a 80 a3 be 0e d2 bb 3d
       0.44430584 0.02606004 -0.3193372 0.09170924
0003f0 40 0d 59 3e a2 32 4e bd a9 3c 85 3e 39 55 de 3e
       0.2119646 -0.050341256 0.26022843 0.43424395

lstms.0.bias_ih_l0_reverse f4 [128]
000000 dd 02 fb bc 97 7e c7 be 7f 55 29 be f4 85 b6 be
       -0.030641014 -0.38963768 -0.1653652 -0.35649073
000010 d9 a8 5d be ba 30 74 be 48 26 99 be 6c 28 82 bd
       -0.21646442 -0.23846713 -0.2991202 -0.06355366
000020 9d 8c c5 bd 66 ef b1 be 11 2e 71 be f1 47 ed 3d
       -0.096459605 -0.3475296 -0.23552729 0.11585987
000030 af fa 8c 3d 76 86 2a be e2 63 67 3e a8 6f 3e 3e
       0.068837516 -0.16652855 0.22596696 0.18597281
000040 7d 12 2e bf 9f 27 0c 3e a2 e2 4c 3d 77 3b b2 be
       -0.6799696 0.13686989 0.05002082 -0.34810993
000050 56 78 6c 3e 60 aa ab 3e a7 0f cf 3d aa c0 92 bd
       0.2309278 0.33528423 0.10110407 -0.07165654
000060 d5 35 a5 3e c1 54 e7 3e f6 a1 a9 3e 5b 4a 5a 3c
       0.32267633 0.4518185 0.3313138 0.013323392
000070 a8 81 0f 3e b8 6c e8 be da 8c cc be 30 00 ee 3e
       0.14014304 -0.45395446 -0.3995121 0.46484518
000080 50 19 02 3f c5 ba ac be 19 34 95 3e bc 43 cb bd
       0.50819874 -0.33736244 0.2914131 -0.09925029
000090 6c b2 70 3e 3c 82 90 3e 61 5b f0 3d 6b 11 12 3f
       0.23505563 0.2822436 0.11736179 0.5705783
0000a0 7e cf fc bc 85 c1 3b be 67 33 19 3e 78 e4 3e 3e
       -0.030860659 -0.1833554 0.14961015 0.18641841
0000b0 2c 8f 6a 3e 3d b6 8a 3e 23 7a 3b 3e e6 3a 9d 3d
       0.22906178 0.27092162 0.1830831 0.076772496
0000c0 5b fb 17 3e aa 55 cf 3e ea a3 a2 3e 45 4c ba ba
       0.14841978 0.40495044 0.31765682 -0.0014213404
0000d0 17 35 e3 3d 3f 2f 8a 3e 26 13 0f 3f 7a c2 e6 3e
       0.110941105 0.2698917 0.55888593 0.4507025
0000e0 e3 c9 bd 3e 58 60 53 3e 7e f3 8e 3e 80 84 ff 3e
       0.3706809 0.20642221 0.27920145 0.49905777
0000f0 6b 6b f9 3e 6f 7c 84 3a 4a 32 f7 bd a6 a2 e6 3e
       0.48714766 0.0010107885 -0.12070139 0.45045966
000100 fd 8f 1c be d9 15 eb be c3 84 d1 3e 0a 22 b3 be
       -0.15289302 -0.45915106 0.40921602 -0.34986907
000110 f9 2f cd bd 78 50 02 bf 0a 1c fe 3e b5 e7 03 3f
       -0.10018916 -0.50904036 0.49630767 0.5152543
000120 a2 2e 69 be be ca aa be c5 f7 fb be f7 fe 11 3e
       -0.22771695 -0.33357805 -0.4921247 0.14257418
000130 04 ce 84 3e 67 0e 12 be 47 94 62 bc 4e 97 b5 be
       0.25938427 -0.14263307 -0.013829297 -0.35467
000140 ea a5 f0 be f9 4d a0 3e d1 1f bb be d6 80 e4 3e
       -0.47001582 0.31309488 -0.36547711 0.44629544
000150 4f 7a c1 be d7 7a 94 be ce 3e 0f be f4 45 7d 3e
       -0.37788627 -0.2899997 -0.13988802 0.24733716
000160 17 5a 58 3e 52 15 ba 3e a5 52 e5 bd 9e ed 6f 3e
       0.21128117 0.3634439 -0.11197404 0.23430488
000170 35 40 a6 3e 69 1d 80 be 97 84 0b 3f 89 b4 e8 3e
       0.3247086 -0.25022438 0.5449919 0.45450237
000180 11 af 71 3d b8 8d 1f bf 35 4e 51 be 53 55 01 bf
       0.059004847 -0.6232562 -0.2043999 -0.5052082
000190 a2 8f f4 bd 74 7c ae be ab 1d ec be 8b 38 82 3c
       -0.11941458 -0.34079325 -0.46116385 0.015896102
0001a0 06 28 81 be 7b a1 60 be 7f d9 7f be 22 a2 5b 3e
       -0.25225848 -0.219366 -0.24985312 0.21448568
0001b0 65 31 c6 3e f2 f8 b8 be 49 06 fd 3d a8 b0 dc 3d
       0.3870956 -0.3612743 0.123547144 0.10775882
0001c0 74 f3 b8 be 30 0c a3 3e fe 14 cf 3e 10 f8 ff be
       -0.3612324 0.31845236 0.40445703 -0.49993944
0001d0 da 30 a0 3e 59 5f 0e 3e 24 90 a6 3e 47 20 4a bd
       0.3128727 0.1390356 0.32531846 -0.04934719
0001e0 be bd a3 3e 7a 5c 84 3e 2e 6d 9d 3d b0 02 ce 3d
       0.319807 0.25851804 0.0768684 0.10059106
0001f0 79 ac 5e 3e 9a e9 ba be 90 9d a4 be 78 6a a8 3e
       0.2174548 -0.3650635 -0.3215146 0.3289373

lstms.0.bias_hh_l0_reverse f4 [128]
000000 c9 7f 8c 3d d1 ad fa be e1 8e 94 be e0 a0 8e be
       0.068603106 -0.48960736 -0.29015258 -0.27857113
000010 00 98 bf be 62 5a b7 be 63 bd 9a be 26 7c 3b bb
       -0.37420654 -0.35811144 -0.30222616 -0.0028607934
000020 0a df 6b 3a e2 db 77 be 3f bf dd bd 3e d0 5c 3d
       0.0008997774 -0.24204972 -0.10827493 0.053909533
000030 eb fd 2a 3e f1 2a 17 3e c1 d9 02 3e f5 96 b4 3d
       0.16698425 0.14762475 0.12778379 0.08817855
000040 e7 5f 06 bf 40 07 0b 3c cd b8 1c 3e 7f 65 a4 be
       -0.52490085 0.008485615 0.15304871 -0.32108685
000050 99 15 e8 3e ec 7a a5 3d c5 3f c9 3e 7d 12 a8 be
       0.45328978 0.08080086 0.39306465 -0.32826605
000060 f9 48 91 3e e7 63 e1 3e 11 fe 93 3e 06 87 4b 3e
       0.28375986 0.44021532 0.28904775 0.19875726
000070 47 02 76 3e b6 e5 a1 be b9 90 c7 be 6c 49 ed 3e
       0.24024306 -0.31620568 -0.38977602 0.4634508
000080 05 6c b8 3e 0d af b4 be 45 df b3 3e 45 df 7f bd
       0.36019912 -0.35289803 0.3513128 -0.062468786
000090 15 c6 85 3e 9a e0 8f 3e f9 14 86 3d a0 65 e4 3e
       0.26127687 0.28101045 0.06546969 0.44608784
0000a0 0a 23 4f bd 19 26 a1 bc 96 c9 eb 3e 18 2d be 3e
       -0.050570525 -0.019671487 0.46052235 0.3714378
0000b0 12 45 64 3e c4 53 4b 3e ac f4 75 3e 4f 17 8f 3d
       0.22291973 0.19856173 0.24019116 0.06986868
0000c0 e0 8d cb 3e aa 59 38 3e 2a fd 20 3e 0a 1e e5 bc
       0.3975668 0.18002954 0.15721574 -0.027968425
0000d0 0f e3 9a 3d 12 bf 77 bd 5e 69 12 3f 52 a8 ac 3e
       0.07562839 -0.060484953 0.5719203 0.33722168
0000e0 1e fb 51 3e 58 6e 96 3d b9 22 6c 3e f0 35 f6 3e
       0.2050595 0.07345265 0.2306012 0.48088026
0000f0 3c 28 02 3f 4b c6 4d be ea 58 60 bd f5 e7 93 3e
       0.5084264 -0.20095174 -0.054772295 0.28887907
000100 f1 2d 32 be 5a c3 d3 be a3 06 bd 3e 00 53 da be
       -0.17400338 -0.4135998 0.36919126 -0.4264145
000110 e5 31 a4 be 82 48 08 bf cd a9 da 3e 5e c2 06 3f
       -0.32069317 -0.5323564 0.42707673 0.5264033
000120 0e fa af be 51 68 95 be 6a 2c 47 be 0d 46 16 3e
       -0.34370464 -0.2918115 -0.19450536 0.1467516
000130 0c b3 33 3e c6 3a d1 3c 6b 12 0d 3e e6 e7 41 be
       0.1754877 0.02554072 0.13776557 -0.18936118
000140 dc 6e 89 be 6f 05 77 3e fd 3c e8 be 70 99 d1 3e
       -0.26842391 0.24123167 -0.4535903 0.40937376
000150 ae 43 85 be 72 74 d3 be 13 99 83 be 5e e3 cd 3e
       -0.26028198 -0.41299778 -0.25702724 0.4021253
000160 03 f2 01 3f 3c a5 eb 3e 6e 87 c8 be 8e f3 9c 3e
       0.50759906 0.460245 -0.39165825 0.30654567
000170 1b fc ce 3e da 7d c4 be 5b 5a 8f 3e 80 82 0d 3e
       0.40426716 -0.38377267 0.27998623 0.13819313
000180 77 c4 a9 3e a7 42 f8 be 9b b1 9e bd 13 45 0d bf
       0.33157703 -0.48488352 -0.07748719 -0.55183524
000190 a3 fe a2 be 66 98 c0 be 16 6f 85 be ac 4e 17 be
       -0.31834897 -0.3761627 -0.26061314 -0.14776105
0001a0 d4 84 d5 be f8 64 00 be 6d d8 c3 be 68 4a 83 3d
       -0.41702902 -0.12538517 -0.38251057 0.06410676
0001b0 b7 26 c3 3e 80 2a ab be ce bd cd 3e c0 92 8d 3e
       0.38115475 -0.33430862 0.40183872 0.27651024
0001c0 9c 0b f6 be 40 6d df 3e c2 82 9e 3e 45 73 dc be
       -0.48055732 0.4363804 0.30959135 -0.43056694
0001d0 17 43 ba 3c f8 26 49 3e ff 3c a7 3e 32 6f 09 3e
       0.022737069 0.19643772 0.32663724 0.13421324
0001e0 a8 f7 ae 3e fe a1 24 3e 47 a6 6c 3d 2e 46 bd 3d
       0.34173322 0.1607742 0.057775762 0.09241901
0001f0 d1 21 ee 3e ff 41 a2 be e2 4e 23 bf 36 1c 07 3e
       0.46510175 -0.31690976 -0.6379224 0.13194355

lstms.1.weight_ih_l0 f4 [128, 64]
000000 a7 32 9c bd df 8a 5d bc 0c 40 ac 3e ec 79 b1 3d
       -0.07626849 -0.013521879 0.33642614 0.08665833
000010 b7 d6 32 3e 26 8a f5 3d 9e 43 71 3e 2e ee b0 3e
       0.1746472 0.1198924 0.2356095 0.34556717
000020 12 7c d5 3d 7d 5f 44 bc 95 c6 59 be 2c a7 6a bd
       0.10424055 -0.011985657 -0.2126716 -0.057288334
000030 ce 3e 04 3e 68 80 a8 bd 6e dc 49 be c8 fb e1 bc
       0.12914583 -0.082276165 -0.19712994 -0.027585879
000040 ba 22 81 bd 48 d7 a0 bd 4f f9 48 3c 77 a8 3c 3d
       -0.06305452 -0.07853562 0.012266471 0.046059098
000050 87 61 96 3e 0c fb df 3b d5 53 39 be e0 d1 bd bd
       0.29371282 0.006835347 -0.18098386 -0.09268546
000060 67 46 84 bd d6 9e 49 3c 44 3e 3c be 22 8e 6e 3d
       -0.06458741 0.012305936 -0.18383127 0.058241017
000070 b3 78 c9 bc 77 10 4e be 24 52 68 3d 5e 80 92 3e
       -0.024593687 -0.20123468 0.05671896 0.2861356
000080 3c eb 2d be d0 ca 66 3e 93 4e 0b be 00 a3 bf 3d
       -0.16984266 0.22538304 -0.13604192 0.09357262
000090 a6 60 e7 3d 0a f0 d1 3d f6 1f 75 bd 08 74 84 bd
       0.11297731 0.10250862 -0.059844933 -0.06467444
0000a0 61 58 6e 3d d8 e9 bc bd 48 0f 96 3d 91 08 bd 3e
       0.058189753 -0.0922429 0.073271334 0.36920598
0000b0 f4 b4 47 3e 57 c0 ac be 22 e4 5a bd b1 a7 46 3e
       0.19502622 -0.33740494 -0.05344022 0.19399907
0000c0 a0 73 6c 3d 05 1d 2b 3e 2e ce 25 be 98 d6 c5 bd
       0.057727456 0.16710289 -0.16191933 -0.09660071
0000d0 4d bc ae ba af 19 2e be a4 b7 69 bd 8a 56 88 bd
       -0.0013331264 -0.17001985 -0.0570599 -0.06657131
0000e0 b7 26 48 3e 9f 2f 5f be 70 c4 18 be 12 59 b4 3e
       0.19546019 -0.2179551 -0.14918685 0.35224205
0000f0 27 35 7b 3e a5 f6 18 3e 1b 14 42 be 0b af 2d 3e
       0.24531995 0.14937837 -0.18952982 0.16961305
000100 7a b2 3a be dc 6e f3 3c 20 c7 1d 3e 6b 66 9d bd
       -0.18232146 0.029715948 0.15407991 -0.0768555
000110 3d 1b 53 3e fe 8b 84 3d 38 e3 60 3e f8 75 32 3e
       0.2061586 0.06472014 0.21961677 0.17427814
000120 31 6e f0 3d 51 17 a0 bd ba a1 5a be a6 b9 0e be
       0.11739767 -0.07816947 -0.21350756 -0.13938007
000130 26 42 f6 bc 61 16 b1 bb ca a7 58 bd 12 d7 f2 3c
       -0.030060839 -0.005404279 -0.05289439 0.02964357
000140 41 7d 23 be ae 96 81 bd 21 43 d5 3d 7b 02 0e 3e
       -0.1596575 -0.06327568 0.104131944 0.13868134
000150 60 5d 6f 3e 2b 5f de bd 03 f6 21 be 68 99 96 bd
       0.23375463 -0.108579956 -0.15816502 -0.07353479
000160 ba 51 89 3d c3 6a 27 be e2 09 55 be 51 0b a2 3c
       0.06705041 -0.1634932 -0.20804551 0.019780787
000170 f0 10 8e 3b 8e 97 b9 bd 96 eb fb bd 07 10 1f 3e
       0.004335515 -0.0906211 -0.12300794 0.15533458
000180 07 c8 d1 bd fa 70 5c 3e 8b ab c4 bd 66 8d 53 3e
       -0.1024323 0.21527472 -0.09603032 0.20659408
000190 42 0f ad 3e ce 7f a4 3e bb 1c 59 bd d2 ce 3d be
       0.33800703 0.32128757 -0.053005915 -0.18535927
0001a0 82 00 1a 3e 34 1e 73 3e 43 49 92 3d 76 be 32 3e
       0.15039256 0.2374199 0.0714288 0.17455468
0001b0 fb 76 45 bc fa f0 2a be f0 23 f3 bc 8c b5 47 bd
       -0.012052293 -0.16693488 -0.029680222 -0.04875712
0001c0 ca f0 87 bc a7 8e 1d 3e d2 9a a7 bd 3d bb 19 be
       -0.01659431 0.15386449 -0.081838265 -0.15012832
0001d0 1f e6 56 be 88 c3 c4 be 57 01 9d bc a4 5d c3 3a
       -0.20986222 -0.38430429 -0.019165678 0.0014905226
0001e0 df de 99 3e 17 47 f6 bd 58 3e 37 be 4d 84 84 3e
       0.3005285 -0.12025278 -0.17894876 0.25882187
0001f0 19 7b 93 bd 5b 22 75 3e be 82 2a be b9 d4 45 3e
       -0.072012134 0.23938887 -0.16651437 0.19319429
000200 99 a8 3e be 99 be 47 bd c3 f8 1d be e0 9d ae 3e
       -0.18619002 -0.048765752 -0.15426926 0.34104824
000210 d8 f6 a8 3e bf 4c 11 be 07 76 34 be da 57 d6 3e
       0.33000827 -0.14189433 -0.17623149 0.418639
000220 15 ec 52 3d f6 03 b7 3c c9 8a c7 3e 89 fb 78 bc
       0.051494677 0.022340756 0.38973072 -0.015196689
000230 89 15 4f bd fa 97 0a 3d 3b 9c af bd cf 87 23 bd
       -0.050557647 0.033836342 -0.085747205 -0.03992444
000240 2d 12 46 bd a5 b3 15 3e 86 ca 87 bc 6c 43 85 3e
       -0.048357178 0.1461931 -0.016576063 0.26028
000250 7a 5a 39 3e c0 1b 93 3d 16 0a 4a bd fb 71 41 3d
       0.1810092 0.07183027 -0.049326025 0.04722784
000260 57 1b 85 3d 2e 9a 84 be 55 fa 99 be f5 14 77 bd
       0.06499355 -0.2589888 -0.300738 -0.06032272
000270 f8 1c 15 3d 0e db 14 be d5 d8 28 be 1e a0 5e bb
       0.03640458 -0.14536688 -0.16488965 -0.003396995
000280 6a e5 68 3d 0f 97 6d 3b cd 7d 3f 3e 57 ef 97 3d
       0.05685941 0.0036253368 0.18700333 0.07418697
000290 03 8a 11 3e 26 66 39 3e fc f5 23 3e f4 c9 13 bd
       0.14212804 0.18105373 0.16011804 -0.03608127
0002a0 43 f5 cd 3b 1f 39 82 be fc cd 6a bd 5b 04 8c bd
       0.006285341 -0.25434205 -0.05732535 -0.06836768
0002b0 8b 30 18 be 6a 1e 5f bd 3c 64 5a 3e 8c c3 88 3d
       -0.14862268 -0.054472364 0.21327299 0.066779226
0002c0 12 bd b9 be b1 b2 7f 3e af 86 cd bd 62 4d cc 3d
       -0.36277062 0.24970509 -0.100354545 0.09975697
0002d0 e8 0c ec 3c 8f 49 1d be 7b 04 54 bd 8a 92 ba 3c
       0.028814748 -0.15360092 -0.051762085 0.022774953
0002e0 2c 54 b3 3e 87 8f 89 3d c6 21 27 be 2b 91 81 3d
       0.35025156 0.06716829 -0.16321477 0.06326517
0002f0 a1 74 3d 3e 1b 29 a2 bd 72 8f 93 3d 2c 9a 05 3e
       0.18501522 -0.079179965 0.072050944 0.13047093
000300 67 fd 18 be d3 b6 fa 3d 5b e3 54 3e a8 b8 2d 3e
       -0.14940415 0.12241902 0.20789854 0.16964972
000310 ac 6a a4 3e 97 32 22 be 5e fa 82 3e ad 20 f3 3e
       0.32112634 -0.15839611 0.2558164 0.47485867
000320 a5 dd d3 3d 0f 7f bd bd 21 0b 4f be 13 31 14 3e
       0.1034501 -0.0925275 -0.20219089 0.14471845
000330 b2 99 20 3e 56 e1 63 bd d5 5b 96 be 28 2f 1e 3e
       0.1568363 -0.05563482 -0.29366937 0.15447676
000340 92 61 b7 bd 88 a0 0c 3d fe b9 01 bd 50 d3 74 3e
       -0.08954157 0.034332782 -0.031671517 0.23908734
000350 e5 1f 63 3e 14 72 28 be c9 6c 5b 3d 70 b2 a4 3a
       0.22180136 -0.16449767 0.053570542 0.0012565386
000360 5f c9 57 3e d2 20 cf bd 39 f4 e2 be c6 d2 a9 3c
       0.2107291 -0.10113682 -0.44326952 0.020730387
000370 c3 83 41 3d 06 b5 3e 3d 98 49 9b bd 6f e0 f8 bd
       0.0472448 0.046559356 -0.07582396 -0.12152182
000380 f9 2b 2c be 3c 00 9d bc 22 3a 42 3e 2a 5b 16 bd
       -0.16813649 -0.01916515 0.18967488 -0.036708035
000390 c9 b0 22 3e 08 b9 38 bd 29 f4 3e be 18 2d 9e bc
       0.1588775 -0.045098335 -0.18647827 -0.019308612
0003a0 a2 3f 47 3e 4d ce 1b 3d 1d 49 31 3d 9b 3a b5 3e
       0.19457868 0.03803854 0.043282617 0.35396275
0003b0 ac 5a 5f 3e d0 75 09 be cb 8d 0b be c0 62 af 3d
       0.21811932 -0.13423848 -0.13628308 0.08563757
0003c0 6a 26 a1 be f0 99 53 3d 49 f1 47 be 0a c2 ab bd
       -0.3147462 0.051660478 -0.19525637 -0.083866194
0003d0 a8 87 4c be ef 76 7d be aa ba 95 bd 6d d7 12 3e
       -0.19973624 -0.24752401 -0.07310994 0.14339991
0003e0 09 84 c0 3e 95 cf a4 be 57 10 18 be 08 69 fb 3d
       0.37600735 -0.32189623 -0.14849983 0.122758925
0003f0 31 1d 97 3e 75 02 20 3e 4e 44 0b 3d 32 ee 51 3e
       0.2951446 0.15625937 0.034000687 0.2050102

lstms.1.weight_hh_l0 f4 [128, 32]
000000 f5 b5 83 be c3 eb b2 3d b6 72 72 3e e9 1c 36 bd
       -0.2572476 0.08736374 0.23676571 -0.044461165
000010 d7 36 e2 3d c2 0e 45 3e 36 b9 2f bb 1f 77 5d bb
       0.11045616 0.19243911 -0.0026813275 -0.0033792926
000020 fc d1 c4 3c c7 89 9c bc c3 ce d7 bc 06 ee 02 be
       0.02402591 -0.019108666 -0.026343709 -0.12786111
000030 99 25 1a bb 0e de 25 3e 05 31 17 bd 0f 48 41 3e
       -0.0023520945 0.16197988 -0.036911983 0.18875144
000040 a4 27 8b bc 2b fd fe bd 04 49 a4 3e ef e3 2b 3e
       -0.016986676 -0.12450632 0.32086957 0.16786169
000050 b9 95 70 be ad 01 eb bd c7 08 7a 3d c5 6d 06 bd
       -0.23494615 -0.11474929 0.061043527 -0.032819528
000060 5c 3d b9 3c a5 57 30 3e b0 8b f8 bd 4c a1 ab bd
       0.022612266 0.17220934 -0.12136018 -0.08380374
000070 79 4e 06 bc 4a 8c 92 bd 70 5e bf 3d 60 b1 51 be
       -0.00819742 -0.07155664 0.093441844 -0.2047782
000080 b6 9c 95 bd 10 37 55 3c 23 b3 8f 3e 7d 93 30 3d
       -0.07305281 0.013013616 0.28066358 0.043109406
000090 2b d4 01 3f e6 7b 4e bd 2d 04 0d 3d 31 d6 26 be
       0.5071437 -0.050411128 0.03442781 -0.16292645
0000a0 e5 60 35 bd e8 d1 d2 3d 10 07 75 bc 9b 35 aa 3d
       -0.04428186 0.10293943 -0.014955297 0.08311006
0000b0 81 bb 62 3e f2 8f 38 3e 38 6f 14 3e 12 11 d7 3d
       0.2214184 0.18023661 0.14495552 0.10501303
0000c0 c6 00 c2 3c 2b 6d be be bc 50 d7 3e e6 84 1e 3e
       0.02368201 -0.37192664 0.42053783 0.15480384
0000d0 21 0d 34 be 4e 4c 0f 3e 35 3d 14 bd 66 5d 0c 3d
       -0.17583133 0.13993952 -0.036191184 0.03426876
0000e0 7f 09 e6 bb a8 f3 cb bd 30 b1 7a bd 43 ea fc 3d
       -0.007020175 -0.09958583 -0.061204135 0.123493694
0000f0 82 c7 95 bc 30 19 10 b9 91 73 f4 3d 81 99 95 bd
       -0.01828361 -0.00013742293 0.11936105 -0.07304669
000100 a0 6f bb 3d 8d 32 4b 3d 92 df 4f 3e 95 6b 45 bd
       0.0915215 0.049608756 0.20300129 -0.0481983
000110 00 df fa 3e 3c 53 ca 3d dc d0 4b 3d 84 bf af 3e
       0.4899826 0.09879157 0.04975973 0.34325802
000120 ba b2 b4 3c 19 13 4f 3d 48 20 1c 3d 98 2f 8d be
       0.02205788 0.050555322 0.038116723 -0.27575374
000130 44 43 5e 3c c0 8a 20 3e 00 9f 48 3e d0 0b 83 be
       0.013565842 0.15677929 0.19591904 -0.2559495
000140 89 0c 47 bd c1 d8 95 be d0 f2 b7 3e 68 5b 70 bc
       -0.04859594 -0.29266933 0.3592744 -0.01467023
000150 7b 05 92 bc 3c 52 7e bc e0 ff c7 bc 95 01 6c 3d
       -0.017824879 -0.015522536 -0.024414003 0.057618696
000160 c8 02 d4 3d 16 b5 0a be 0a 29 b6 3c 32 a2 e6 3d
       0.10352093 -0.13545641 0.022236366 0.11261405
000170 05 cb 6c bd d2 90 37 bb a9 09 3d 3e 46 79 5c 3c
       -0.057810802 -0.0028009904 0.18460716 0.013456648
000180 c1 d5 30 bd c7 af 26 be 20 9a 48 3e 8f 9d a7 3d
       -0.0431726 -0.16277991 0.19590044 0.08184349
000190 bb 11 4f 3e 4d d5 28 3e 3d fc 18 3e a3 2c 15 3e
       0.20221607 0.16487618 0.14939971 0.14567809
0001a0 2b cd 5e 3e aa 75 4f 3e 84 75 11 3e 82 e1 04 be
       0.21757953 0.20259729 0.14204985 -0.1297665
0001b0 64 64 19 3e 23 68 a9 3d 81 fd ae 3d 99 c7 0c be
       0.14979702 0.08271816 0.08544446 -0.13748015
0001c0 55 0b 01 bd f0 03 03 be 23 94 57 3e f8 0e c9 3d
       -0.031504948 -0.12794471 0.21052603 0.09817308
0001d0 53 9c 10 be ec ee 2e be 90 43 ad 3d 6e 40 aa 3c
       -0.14122133 -0.17083329 0.08460152 0.020782676
0001e0 73 c9 06 3e 8c b2 0f 3d 04 33 64 3d 12 4e 3a bd
       0.13162784 0.035082385 0.055712715 -0.04548461
0001f0 ec f3 4c 3d b6 95 46 3d 37 5d 0f bd 99 1f b9 3d
       0.05003731 0.04848262 -0.035001006 0.0903923
000200 0b 12 4b bc 85 06 ce 3d 01 b6 d1 3d 20 a2 60 3c
       -0.0123944385 0.10059837 0.102397926 0.013710529
000210 df 51 8a bd 50 8e 3b 3b 4c 2d c2 3d 28 f1 9b bc
       -0.06753897 0.002861876 0.09481296 -0.01903589
000220 27 92 85 be af 18 fd 3d 92 72 51 be bc 44 48 3e
       -0.26088068 0.12358224 -0.20453861 0.1955747
000230 5f 92 09 be 8a 08 09 be 68 4d 95 be cc 9f 07 3e
       -0.13434742 -0.13382164 -0.2916062 0.13244551
000240 32 0e 9c be 5d e1 45 3d 20 63 aa 3e 24 12 60 3d
       -0.3047958 0.048310626 0.3327875 0.0547048
000250 03 e1 8e bd 7c 30 a1 3d 61 45 1a 3e 9b fb ae bd
       -0.06976511 0.07870576 0.15065528 -0.08544084
000260 d9 8c cf bc cb 24 b9 bd 69 06 24 3e aa d2 bb bd
       -0.025335716 -0.09040221 0.1601807 -0.0917104
000270 43 4f e3 bd 5b 25 9a 3c 46 27 c4 3c 50 30 55 be
       -0.11099102 0.01881664 0.023944508 -0.20819211
000280 22 0e 8b 3c fb 2c 25 3e ae 87 d5 3c cd 1f 3e 3e
       0.016974512 0.1613044 0.026065674 0.18566819
000290 52 1f d1 3e 65 71 29 3e f5 c8 94 bd ec b8 25 3e
       0.40844208 0.16547163 -0.07264892 0.16183823
0002a0 47 21 85 3e 7b db 41 3e 14 7e 25 be 0c 70 67 be
       0.2600195 0.18931381 -0.16161376 -0.22601336
0002b0 aa 0f e0 bc 50 9e a2 3e 30 54 2e 3d c6 ab 26 3e
       -0.02735122 0.31761408 0.042560756 0.16276464
0002c0 f0 d8 d7 bd d5 09 24 be 54 1f c9 3e 81 3f ff bc
       -0.105394244 -0.16019376 0.39281714 -0.03115821
0002d0 fe ff c6 3d b5 96 33 be 1d 6c 5d be 21 74 6e 3e
       0.097167954 -0.17537959 -0.21623273 0.23286487
0002e0 8b 0c 29 3e d4 e1 89 bd 59 60 c4 3b e4 9b 00 be
       0.16508691 -0.067325264 0.005992931 -0.12559468
0002f0 29 3a 81 be 4f 6b 54 bd 13 0d 4a 3e 89 17 d4 3d
       -0.25239685 -0.05186015 0.1973155 0.103560515
000300 95 dc 34 be 5e 95 cf 3d fb 8b 17 3e 38 53 92 bd
       -0.1766227 0.101359114 0.14799492 -0.07144779
000310 57 95 38 3e 31 91 24 3e 4d 93 fb bd 74 79 ae be
       0.18025719 0.16071011 -0.12283955 -0.34077036
000320 da fb 65 3e ab c5 0c bd 80 cd f0 bd ec ce ae 3d
       0.22459355 -0.0343682 -0.11757946 0.08535561
000330 e3 92 de 3d fe 9a 70 bd 64 76 e8 bd 72 bd 70 3e
       0.1086786 -0.058741562 -0.11350706 0.23509768
000340 76 e2 7f be 6c d4 de be d3 1d 03 3f 33 d5 03 be
       -0.24988732 -0.4352144 0.51217383 -0.12874298
000350 3f 10 eb bd 6a a8 af 3d 28 af 4b bc 85 e9 cd 3e
       -0.11477708 0.08577044 -0.012431897 0.40217224
000360 f5 d9 f6 bd d6 04 c5 3d a2 b8 ca bd 97 15 0b be
       -0.12053291 0.09620063 -0.09898497 -0.13582455
000370 2c 9a 5f be 2a 90 1f 3e 42 f9 80 3e b4 32 b6 bd
       -0.21836156 0.15582338 0.2519017 -0.088963896
000380 52 c3 ee 3d c6 a5 3a bc 0d ca fc 3d ad 5a 5a 3d
       0.11658348 -0.0113920625 0.12343226 0.05330913
000390 54 aa 02 3f cd 92 e1 bd f3 a2 30 be bc 9c bd bd
       0.5104115 -0.11014328 -0.1724966 -0.0925841
0003a0 15 74 7f bd 88 8f 12 be 5b 40 f5 bd 7e e5 a0 3d
       -0.062366564 -0.14312565 -0.119751655 0.07856272
0003b0 3c c5 fd 3d 34 0c dd 3d 29 55 c5 3c 95 41 2a be
       0.12391135 0.10793343 0.02408846 -0.1662658
0003c0 5a 94 3b 3e ba 76 a2 be 9b 03 d5 3e 1f 05 09 bd
       0.1831831 -0.31731206 0.41604313 -0.03345215
0003d0 a0 88 1d 3e c0 ef b3 bd fa de 3a 3d 34 2c 83 3d
       0.1538415 -0.08785963 0.045622803 0.064049155
0003e0 b6 45 31 3c 8e 6c 85 bd 24 38 00 3b 4c 2b e4 bc
       0.010819843 -0.06514846 0.0019564712 -0.027852677
0003f0 4b dc 13 bd 2e 8f 14 bd a7 9c 21 be 17 aa d3 bd
       -0.03609876 -0.03626936 -0.15782414 -0.103351764
