best_model.pth (torch, 55083 bytes, 9 tensors)

lstm.weight_ih_l0 f4 [128, 1]
00000000: a379 e2bd 11af c8bd faaa b5bd 59a8 253e
00000010: e282 c73d 67dd 9b3d 4f1e 5f3e 3e87 4c3d
00000020: 04ba f03d 4357 863d fb1b 3b3e a8fc e1bd
00000030: db31 3b3e cb42 203e 0402 6d3a 35a7 99bd
00000040: 4d21 44bd 785c adbc 66bb 74bd f8a8 bf3d
00000050: 9f9c e43d 6c9d dabd ebc0 a6bb 0ce0 8bbd
00000060: 28bd 03be 21e4 573e 215d df3d ef92 133e
00000070: c9be 1abe c813 603e 8d36 2c3e f104 f1bd
00000080: 46c8 ca3c 0136 8e3d a3a3 d13c 4487 f53c
00000090: 9d2d b53d 345a 49bd 4546 e43d fb73 763d
000000a0: aeb9 8dbd 83ff 753d f2ec 25bd b944 193e
000000b0: 3bee 293e 9231 a13d 61b2 493d f69d c43d
000000c0: a4dd 9abd 494e a7bd 4f31 df3c 29b7 083e
000000d0: 63f9 8a3d fb79 ee3d 8f1d 0e3e 50f5 013e
000000e0: 7975 4f3e 7e43 15bd 609c 7b3c ae0f 983d
000000f0: 1e0e 0bbe 9a60 b03c 7cfe 91bd 5482 9b3b
00000100: 9cd2 ff3d 9564 a83d 32ea 493e 5cb3 1a3e
00000110: b0db e7bd 6985 2b3d 8ebf 313e d963 f83d
00000120: 231e 4e3e ba5b 55be fe56 e8bd 03a3 f03d
00000130: 827f f93c 8f2c 29be e778 24be 2422 fdbb
00000140: 4d2a 513e 0521 e4ba a1fe c5bd 9a96 c9bd
00000150: 4900 953d ec99 dc3d 1cfb 163e 4b07 ce3d
00000160: 68b0 d53d 243b e5bd ca0e 06be de6d 5f3d
00000170: e99c f03d dce6 e53d f974 2b3e 7c13 a4bd
00000180: 2c4e b33d 6d3d c03c 8733 88bd fcf3 a83d
00000190: c657 6d3d d903 99bc d50d e33c 076f e9bc
000001a0: 1e69 2f3e cdc1 373d f8ac 4b3e 1aab 3d3e
000001b0: 8a5c 373e 6193 cd3d 4400 1b3e 603d 1f3d
000001c0: 0fb0 d73d 947f 023d 9b3c 023d 6507 143e
000001d0: 1279 0c3e 8075 3d3e d0ff 293c e799 a93d
000001e0: 610b 1b3e 53ba bd3c cc50 213e 986c 46bd
000001f0: 0ce3 5eba 290b 403d 05e4 5d3e 559e 22bd
-0.110583566 -0.09799016 -0.08870502 0.16177501 0.09741761 0.076105885 0.21788906 0.049933665
0.1175423 0.065596126 0.18272392 -0.110345185 0.18280737 0.1565048 0.0009041133 -0.07502595
-0.04788332 -0.021162257 -0.05974903 0.093584 0.111626856 -0.10674557 -0.0050889156 -0.06829843
-0.12865126 0.21083118 0.10906435 0.1441152 -0.15111841 0.21882546 0.16817684 -0.117685206
0.024753701 0.06943894 0.025590723 0.029971726 0.08846591 -0.04915829 0.11146215 0.0601692
-0.06920181 0.060058128 -0.04050917 0.14967622 0.16594784 0.07870783 0.04924238 0.09600441
-0.07561806 -0.081692286 0.027245192 0.1335112 0.06785848 0.1164436 0.13878463 0.12691236
0.20259656 -0.03644132 0.015357107 0.07424866 -0.13579604 0.021530438 -0.07128617 0.004745761
0.124913424 0.082223095 0.19718245 0.15107483 -0.11321199 0.041875277 0.17358229 0.121284194
0.20128684 -0.20835772 -0.113447174 0.11749842 0.030456308 -0.16520904 -0.16061746 -0.007725017
0.20426293 -0.001740486 -0.09667707 -0.09843178 0.07275445 0.10771546 0.14744228 0.10059985
0.104340374 -0.11192921 -0.13091579 0.054548137 0.11748678 0.112256736 0.1674384 -0.08011529
0.087551445 0.02346679 -0.06650453 0.08249661 0.057945035 -0.018678593 0.027716557 -0.028495325
0.17129943 0.044862557 0.19890201 0.18522301 0.17906395 0.10037876 0.1513682 0.03887689
0.105316274 0.03185995 0.03179608 0.14455946 0.1371806 0.18501854 0.010375932 0.08281308
0.1514106 0.023160135 0.15753478 -0.048443407 -0.00085024606 0.046885643 0.21669014 -0.03970178

lstm.weight_hh_l0 f4 [128, 32]
00000000: 23ef 55bd 7751 3a3e ca58 b7bd c741 833c
00000010: 77f6 bd3d 737e f03d 32e0 353d 1d6c 7f39
00000020: a255 463e d5e9 34bd 9bee 4dbe 74d4 5e3e
00000030: 1ef2 d4bd b212 56be f909 423d 27ba 3dbe
00000040: d4ec 033d e161 98bd 5ff8 b53d e292 5e3d
00000050: dd89 62bd 110c 2abd f05c f43d 7efb c53c
00000060: e01d 50bd 742e 6cbe f50f 2fbe 0a04 0e3e
00000070: 73b4 133e 02f3 273e 9063 2a3e 85d4 87be
00000080: 725f 8fbd 1a40 d4bd 910e 743e 2ff0 ce3d
00000090: 1f57 44bb ec00 2dbd 79ae 3fbd 89b6 4d3d
000000a0: d944 083e e8e2 b0bd 45f3 43be ac1d 413e
000000b0: 66b4 94bd 7d08 a2bc cfd3 19bb 1472 123e
000000c0: ddab cfbc 30d1 83bd 39f7 cdbd 30f0 24be
000000d0: 6142 6b3e 158e a53d c222 3c3d a35d 893d
000000e0: 35e7 0fbb 29b7 bcbc c536 61be 7413 1c3e
000000f0: c365 d43d a2d9 f1bc 2f60 363e 8c88 f43d
00000100: 5173 423e 584b b83d 0bd4 173d 40d9 eb3d
00000110: 37c2 113d adfd 90bd d98e d0bc 5a1e 0a3e
00000120: 94bd 7ebd 7c25 1f3d 275b aebd 360d c33d
00000130: 024b 10bc fb03 59bc 6609 423d 8fdb fe3d
00000140: e0c6 be3d 6ef2 7bbc cb93 00be c231 b13c
00000150: e7a3 483e 28f6 febc 23c6 fa3c f658 a6bd
00000160: fc9d 5f3e c6a5 dfbd 46ae bdbd 174a b23c
00000170: 7441 e9bd fdab aa3c a852 523d d8ab cd3d
00000180: 5866 a4bd 13ef 9bbd 2ec6 c43d 8bc1 173c
00000190: 3920 cdbd 62be 953d 848d cf3d afe2 1a3e
000001a0: a1c1 073e 61ab 3f3d cd34 673c 03de 09be
000001b0: f9f0 82bd 9b75 dcbd e898 17be 4ca7 013e
000001c0: a509 41bd 867b 5f3e 4a99 663d 0d8c adb7
000001d0: 0793 46ba b11c 0bbd cfd0 c2bd 15e4 bbbd
000001e0: 53ce 7c3d 3c8d 553c c388 36bd 30d6 293c
000001f0: feb7 213e 743e 8bbc 9d0b 08be 1a1b febd
00000200: 9118 893c d2e6 04be fb38 053e 56cb 333c
00000210: d801 743d a8ae 183e 8ef1 f3bd 5a06 183e
00000220: db7f ffbd 8739 763d 8d0f 45be 2bcc 2c3e
00000230: 1ddf c0bb 689f 48be 5efc 2cbe 8c08 9d3d
00000240: ae30 dd3d 3449 72bd efea 0abe a290 963d
00000250: 0d4f 183e a40e 70bd 7389 b6bd d6cc e6bd
00000260: 3b17 87bd b466 28be b46e a73d c439 173e
00000270: 2a53 1cbe fb9a a7bd cc1b 473d 7fd7 77bd
00000280: 3a8d 0a3c 2cb3 493e 5a0b 663e eeb8 343e
00000290: a0fe 823d cc2a 393d 6580 033d 8a5c a43d
000002a0: aaf6 c03d dc83 32bd 698a 49be e773 a6bd
000002b0: de96 5f3e d985 053e 1a0a dfbd 31cd 583d
000002c0: dc13 84bd 547c 633b de92 98bb acd4 8abc
000002d0: 9d22 fdbc 019f 0bbe 35ad cd3d 5407 883d
000002e0: be89 403d 550b 33be 25e5 ec3d 7b9d c33d
000002f0: 0ebe 633d 9195 f5bd 346f 433e 1767 16bd
00000300: e0c5 e83d 9aba ea3d 3e62 e5bd c5fa 503e
00000310: 3478 89be 03e2 ec3d 3a9c 70be e06a 2a3e
00000320: 29ee 0b3e 6879 07bd 476a ebbb 4821 6c3c
00000330: dd27 853d f853 f0bd f353 143e 666f 963d
00000340: dbe2 5fbc 2145 943b f67c 23bd 8d9a fa3c
00000350: 9676 a13d 969f 3a3d e847 403e ef36 16bd
00000360: ccba 553e da28 453d c6a0 1dbe 976a e33b
00000370: 3b9d 5cbe 9308 6ebe 3cd7 4e3e 6482 e53d
00000380: 950e bd3c 6c3e 54bd 3027 743d cc02 573e
00000390: dd10 1cbe 1e93 843d f43b 563e 9074 2f3e
000003a0: d766 e13d d043 f13c 0082 ff3d 3e6d 4c3d
000003b0: 6916 1b3d 6371 82bc 766b de3d 9fd6 053d
000003c0: 6693 6cbd 4ff6 11be c863 73ba c4b5 28be
000003d0: cebd 553e d3b8 b93c 305b 46bd 6f25 f93d
000003e0: bc6e 163d 6d8e aabd 18e9 af3d 363f 16bd
000003f0: 3ddf f9bd 2eb9 fbbd 97b4 423e e579 81bc
-0.05223001 0.18195139 -0.08952482 0.016022576 0.09275525 0.11742868 0.044403262 0.0002435897
0.19368604 -0.044168312 -0.20110552 0.21760732 -0.10397743 -0.20905569 0.047372792 -0.18528043
0.03220828 -0.07440544 0.08885264 0.054339297 -0.055307258 -0.041515414 0.11931789 0.024167772
-0.05080974 -0.23064595 -0.17095931 0.13868728 0.14424305 0.16401294 0.16639543 -0.26529327
-0.070006266 -0.10363789 0.23833682 0.10104405 -0.0029959155 -0.042237207 -0.04679725 0.050222907
0.13307513 -0.08637029 -0.19135769 0.18858975 -0.07260971 -0.019779438 -0.0023472195 0.1430133
-0.025350505 -0.06436384 -0.100569196 -0.1610725 0.2297454 0.080837406 0.045931585 0.06707313
-0.0021957878 -0.023036556 -0.21993549 0.15241796 0.10370972 -0.02952272 0.17810129 0.11940107
0.18989302 0.08998746 0.037067454 0.115160465 0.03558561 -0.07079635 -0.02545874 0.1348814
-0.062192515 0.038854107 -0.0851348 0.09524004 -0.008806946 -0.013245578 0.047372244 0.12444221
0.09315276 -0.015377624 -0.12556379 0.021630172 0.19593774 -0.031123236 0.030612057 -0.08122437
0.2183761 -0.10920291 -0.09261756 0.021763844 -0.11389437 0.020833964 0.05134836 0.10042542
-0.08027333 -0.07613959 0.09608112 0.009262453 -0.100159116 0.07311703 0.10134414 0.15125535
0.13257457 0.0467943 0.01411171 -0.13463597 -0.06393618 -0.10764619 -0.14804423 0.12661475
-0.04712834 0.21824464 0.05629853 -2.0688423e-05 -0.00075750094 -0.03396291 -0.09512483 -0.091743626
0.061720204 0.013034161 -0.04456402 0.010366008 0.15792844 -0.016997553 -0.1328568 -0.12407513
0.016735347 -0.12978676 0.13010018 0.010973772 0.05957207 0.14910376 -0.11911307 0.14846173
-0.12475558 0.060113456 -0.19244213 0.16874759 -0.005885972 -0.19592059 -0.16893145 0.07667646
0.108003005 -0.059151843 -0.13566183 0.07351805 0.14873905 -0.058607712 -0.08912935 -0.11269538
-0.06596228 -0.16445428 0.08175412 0.1476813 -0.152661 -0.08183857 0.048610494 -0.060508247
0.008456523 0.19697255 0.22465268 0.1764867 0.06396222 0.04520683 0.03210487 0.08025463
0.094220474 -0.043582782 -0.19681706 -0.08127575 0.21834895 0.1303934 -0.108905986 0.05293006
-0.064491004 0.0034711557 -0.00465618 -0.016947113 -0.030900294 -0.13634874 0.10042802 0.06642023
0.04700636 -0.17484792 0.11567143 0.095515214 0.055601172 -0.11991418 0.1908539 -0.036719408
0.11365867 0.11461373 -0.11200379 0.20408161 -0.2684952 0.11566546 -0.23497096 0.16642332
0.1366507 -0.033074766 -0.0071843 0.014412232 0.06501744 -0.11734766 0.14485149 0.07345466
-0.013664926 0.0045248424 -0.039914094 0.030591274 0.078839466 0.04556235 0.1877743 -0.036673483
0.20872039 0.048134662 -0.15393361 0.0069401967 -0.21544354 -0.23245458 0.20199293 0.11206511
0.023078242 -0.051817343 0.059607685 0.2099716 -0.15240808 0.06473373 0.20921308 0.17134309
0.11005943 0.02945128 0.124759674 0.04990887 0.03786317 -0.015923208 0.1086034 0.03267538
-0.057757758 -0.14254116 -0.0009284583 -0.16475588 0.20873186 0.022671139 -0.048426807 0.12165343
0.0367267 -0.08327947 0.08589381 -0.036681376 -0.122007824 -0.122911796 0.19014202 -0.015805194

lstm.bias_ih_l0 f4 [128]
00000000: 00a4 90bb 4b40 a1bd 1417 653e 1ed0 c93c
00000010: 4cd1 dc3d 55ec 17be 8117 073d c387 c43d
00000020: b4a1 9d3d d573 b13c 9644 573d 4747 513d
00000030: 7014 46bc 857a ba3b 9b79 95bb c616 7ebc
00000040: 52a3 823c 6692 203e 79e9 403e 5fa2 73bd
00000050: 430d 0e3e 9143 b83d 0bb1 033e 1628 1c3d
00000060: 6ac8 f3bc 1fa4 9f3b 827f 1c3e 5cc9 0c3e
00000070: 3e21 0fbe f5b9 7f3e 5672 71bd 51cc 043e
00000080: e3c0 2c3b d965 57bd 93b3 743c 26c0 ccbd
00000090: b3c9 cdbd 04bf fb3d 95ca 57bd 16de e5bd
000000a0: 2572 fb3c a46f 3b3e 4382 4b3e 376d b73d
000000b0: 12ab 2d3e d0f7 0b3e 5d00 abbd a288 12be
000000c0: 3909 253e 7f27 263e 23ba 013e 575c 2dbb
000000d0: c5fe a7bd 4b97 c7bd 1671 6e3d bce8 0e3e
000000e0: b509 8e3d 80da 443d 58aa 96bd e506 02bd
000000f0: 7584 35bd f183 2cbc 89d9 243e e122 84bd
00000100: 8c59 563d 655f 313e 89a0 50bc f997 e33d
00000110: 8e05 70bd 345c 1b3c f124 bdbb db4a cabd
00000120: 9ac7 dabd 8aa7 31be 78b9 0ebe 89bf 1c3d
00000130: 2267 a7bd 9203 633e 959b 25be ec38 613d
00000140: d75c 933d f7c6 14be 6d9c 01bd 4a96 3cbe
00000150: d7b2 9b3d 5592 f13d abf5 0e3e c035 99bd
00000160: 2bad 34bd 815e 97bd 097e ddbd d5b7 04be
00000170: 67fe 4ebd 5497 3abe 802b 203e bf2b 52be
00000180: 5095 483e c9f8 47bc 88d1 8c3d 59cc 623d
00000190: f5a9 273d 0502 9d3c 2648 cb3d 2c93 05bd
000001a0: d3df 773d 9a00 5f3e db99 c03d d8b1 90bd
000001b0: fa13 5f3d 6c24 d6bd 5938 13bd 3c51 fc3d
000001c0: df56 303e fc26 043d 687b 3d3e a226 223c
000001d0: 24c7 183e 4592 ddbd 1eea 453e fb04 aa3d
000001e0: 439c 333e 86a7 383e 8017 90bd 659f 2e3e
000001f0: a06f aebc 77f5 6d3e 489f c13c 6ea8 babb
-0.0044140816 -0.07873591 0.22372085 0.02463537 0.10782108 -0.14836247 0.0329814 0.09596207
0.07696858 0.021661678 0.052555643 0.051093366 -0.012089834 0.005690875 -0.0045616156 -0.015508359
0.015947018 0.15680847 0.18839063 -0.05948102 0.13872246 0.08997262 0.12860505 0.038124166
-0.02975865 0.0048718597 0.15283015 0.13748688 -0.13977525 0.2497328 -0.05894693 0.12968566
0.0026360087 -0.052587364 0.014935392 -0.09997587 -0.10048237 0.12292293 -0.05268343 -0.11224
0.030694077 0.18304306 0.1987391 0.08956378 0.1695979 0.13668752 -0.08349679 -0.14309934
0.161168 0.16226004 0.12668662 -0.0026452744 -0.0820289 -0.09745654 0.058213316 0.13955969
0.06935445 0.04805994 -0.07356709 -0.031744856 -0.044315774 -0.010529504 0.16098608 -0.06451965
0.052331492 0.17321546 -0.012733587 0.11112971 -0.058599047 0.009482432 -0.005772226 -0.09877559
-0.10682602 -0.17349067 -0.13937938 0.0382686 -0.08173968 0.2216933 -0.16172631 0.054985926
0.07195442 -0.14529024 -0.03164332 -0.18416706 0.0760247 0.11795489 0.13960902 -0.07480955
-0.04411046 -0.07391072 -0.10815055 -0.12960751 -0.050535586 -0.1822179 0.15641594 -0.205245
0.19588208 -0.012205311 0.068759024 0.055370662 0.040933568 0.019166002 0.099258706 -0.032611057
0.06051619 0.21777573 0.094043456 -0.07065171 0.05446241 -0.10456166 -0.03594241 0.12320182
0.17220639 0.03226374 0.18504107 0.009896906 0.14919716 -0.10818914 0.1932759 0.08301731
0.17540078 0.18032655 -0.07035732 0.17052992 -0.021293461 0.23238169 0.023635522 -0.005696348

lstm.bias_hh_l0 f4 [128]
00000000: d81f e1bd 8b8d 223e 7ee8 213e 0e16 413e
00000010: cff4 1b3e aed1 b93d 81a2 85bc fb10 7e3d
00000020: 993e f4bd 499a 0ebe c7a9 9fbd 7120 8b3d
00000030: 3b9e 14be 83c8 243e c664 a33c 7709 a93d
00000040: 11e5 d0bd c6c3 f7bd 6e96 08be 64d6 4a3e
00000050: 3ac1 67bd fd93 e33c 931a e1bc 1e37 b7bd
00000060: 75f3 d13c e21f d83d 3e98 803c ed3b ad3d
00000070: f5b9 85bc 628d 893d e91c 0b3d 1ffa 133d
00000080: 4bac fd3d a88c 893d f620 b7bd c220 efbd
00000090: 679f 8abd 09bf c43d 6266 3fbe cf28 c63c
000000a0: 467d af3c e651 03bd 4e4f cc3b 8f21 9ebd
000000b0: 0758 0f3e 379a 09bd cb29 13bd bf12 293e
000000c0: 17e6 483d f722 ad3d 9596 5f3b 38a1 033e
000000d0: bbc2 953d 9ad6 b3bc b7b0 19be 3b28 a03d
000000e0: 0f65 84bc 6755 f6bd b71d 053e 46bd 07be
000000f0: 8c6d e23d fa40 053e f77d 0fbc fb63 963c
00000100: 3341 bdbd 2b4d d83d eef4 803d 44f9 073d
00000110: 285c ad3d 7a33 443d 15be c43d 8029 04be
00000120: 1c0b e13d b2c4 c6bc 1b13 0d3e 1d7d f33d
00000130: 2b09 1ebd 03cf 873d cc94 263d 92a3 7bbc
00000140: 53ef 0bbd 7255 a53d 3697 453d bd33 c1bd
00000150: f96d 8c3c 56d6 b83d 02bb 053e 01c0 043e
00000160: f056 e13d fe63 183e bb80 08be e5c6 133e
00000170: 9114 913c 699b 993d ddca fcbc db1c 5dbe
00000180: 464e abbb f405 4a3d d8c4 b53d 6739 293e
00000190: d5b4 383e 818d f73d 8914 41bd 3a18 da3d
000001a0: f199 b23d c08c 1b3e 8442 0a3e 83f6 0fbd
000001b0: 065d 023e 16b3 a2bd ecb2 21bd a2b7 c9bc
000001c0: 6054 663e 9960 66bd 597b 173e fcdc 76bd
000001d0: 579f f23c f211 54bd a099 d83d ec78 5a3e
000001e0: f124 a2bd 0d3d 65bd 1c33 023e 7b18 023e
000001f0: 63dc 36bc 8e02 603e db91 d63d 1224 783d
-0.10992402 0.15874307 0.15811345 0.1885607 0.15230106 0.09073196 -0.01631284 0.062027913
-0.11926002 -0.13926043 -0.07796054 0.06793297 -0.14513485 0.16092114 0.019945513 0.082537584
-0.10199941 -0.12097888 -0.13338634 0.19808346 -0.05658076 0.027780527 -0.027478492 -0.0894606
0.025628785 0.10552956 0.015697595 0.084586956 -0.016324023 0.0671642 0.033963118 0.036127206
0.12386378 0.06716281 -0.08941834 -0.1167617 -0.06768685 0.096067496 -0.186914 0.02418938
0.02142204 -0.032060526 0.00623504 -0.077212445 0.13998424 -0.033594336 -0.03592853 0.16511057
0.049047556 0.08453935 0.0034116853 0.12854469 0.073125325 -0.021952916 -0.15008818 0.07820173
-0.01616147 -0.12028008 0.12999617 -0.13255796 0.11056051 0.13013068 -0.00875806 0.018358221
-0.092409514 0.105615936 0.06296717 0.033196703 0.08464843 0.047900654 0.09606568 -0.12906456
0.10988447 -0.024263714 0.1377682 0.11889098 -0.038582962 0.06631281 0.040669248 -0.015358822
-0.034163784 0.08072938 0.04823991 -0.094336964 0.017142283 0.09025256 0.13059619 0.12963869
0.1100291 0.14881894 -0.13330357 0.14431341 0.017710002 0.07500345 -0.030858452 -0.21593039
-0.005227837 0.049322084 0.088754356 0.16525804 0.18037732 0.120875366 -0.047138724 0.10649152
0.08720768 0.1519041 0.13501936 -0.0351472 0.12730798 -0.07944314 -0.039477274 -0.024623696
0.22493124 -0.056244466 0.14793147 -0.06026934 0.029616995 -0.051774926 0.10576177 0.2133519
-0.07917202 -0.055966426 0.12714809 0.12704651 -0.011160943 0.21875975 0.104770385 0.060581274

lstm.weight_ih_l1 f4 [128, 32]
00000000: 7a2f 83bd ef21 80bd 5370 07be cfbc cc3d
00000010: 0ed9 083e f4a1 7fbb cdab af3e e358 ab3d
00000020: 18af 82bd 12f8 24be 722b 133d 501c d83d
00000030: d201 30bd 758e 6f3d 838b 8cbe f8e5 6abe
00000040: 38be 88bd 7741 74bd dc90 1a3e 7f5b 31be
00000050: f8b1 373c d951 b9bd 1fc8 023f 40de 243e
00000060: ae84 e53d 7148 98bc 5699 cebd ac2b 683e
00000070: 72f3 8f3d 82e6 963e 5506 edbd 33a5 8b3e
00000080: 0cb3 bd3d 02a5 1abd 25eb 263e 6750 d5bd
00000090: e6fb 293d e34f 343e b9cd 543e f2c0 253e
000000a0: 1cf9 193e a0e9 2fbe ed78 e73d ce4b ae3d
000000b0: 5faa 12bd 69b1 993d 8cc9 09be 777c f33d
000000c0: 83db 973d 7ab2 433e cc64 5cbe ad24 d7bd
000000d0: 0ba0 c7bc ea50 afbd c9e3 1e3e 2e1d 203c
000000e0: ce8c 4c3e 6b28 61be 9d5c 3ebe 724f b13c
000000f0: 8ae5 babd 6ae9 fc3d 00ff 533e f561 de3d
00000100: 8343 6ebd ad61 ed3d 6b5c 643e 249e 4c3d
00000110: 1bee 523d 9eb4 aa3d 1a84 cebd 197c 1e3e
00000120: 35c5 bb3d 54de bb3d e683 823d 96fe 713d
00000130: dd00 2d39 b077 c43d 1019 e6bd 66f0 43ba
00000140: 2c68 0b3e 3001 a33c d4ea 6abd a524 c23d
00000150: 9a7f bebd 9c50 003e 4684 8d3d 372e 1e3e
00000160: b40d 553e 0f23 1a3d 12af e73d 9ba9 4f3e
00000170: 3388 92bd b2ac 463e 552f 873d 9177 38bd
00000180: 6ca1 9ebd c5a3 e63d f8ed 35bc 388d a83d
00000190: 2dba 6e3d 1674 4dbe 76d7 18be 036f cbbd
000001a0: 5781 c2bd 7d88 eebc fe58 0bbe f7a4 34be
000001b0: e28e 8cbd fc39 213e 7bff f7bd 3ce0 c0bd
000001c0: ffff 0b3e 5c58 433e 75af 56bc b4f1 dc3d
000001d0: 174a f83d c7bf f33c 5692 9fbd e98e 203e
000001e0: a755 003d 028e 8a3d b3ba 14be fd00 393d
000001f0: f2b7 1fbd 6745 21bc 9c8f f33d eab1 abbd
00000200: a779 413e 182f fcbd 0960 21bd 9ea6 cbbc
00000210: 5efa 32be 6d33 bd3d 5ed6 c73d 2051 f4ba
00000220: 9509 293e 5c28 f53d b6c5 9f3d b23a 17be
00000230: edcf 01be 543b 39be d35e bfbc 965c 163e
00000240: f64c 463d 4793 b2bd 1763 eb3d 2bf8 11be
00000250: 0d9c efb6 0e4b 403e f8f8 80bd 6449 513c
00000260: f67c 8d3c c30e dc3d 07c6 073e 5fd4 263e
00000270: 4706 5dbd 8280 4fbd 8088 90bd fc21 253e
00000280: fa8c c53c 6c0e a0bb dc4a 333e 3415 87bc
00000290: 407c 353c 9a91 223d b637 f63d c9d9 ea3d
000002a0: 9b23 263e f1ed debd 929b 81bd f436 593d
000002b0: ab23 c7bc 2888 ce3d 8443 b6bd 783f c8bd
000002c0: fd68 c73d a0a6 bd3d f668 21be d322 a53c
000002d0: 7fb2 15bc 4fdb cdbd 9632 5aba 35ad 153e
000002e0: 5f37 d2b9 8daf 4dbe 58fc b83d bbed 7a3d
000002f0: b9b4 8fbd 069a 4ebd a6f7 f93d 83a1 59bd
00000300: 8dd0 f9bd 95dc 99bc 0a5d dabd 3dfa f03d
00000310: 32e0 0bbe b8d2 9ebc 36a9 2c3e f0e8 e73c
00000320: 58fc ff3d 249c c9bd e1f8 20be f595 f1bd
00000330: 36b0 283d cee4 00be 0a13 daba 48fb 2cbe
00000340: 6fff b0bd fba4 d7bd 9f60 09be 6ebd 25bb
00000350: f6e2 1e3e a665 993d b8cc 1c3d c60c 143e
00000360: 2dd5 983d 6a34 163c e8b2 be3d a4ba 0d3e
00000370: 71a0 29bd 22ba a23d 0333 2a3e 7eee 3f3e
00000380: 7aea 043e c45d 233e 3b19 09be 52e6 d2bc
00000390: bd9e 2dbe dfe6 1a3e 2b7e 183e d4a6 503e
000003a0: b8aa 3c3e 1215 c53d 1540 fdbd 518d cdbd
000003b0: ed96 d63d 4a28 3cbe ea8c e83d 67fd 403d
000003c0: 7eeb 7e3d d62d 273e fd6a 4bbe 1a61 e53d
000003d0: 40c7 e7bb 6508 223d b4bd 553e d4d7 f13c
000003e0: ca59 05be c948 73bd efb4 c5bd c417 1e3e
000003f0: 639e 00be ea7e 413c 1b89 25bd ce12 f4bd
-0.0640554 -0.06256472 -0.13226442 0.0999695 0.1336405 -0.0039006444 0.3431076 0.08366563
-0.06381053 -0.16110256 0.035930105 0.10552275 -0.042970486 0.058485467 -0.2745019 -0.22939289
-0.06676906 -0.059632745 0.15094322 -0.17320059 0.011211865 -0.09048814 0.5108661 0.16100407
0.11206947 -0.01858923 -0.1008784 0.2267291 0.070288554 0.29472739 -0.11573473 0.27274475
0.09262666 -0.03775502 0.16300638 -0.10415726 0.041499995 0.176086 0.20781602 0.16186884
0.15036434 -0.17178965 0.11302362 0.08510552 -0.03580701 0.075045414 -0.1345579 0.11888974
0.074149154 0.19111052 -0.21522826 -0.10505042 -0.024368307 -0.08560355 0.1551658 0.009772582
0.19975588 -0.21988074 -0.18590017 0.021644328 -0.09125812 0.12349208 0.20702744 0.108585276
-0.058169853 0.11590896 0.2230088 0.049955502 0.051496606 0.08335231 -0.1008379 0.15477027
0.09168474 0.09173265 0.06372814 0.059080683 0.00016498887 0.09593141 -0.11235249 -0.0007474482
0.13613957 0.019898027 -0.057352856 0.09479646 -0.09301682 0.1253075 0.06909995 0.15447317
0.20806009 0.03763109 0.11312689 0.20279543 -0.07154884 0.19401816 0.06600825 -0.045035902
-0.077456325 0.11261705 -0.011104099 0.0823006 0.05828302 -0.20063815 -0.14925942 -0.09933283
-0.09497326 -0.029117817 -0.13608167 -0.17641054 -0.0686319 0.15744776 -0.12109276 -0.09417769
0.13671874 0.19076675 -0.013103356 0.10788289 0.121235065 0.029754533 -0.07791583 0.15679516
0.031331684 0.06765367 -0.14524345 0.045166958 -0.038993783 -0.009843207 0.11892626 -0.08383544
0.18894063 -0.1231367 -0.039398227 -0.024859723 -0.1747832 0.09238324 0.09757684 -0.00186399
0.16507562 0.119705886 0.07801382 -0.14768484 -0.12676974 -0.18089038 -0.023360645 0.14683756
0.04841324 -0.08719497 0.11493509 -0.14254825 -7.1409218e-06 0.18778631 -0.06297487 0.012773845
0.0172715 0.10745003 0.13259135 0.1629195 -0.053961065 -0.050659664 -0.07057285 0.16126245
0.024115074 -0.0048845317 0.17509025 -0.016489603 0.011076987 0.039689638 0.12022345 0.114673205
0.1622452 -0.108852275 -0.06328501 0.053030923 -0.024309 0.100845635 -0.08899596 -0.09777731
0.09736822 0.09260297 -0.15762696 0.020158207 -0.009136795 -0.100515954 -0.0008323578 0.14616854
-0.00040095576 -0.20086499 0.09032506 0.061261874 -0.07016892 -0.050439857 0.12205438 -0.053132545
-0.12197981 -0.01878194 -0.10662277 0.11766479 -0.13659742 -0.019387588 0.16861424 0.028309315
0.124993026 -0.098442346 -0.1571994 -0.1179618 0.041183673 -0.12587282 -0.0016637754 -0.16892731
-0.0864247 -0.105295144 -0.13415764 -0.002528991 0.15516266 0.07490091 0.038281173 0.14457998
0.07462535 0.00916777 0.093114674 0.13840729 -0.041412774 0.07945658 0.16621022 0.18743321
0.1298007 0.15953737 -0.13388531 -0.02574459 -0.16955085 0.15127133 0.1489188 0.2037614
0.18424499 0.096231595 -0.12365738 -0.100367196 0.104780056 -0.18374744 0.11355002 0.047116663
0.0622363 0.16326079 -0.19865032 0.11200161 -0.007073313 0.039558787 0.20873147 0.02952186
-0.13022533 -0.059395585 -0.09653651 0.15438753 -0.1256042 0.011810044 -0.040413957 -0.11917649

lstm.weight_hh_l1 f4 [128, 32]
00000000: 09a5 5f3e ab6e b8bd 0fc7 083e 0410 c7bc
00000010: 471e 19bd 47be c23d 9117 c4bd 0007 863c
00000020: 973a a93d 982c 96bc b77c 263e d160 c53d
00000030: f3a2 733c ae18 a6bd c969 33bc e2a3 ab3d
00000040: 7e08 403d 51c5 40be 4ad2 04bd aa90 103e
00000050: a984 123e 1133 233e 8238 3a3d e69d 6b3c
00000060: 1f7f 553d ed01 203e 6020 353e f14b 4abe
00000070: cf7c efbd fc09 243e ab42 b9bc 7d43 a03c
00000080: 6425 91bd b710 c1bc da21 ed3d b30c 9abc
00000090: 11e0 d4bd d31b 0dbe 2251 52be c46f 9c3d
000000a0: f38c 20be d2c0 8cbd 76cf 24be 19ba c2bc
000000b0: cd8a 0a3e 8dfb 25be 5cdb b33d cccd 503c
000000c0: d76c 47bd 5306 abbb 75c6 803d 841c 01be
000000d0: dacd 12bd 2e0f 5f3e 4aae c7bd 4ecb 343e
000000e0: fe43 d3bd 708c 45be dd8c 83bd 70f9 a0bc
000000f0: defc 9ebd 8f6e 023e b3ee 7a3d 9542 2bbe
00000100: 5453 753d 500b f53d ba8d 643e 4f0b abbd
00000110: 11c6 083e d86c 5abe 9179 1abe 1518 84bd
00000120: a377 3dbd 2a3d 27be e57a 47be 6137 1c3d
00000130: e776 b7bd d36e 43be b8ad f5bd 983e e53d
00000140: fe28 df3d 7cd6 93bd f3da 18be 2693 3f3e
00000150: b8f6 62be 589a a9bd 5864 e83d 4cbb cebd
00000160: 1ed4 04bd d7b4 08be 950b 343d 057b 103e
00000170: 1ab7 17be 8f81 023d 495b 4e3d bcfc e7bd
00000180: 5b67 19be 4055 06be dc10 303b 5b23 58be
00000190: 769d 823e efa9 873d ed33 bfbd 16c9 42bd
000001a0: cead d83d 81e5 4d3e 73b2 6fbe e5aa ea3c
000001b0: b746 7c3d 2f6e 8d3d cd30 553e f45e f83c
000001c0: e1f4 a53d 7a1e e73c 2111 22bd f827 053e
000001d0: bb2e ab3d 63fe 6f3d 2f2a 84bd 2352 88bd
000001e0: 0f39 f9bd 709e 64bd 144e 103e 6ae3 403e
000001f0: 71c7 d2bd 9b8b 30be d512 e7bc fe4e a23d
00000200: 4dcb 4a3e ef58 57bd de00 b43d fe92 37be
00000210: 1025 323c 764a 96bd dade 3a3d 0dcf d33d
00000220: 7818 26be 9264 c13d 1611 25be f4c4 1ebd
00000230: fb9d 5ebd be8f f33c 2f64 193e 7d80 ef3d
00000240: 414b 233e 4c26 493e 2314 903d aafe 0f3d
00000250: f527 1c3e 7d70 91bd 1405 4bbd 2361 2abc
00000260: c54c 13be a606 f53d f058 77bd d7dc b33d
00000270: 99b9 49be 19e2 3cbd 8a77 bfbd 44da 2abd
00000280: 87ff 343b 3a64 2fbe 892c 113e 3c83 25bc
00000290: b883 48bc dc2b ef3c 5c7c e43d 0712 363b
000002a0: 9964 52be 1dc0 11be 71a2 6bbc 0566 07be
000002b0: 745b 553e 58b9 cf3b ab0b 9b3c 43de 533e
000002c0: f006 173e ff23 8d3b bf40 18be 8704 913d
000002d0: 7cd1 5cbc a0a5 303e 254f 64bd 30f8 e93d
000002e0: d57c b93c 2087 1ebe 1807 223e 495b 033e
000002f0: ffaf a8bd 502a 48be eafe 5f3d f17b 623c
00000300: a143 903d 0a13 a9bd 677e dabd 163a dabd
00000310: aa5a 94bd 08cc eebb 0850 f7bd 822c d0bc
00000320: d25d 333d 7e50 453e 9a8d 58be 7504 f83c
00000330: a4aa 073e 300d 363e f788 7c3d b5bf 523e
00000340: a004 e8b8 38c3 d9bd 856f b3bd c2ac d6bb
00000350: 001f feb9 183b 7bbd 8435 39be 7ff8 4c3e
00000360: 7e4d d23d 7b5e ea3d 6d44 fabd c7b1 933c
00000370: cdd5 49be f62c 8d3d ef36 2bbe c389 4dbe
00000380: d27d 273e b9c8 47bc fc79 923d 9213 723a
00000390: 5e09 093d c99f 8f3d a501 a6bd 5f08 56be
000003a0: 5f09 833d 48b4 da3d 48b4 063e 3693 c23d
000003b0: 9153 163d 08be 03bd 9ef7 a8bc b9e5 883d
000003c0: 275c 023d 69b1 fc3c 5da6 71bd f1a0 103e
000003d0: 86a3 2abe 8b27 9f3c 58f9 f2bc 0f77 9abd
000003e0: 1464 033e 7708 14be 435b 8cbd df50 a5bd
000003f0: ea61 56be 4252 fe3b 5a68 44be 5e76 0e3e
0.218403 -0.09005483 0.13357185 -0.024299629 -0.03738239 0.09508949 -0.095748074 0.01636076
0.08263128 -0.01833181 0.16258512 0.09637607 0.014870393 -0.08110176 -0.010950514 0.083808675
0.0468831 -0.1882527 -0.03242711 0.14117685 0.14308418 0.15937449 0.045464046 0.014380908
0.052123185 0.15625735 0.17688131 -0.19755532 -0.11693727 0.16019434 -0.022614798 0.01956343
-0.0708721 -0.02356754 0.11578722 -0.018804884 -0.103943 -0.13780145 -0.20538762 0.07638505
-0.15678768 -0.06872715 -0.16094765 -0.023770379 0.13529511 -0.1620924 0.08782074 0.012744378
-0.048687782 -0.0052192598 0.06287853 -0.12608534 -0.035840847 0.21783134 -0.0975004 0.1765568
-0.10315703 -0.19291854 -0.06423352 -0.019650191 -0.07763074 0.12737487 0.061262798 -0.16724618
0.05989392 0.11965048 0.2231969 -0.08351766 0.13356806 -0.21330583 -0.15085436 -0.06449906
-0.046256673 -0.16331926 -0.19480474 0.03813875 -0.08958226 -0.19085245 -0.11996025 0.111935794
0.108964905 -0.07218644 -0.14927272 0.18708476 -0.22164428 -0.08281392 0.11347264 -0.10094318
-0.032428853 -0.13350235 0.043956358 0.14109428 -0.14815941 0.031861838 0.050380025 -0.11327502
-0.14980833 -0.13118458 0.0026865518 -0.21107237 0.25510758 0.06624209 -0.09336076 -0.04755505
0.105800256 0.2010708 -0.23407917 0.028645942 0.061590876 0.069057815 0.20819397 0.030318715
0.081033476 0.028212775 -0.039567117 0.13003528 0.083585225 0.05859221 -0.064533584 -0.06656291
-0.12169086 -0.05581516 0.14092284 0.18836752 -0.10291947 -0.17240755 -0.028207222 0.07925223
0.19804116 -0.052575048 0.08789228 -0.17927167 0.010873094 -0.07338421 0.045622684 0.10342226
-0.16220272 0.094430104 -0.16119799 -0.038762048 -0.05434988 0.029731628 0.14979623 0.11694429
0.15946676 0.19643515 0.07035091 0.035154976 0.15249617 -0.071015336 -0.04956539 -0.010399136
-0.14384754 0.11964159 -0.06038755 0.08782356 -0.19699706 -0.04611406 -0.09348972 -0.04171206
0.0027618126 -0.17128077 0.14177145 -0.0101020895 -0.012238435 0.029195718 0.11156532 0.0027781741
-0.20546187 -0.14233442 -0.014381991 -0.13222511 0.20835668 0.0063392334 0.018926462 0.20690255
0.1474874 0.0043072696 -0.14868449 0.07080942 -0.013477679 0.17250681 -0.05573954 0.11424291
0.022642532 -0.15481234 0.15823019 0.12827791 -0.082366936 -0.19547391 0.054686464 0.013823495
0.07044149 -0.082555845 -0.106686406 -0.1065561 -0.07243855 -0.007287506 -0.120758116 -0.025411848
0.043790646 0.19268987 -0.21147767 0.030275563 0.13248688 0.17778468 0.061654057 0.20580943
-0.000110634835 -0.10632938 -0.08761505 -0.006551356 -0.00048469752 -0.061335653 -0.18086821 0.20016669
0.10268687 0.11443802 -0.122200824 0.018029107 -0.19710465 0.06893341 -0.16720174 -0.20072083
0.1635659 -0.012193852 0.07152173 0.00092344836 0.0334562 0.070128985 -0.081057824 -0.20901631
0.06398272 0.10678917 0.1315471 0.095007345 0.03670079 -0.03216365 -0.020625886 0.06684441
0.031826165 0.030846315 -0.058996547 0.14123894 -0.16663942 0.019428035 -0.029659912 -0.0754224
0.12831146 -0.14456354 -0.06853344 -0.080720656 -0.20935789 0.0077612707 -0.19180432 0.13912341

lstm.bias_ih_l1 f4 [128]
00000000: baf0 423e 8ead 363e cd35 e6ba 73bb f63c
00000010: 185b 1fbe eb31 1a3e bae6 8f3d 9ecb 183e
00000020: a275 d3bc 078b fdbd f0e2 d6bd a4dc f3bd
00000030: 9af2 c03d e4b5 513c 0d4c 07bd cefd 243e
00000040: 5071 263e c5ba 833d 6e9d 00be c6d3 253d
00000050: fa11 bb3c c42c fa3d 29c8 193e 8886 053e
00000060: 0dee e93d 9abc 033e 4e7b 333e d86e 3f3e
00000070: 3565 b1bd c068 08ba 9912 263e a42a b7bd
00000080: 74d1 053e 10ab a13d 8501 053d 36a0 1fbc
00000090: bb30 323e b319 1d3d 7925 0cbe 0e09 563d
000000a0: 970f b93d 224a 38bd 8182 0e3e 3896 f53d
000000b0: 89c7 343e 138b 193d 6ab1 2b3e 7dc2 f43d
000000c0: 2ae8 383e fcd6 733b e720 cd3d 42b6 0f3c
000000d0: 0a57 1dbd 036d 703c 0e57 a8bd ac57 98bd
000000e0: e52b e43d 6abf 19be 550c 25bd 30fd 323e
000000f0: 9905 edbb 7e7e 213e 88b7 603d 2a50 ee3d
00000100: 56bf 50bd a5eb a0bd 2a5a eebd d957 d33b
00000110: b50a d9bd d805 b7bc 9bef f4bd 406d 82bd
00000120: dcb9 cb3d e37a e4bd 1456 5abe fa19 4abd
00000130: df01 c1bd 48a5 cb3d 72f9 83bd 0c31 bb3d
00000140: 22a6 ab3d 8aea 07be 3fc2 b03d 8343 e9bc
00000150: ed8a d03c 1b3a b8bd 0710 0dbe d927 47bd
00000160: 27ad 6dbd fdce 3ebe b910 42bc 00e8 e03c
00000170: e329 3dbd 9b35 cabd b28b 9fbc 598f 703c
00000180: 70fe 6dbc 165e 6d3d a3ce 793e 03c5 e53d
00000190: 4115 c8bd b156 c33d f1fc a63d 0203 b4bc
000001a0: d2b8 7b3e af68 263e 4f96 e1bc f194 e03d
000001b0: d450 a53d 9822 af3d 619c 703e b31f 553e
000001c0: c897 c73d 13b4 243e bd58 0e3d 4b6b 123e
000001d0: 6465 be3c 7e4a dc3c cd0a 4b3e 4ce7 b9bd
000001e0: 9371 5b3c 7adc 483e 8532 ed3d 1c2e 5b3e
000001f0: 93ff 003d ee33 dc3d 26ec 92bb ac0b 2bbd
0.19037142 0.17839643 -0.0017563641 0.03011868 -0.15562093 0.15058105 0.070264295 0.14921424
-0.025812928 -0.12380033 -0.10492504 -0.11907318 0.094212726 0.012799714 -0.033031512 0.16112444
0.16254163 0.06432108 -0.12560055 0.040485166 0.02283572 0.122155696 0.15017761 0.13039601
0.11422358 0.12864915 0.17527506 0.18694627 -0.08661882 -0.0005203597 0.16218032 -0.0894368
0.13068181 0.07893956 0.032472152 -0.009742787 0.17401402 0.038354587 -0.1368617 0.05225473
0.09036177 -0.044992574 0.13916971 0.119915426 0.17654242 0.037486147 0.16766897 0.11951158
0.18057314 0.0037206998 0.10016041 0.008771481 -0.038413085 0.014674428 -0.08219729 -0.07438597
0.11141185 -0.15014425 -0.040294964 0.17479396 -0.0072333333 0.15770909 0.05486253 0.11636384
-0.050963722 -0.078574456 -0.11638291 0.0064496812 -0.10597745 -0.022341654 -0.119597636 -0.06368494
0.09947559 -0.11156251 -0.21321899 -0.04934118 -0.09424185 0.09943634 -0.06444062 0.09140214
0.08381297 -0.13273063 0.086307995 -0.028474575 0.02545687 -0.08995458 -0.13775645 -0.048621986
-0.05802646 -0.18633647 -0.011844807 0.027454376 -0.046182524 -0.09873506 -0.019475792 0.014682614
-0.014525995 0.057951055 0.24395232 0.11219218 -0.09769679 0.095380194 0.081537135 -0.02197409
0.24582222 0.16250871 -0.027537493 0.10965908 0.08072057 0.0855152 0.23497154 0.20812874
0.09745747 0.16084318 0.034752596 0.14298742 0.023241706 0.02689099 0.19828339 -0.090773195
0.013393777 0.19615355 0.115819015 0.21404308 0.031493735 0.10752092 -0.0044837175 -0.041759178

lstm.bias_hh_l1 f4 [128]
00000000: cf0a a63d 0589 a03d 6e27 62bd 57e7 1abe
00000010: 147f abbd 51fe e2bd 34b7 05be 7b47 60bd
00000020: 61da 2d3e c3ee 733d 0efb 33bd cc85 233e
00000030: 5751 c43d 046a 373e 651b 2d3e d763 5b3d
00000040: 77d9 dd3d c16c 80bc 3886 1d3d d65b 153e
00000050: 6862 e3bc ffba 65bd d125 dabd cbfb 183c
00000060: fbad 05be aac7 393d 86fb 84bb 6ddf 34bd
00000070: e7a3 61bd 6241 c83a f188 643d 2bff 4f3c
00000080: 2d5e cb3d f3bd d3bd 3639 3f3d 1eb9 b33c
00000090: ea3c 993d 54e8 38bd 2cbf 2a3e 5e4f a6bd
000000a0: ce26 e13d 605e e53d 57e0 2c3e 44e9 3b3e
000000b0: 4074 c9bd 57d0 f7bb e61b d63d 52f0 093e
000000c0: 82d6 9abb 69e5 ccbd d3fb e33d ff4b 1cbe
000000d0: 7d9f bcbd dbe2 cd3c 203e 433e c889 d93d
000000e0: 0209 0a3b 7139 133e d308 953d 2712 873d
000000f0: 135c b93d de74 03be f924 c83c 8285 443d
00000100: 5126 50bd dbda 943d e382 3f3e 3848 a4bc
00000110: c49e 233c d4d4 a13d 4417 07be ddfc a93d
00000120: 0bd1 bcbd 3d1c 6f3d 83ac 163d 006e ce3d
00000130: 665b 573d f821 06bd e34f 863d af04 4c3e
00000140: 229e e73d c987 0cbc 8fb6 bfbd 8504 13be
00000150: 1a3b f9bd 1de4 fabd 0cce b53d 563d 60bd
00000160: dccc 54be f80c e93d f0c7 01be ee76 3bbd
00000170: 4709 3dbd ccb2 87bc 4f43 5abd 0117 47bd
00000180: 0609 a73d 7f16 fb3d 0847 1cbd 76a8 86bd
00000190: 11f5 d6bd 312c 763e 715c 123d d4b4 1fbc
000001a0: 295e 79bd 7886 eabc 484f 273e 830e 133e
000001b0: dcdb a93d 1724 233d f846 a73d 5ffa 4b3e
000001c0: 920c 20bd c40e a5bc 40e3 83bd 4bf8 133e
000001d0: 5411 183e 3c81 1abc 1323 863e 08cc 973d
000001e0: 4b6d 8abd 9613 0e3e 7fa4 a23c 0acf c3bd
000001f0: e5a5 333e 4c39 213e 2efc 7d3e edc2 1b3e
0.0810753 0.078386344 -0.055213384 -0.15127312 -0.083738476 -0.11083663 -0.13058168 -0.05475567
0.16977836 0.059553873 -0.043940596 0.15969008 0.09585827 0.17911536 0.16904981 0.05356201
0.10832494 -0.015676858 0.03845808 0.14585814 -0.027756885 -0.056086536 -0.10651744 0.009337376
-0.1305465 0.04535643 -0.0040583042 -0.044158388 -0.05508795 0.0015278275 0.05579466 0.012695114
0.09930072 -0.10338964 0.04668542 0.021938857 0.074823216 -0.04514344 0.16674489 -0.08120607
0.109937295 0.11199641 0.16882454 0.18350703 -0.09836626 -0.007562678 0.1045454 0.13470581
-0.0047252784 -0.10004694 0.11132016 -0.15263365 -0.092101075 0.025132587 0.19066668 0.10621983
0.0021062498 0.14377381 0.07277074 0.06595259 0.09050765 -0.1283755 0.024431692 0.047978885
-0.05081779 0.07268306 0.18702273 -0.020053968 0.009986583 0.07901922 -0.13192469 0.08300183
-0.09219559 0.05837654 0.036785614 0.100795746 0.0525774 -0.03274724 0.06558206 0.19923662
0.11309458 -0.008577296 -0.09360992 -0.14357193 -0.12169476 -0.122505404 0.08877191 -0.054745995
-0.20781273 0.11379427 -0.12673926 -0.045767717 -0.046151426 -0.01656475 -0.053286847 -0.048605923
0.08156018 0.1226015 -0.03815368 -0.065751 -0.104959615 0.24040295 0.03573269 -0.009747703
-0.060880814 -0.028628573 0.16338837 0.14361005 0.08293888 0.03982934 0.08167833 0.19919728
-0.039074488 -0.020148642 -0.06439829 0.14450185 0.1485036 -0.009430226 0.26198635 0.07411963
-0.06759127 0.13874659 0.019853828 -0.09560974 0.17543752 0.15744513 0.2480323 0.15211077

fc.weight f4 [1, 32]
00000000: 25e7 bc3e 473e d5be 86f6 f03e c036 1bbf
00000010: f251 e73e 5dc9 cbbe 06dc d4be fe34 07bf
00000020: 36ef bfbe 7f3f cf3e c910 04bf a412 d03e
00000030: 59c6 fc3e bae5 e93e 4651 073f 1c40 be3e
00000040: fc5b ea3e 4710 0f3f 78d8 e5be a7e5 bf3e
00000050: 3d6e ebbe 5f09 0abf f38c c9be 4b11 053f
00000060: c529 dfbe e6a2 bbbe 30d6 043f 32ac 003f
00000070: 2a1b bebe e636 d1be 787a e1be 0674 ccbe
0.368951 -0.41649076 0.47063082 -0.60630417 0.45179707 -0.39802065 -0.41574115 -0.52815235
-0.3748719 0.4047813 -0.5158811 0.40639222 0.49370077 0.4568308 0.5285839 0.37158287
0.45773304 0.5588421 -0.44891715 0.37479898 -0.45982543 -0.5392055 -0.39365348 0.5197951
-0.43586555 -0.3664772 0.51889324 0.5026275 -0.371301 -0.40862197 -0.4403875 -0.3993227
