best_model.pth (torch, 55083 bytes, 9 tensors)

lstm.weight_ih_l0 f4 [128, 1]
0	0xbe237837	-0.15963827
1	0xbe53bd80	-0.20677757
2	0x3e4635e5	0.19356497
3	0x3e1a97f2	0.15097025
4	0x3eb6fa22	0.3573771
5	0x3c98c76b	0.018649777
6	0xbdc0634f	-0.093939416
7	0x3e5dde4a	0.21666828
8	0xbca191d8	-0.019722864
9	0xbcfb2c0f	-0.030660657
10	0x3c8eaf26	0.017417502
11	0x3d19fd26	0.037594937
12	0xbcb9ede2	-0.02269644
13	0x3ea099ff	0.3136749
14	0x3d814c33	0.06313362
15	0x3db1d33e	0.086828694
16	0x3d432dc6	0.047651075
17	0x3b7e2cb8	0.0038783979
18	0x3d4c5576	0.04988619
19	0x3dd7b155	0.1053187
20	0x3e49ecce	0.1971924
21	0x3eae208b	0.34009203
22	0x3e16a541	0.14711477
23	0x3e68a2f1	0.22718407
24	0x3c08472e	0.008317752
25	0x3e2e7d81	0.17040063
26	0x3ecc82f2	0.39943653
27	0xbdbc4fc3	-0.09194901
28	0x3e67313d	0.22577377
29	0xbe28fd3b	-0.1650285
30	0xbe14cab6	-0.14530453
31	0x3e27aa4d	0.16373558
32	0x3d63596b	0.055505197
33	0x3e3c8abe	0.18412301
34	0xbd80b875	-0.062851824
35	0x3d995474	0.07486811
36	0x3c94eac1	0.018178346
37	0x3d85a999	0.06526489
38	0x3e43e0be	0.19128701
39	0xbc5396e4	-0.012914393
40	0xbd9063bb	-0.07050272
41	0x3db64e75	0.08901683
42	0xbe31d632	-0.17366865
43	0x3e00f2ad	0.12592573
44	0x3e76185b	0.24032728
45	0xbd46abec	-0.0485038
46	0x3dac794b	0.08421572
47	0x3d4c648b	0.049900573
48	0xbd4026ca	-0.046911992
49	0x3d8d7da8	0.06908733
50	0x3d548882	0.051887996
51	0x3d619049	0.05506924
52	0xbb73f2ba	-0.0037223534
53	0x3d654473	0.05597348
54	0x3cb0e3ff	0.021593092
55	0xbd54c499	-0.051945303
56	0x3c25696e	0.010095937
57	0x3e898a27	0.26863214
58	0xbd9d4118	-0.07678431
59	0x3e9c216e	0.30494255
60	0xbd8ad430	-0.06778753
61	0x3e282199	0.16419066
62	0x3e6ea5bb	0.23305409
63	0x3e1803d3	0.14845209
64	0xbe836283	-0.25661096
65	0x3df2a08f	0.1184703
66	0xbe4610c2	-0.1934233
67	0xbe346f47	-0.17620574
68	0x3e2af02e	0.16693184
69	0x3e153e16	0.14574465
70	0x3df79139	0.12088246
71	0x3e4dfe75	0.20116599
72	0xbd88a4d9	-0.06672067
73	0x3db22247	0.08697944
74	0x3e355968	0.17709887
75	0xbda56007	-0.080749564
76	0x3e756995	0.23966058
77	0x3e92e314	0.28688872
78	0xbeca4a96	-0.3951003
79	0xbe8f528f	-0.27992675
80	0x3dc7f15b	0.09762832
81	0xbeba887e	-0.3643226
82	0x3deb10e6	0.114778325
83	0x3eb0b342	0.34511763
84	0xbe3d220b	-0.18470018
85	0x3e1d53c4	0.15363985
86	0xbdac21f1	-0.08404911
87	0x3e4dde0b	0.20104234
88	0x3e9e33c8	0.3089888
89	0xbddceadc	-0.10786983
90	0xbe251df1	-0.16124703
91	0xbe0e87f9	-0.13919057
92	0x3e1535c3	0.1457129
93	0x3e01e1ce	0.12683794
94	0x3e8bc0ba	0.27295476
95	0x3e9c3e31	0.30516198
96	0x3cf32c45	0.029684195
97	0xbc666c96	-0.014063975
98	0xbd02a8d4	-0.03189929
99	0x3e2fa99a	0.17154542
100	0x3e42d921	0.1902814
101	0x3e25d712	0.16195324
102	0x3dadd4be	0.08487843
103	0x3e113b47	0.14182769
104	0xbcbf91e0	-0.023384988
105	0x3ddcd05f	0.10781931
106	0xbc80d5af	-0.015726892
107	0x3aa05928	0.0012233602
108	0x3d0b4ec6	0.03401067
109	0x3e85e652	0.26152283
110	0x3ca846e8	0.020541623
111	0x3d50d10d	0.050980616
112	0x3cc440ec	0.023956738
113	0x3d95b45c	0.073097914
114	0x3e1e6fc2	0.1547232
115	0x3d8a91fc	0.067661256
116	0x3e682968	0.22672045
117	0x3e836d92	0.25669533
118	0x3e419557	0.18904625
119	0x3e058cfc	0.13042063
120	0x3e377039	0.17913903
121	0x3e1ab225	0.15107019
122	0x3e88cb43	0.26717576
123	0x3e97d3dd	0.29653826
124	0x3e00be87	0.1257268
125	0x3d899c6f	0.067192905
126	0x3e0c3898	0.13693464
127	0x3e01e820	0.12686205

lstm.weight_hh_l0 f4 [128, 32]
0	0xbe42f8bb	-0.19040196
1	0x3e596f2f	0.2123382
2	0x3c6ca498	0.014443539
3	0xbe69b8b8	-0.22824371
4	0xbeb95b0a	-0.3620227
5	0xbc471956	-0.012152037
6	0x3e34e5f9	0.17665853
7	0x3e75bdd2	0.23998192
8	0xbe654d94	-0.22392875
9	0xbe091b4a	-0.13389316
10	0x3b378959	0.002800545
11	0x3dcda097	0.10040396
12	0x3e310aac	0.17289227
13	0x3e3f2503	0.18666463
14	0x3c7f2c0e	0.015574468
15	0xbe239f65	-0.15978773
16	0x3dfbdaab	0.12297567
17	0xbe741a7d	-0.2383823
18	0x3da27356	0.07932155
19	0x3e07d1f4	0.13263685
20	0xbdd351e1	-0.103183515
21	0xbea2e39a	-0.3181427
22	0xbdd80d68	-0.10549432
23	0xbeaf56f5	-0.3424603
24	0x3bb802c6	0.005615565
25	0x3e6ab272	0.22919634
26	0x3ea87b94	0.32906783
27	0xbdefd8a0	-0.1171124
28	0xbe6f5c09	-0.23374952
29	0xbca70b42	-0.02039111
30	0x3e370247	0.17871962
31	0x3b75e130	0.0037518255
32	0x3d0b57f3	0.03401942
33	0xbde0d329	-0.109777756
34	0xbd853d5a	-0.065058425
35	0x3b739f13	0.0037173673
36	0xbe427634	-0.18990403
37	0x3c347f8f	0.01101674
38	0xbd9f9816	-0.0779268
39	0x3e1d8552	0.15382889
40	0xbbe85ce8	-0.0070911534
41	0xbe07a945	-0.13248165
42	0xbe0f8a5e	-0.14017627
43	0x3e0a2c22	0.13493398
44	0x3d8a093a	0.06740041
45	0xbe2ae3da	-0.16688481
46	0x3e091273	0.13385944
47	0xbdd8eb29	-0.10591728
48	0xbc93723e	-0.01799881
49	0xbe375fab	-0.17907588
50	0xbe96447d	-0.29349127
51	0xbc66751e	-0.014066009
52	0xbd59b872	-0.053154416
53	0xbe205378	-0.15656841
54	0xbe322553	-0.1739705
55	0xbe387b10	-0.18015695
56	0xbd29916b	-0.041398447
57	0x3e1860fb	0.14880745
58	0xbd3d4d68	-0.0462164
59	0x3e12a286	0.1431981
60	0xbdc9619a	-0.09833069
61	0x3e39c227	0.1814047
62	0x3e46f520	0.19429445
63	0x3d8320f0	0.06402767
64	0xbde1765e	-0.11008905
65	0x3b9daa90	0.0048115924
66	0x3eb48404	0.3525697
67	0x3c739649	0.014867374
68	0x3e9b26a1	0.3030291
69	0xbd965fed	-0.07342515
70	0x3e2941ad	0.1652896
71	0x3d21e8ba	0.039528586
72	0x3e035051	0.12823607
73	0x3e97ddd3	0.29661426
74	0xbcceeb7e	-0.025258776
75	0xbe4e49af	-0.20145296
76	0x3d69f4b0	0.057118118
77	0x3e91448c	0.2837261
78	0x3cbe6c5a	0.023245025
79	0x3d73f3c3	0.05955864
80	0xbdbd259c	-0.09235689
81	0xbe0bc50c	-0.13649386
82	0x3eae09d3	0.3399187
83	0x3dbf9125	0.09353856
84	0xbe83383a	-0.25628835
85	0x3d9f1185	0.077670135
86	0xbdfc61ac	-0.12323317
87	0x3e478d6b	0.1948754
88	0xbd95ea64	-0.07320097
89	0xbea64b12	-0.3247915
90	0x3c61a2c6	0.013771718
91	0x3d9ca187	0.076479964
92	0x3d169dfc	0.03677176
93	0x3e22e9d4	0.15909511
94	0x3e40c149	0.18823732
95	0xbd4a580a	-0.049400367
96	0x3d5e0eca	0.054213323
97	0x3da0f748	0.07859665
98	0x3d243d47	0.0400975
99	0x3de2e011	0.110778935
100	0xbdbcb59b	-0.09214326
101	0x3e71be05	0.23607643
102	0xbd55ebcd	-0.05222683
103	0x3e264434	0.16236955
104	0x3d931005	0.0718079
105	0x3e62eee1	0.22161438
106	0x3e129fcf	0.14318775
107	0xbea3b8c1	-0.31976894
108	0x3d998187	0.074954085
109	0xbdcb5327	-0.099279694
110	0x3d3c27f1	0.04593653
111	0x3bf04c97	0.007333349
112	0xbe04818a	-0.1294004
113	0x3e5e80c8	0.21728814
114	0x3eba7be3	0.36422643
115	0x3d588513	0.052861284
116	0xbeea7e7f	-0.45799634
117	0xbc1b5229	-0.009480038
118	0xbe73971a	-0.2378811
119	0xbdcfbde3	-0.1014364
120	0xbd3d91c4	-0.04628159
121	0xbdbb4b29	-0.09145195
122	0x3dfe1c6b	0.12407764
123	0x3dee1036	0.11624186
124	0x3e928084	0.28613675
125	0x3d28b62d	0.04118936
126	0xbe55c198	-0.20874631
127	0xbd424a8f	-0.047434386
128	0xbe1a5b86	-0.15073976
129	0x3e04c33b	0.129651
130	0xbe3d6210	-0.18494439
131	0xbe9a8c23	-0.3018504
132	0xbe15ecbf	-0.14641093
133	0x3ec35a9d	0.3815507
134	0x3ea4b46c	0.321689
135	0x3ea0f8c9	0.31439808
136	0xbde0081e	-0.10939048
137	0x3e828fa2	0.25500208
138	0x3e61ce96	0.22051463
139	0xbea46c1f	-0.3211374
140	0x3e37cf1d	0.17950101
141	0x3e102434	0.1407631
142	0xbf298338	-0.6621585
143	0xbec67538	-0.38761306
144	0x3e8edefb	0.27904496
145	0xbec67dba	-0.38767797
146	0x3e8e38b5	0.2777764
147	0x3ebe3333	0.37148437
148	0xbd9c7726	-0.07639913
149	0xbe68f293	-0.22748785
150	0xbedc1a42	-0.42988783
151	0xbde0b744	-0.10972455
152	0x3ecd8c49	0.40146092
153	0x3e396140	0.18103504
154	0x3d6b7013	0.05747993
155	0xbf23e8a0	-0.6402683
156	0x3d560a8e	0.05225616
157	0x3e941ae5	0.2892677
158	0x3f00e4b6	0.50348985
159	0x3f0265be	0.50936496
160	0x3e876107	0.26441213
161	0x3dccd38e	0.10001288
162	0x3e8f7e63	0.28026113
163	0x3d9de05f	0.07708811
164	0x3edf5746	0.43621272
165	0x3ed9fc55	0.42575327
166	0xbe8a523c	-0.27015865
167	0x3d6271a3	0.055284154
168	0x3e3c68f2	0.18399408
169	0x3eddd23b	0.43324456
170	0x3ecaa8fc	0.3958205
171	0xbea20c28	-0.316499
172	0xbe44787d	-0.19186588
173	0xbdf52ccb	-0.11971434
174	0x3e62b7ee	0.22140476
175	0x3d9582a9	0.07300312
176	0xbd25b9c8	-0.040460378
177	0x3e337408	0.17524731
178	0x3e9701b7	0.29493496
179	0xbdb33b7a	-0.08751579
180	0xbf34e4a6	-0.7066139
181	0x3f0deacf	0.55436414
182	0x3e46f63f	0.19429873
183	0x3e8bd869	0.27313545
184	0xbd2f0cb1	-0.042736713
185	0xbe521c98	-0.2051872
186	0xbd404bb5	-0.0469472
187	0x3ea620a1	0.3244677
188	0x3ec679c8	0.38764787
189	0x3eacdf50	0.33764124
190	0xbe634329	-0.22193588
191	0xbe25bc1e	-0.16185042
192	0xbe2a2c20	-0.16618395
193	0x3e8ccd1f	0.27500245
194	0x3e0fc2c2	0.14039138
195	0x3d1311b9	0.035905574
196	0xbe0b730c	-0.13618106
197	0xbc708120	-0.014679223
198	0xbca569a4	-0.020191975
199	0x3e3b2b02	0.18278125
200	0xbe15a577	-0.14613901
201	0xbe54b9d6	-0.20774016
202	0xbde12463	-0.10993268
203	0xbe558125	-0.20850046
204	0x3e49e478	0.1971606
205	0x3cad2832	0.02113733
206	0x3d8671e7	0.06564694
207	0xbe3944a9	-0.18092598
208	0xbd98bdac	-0.07458052
209	0x3cf3d07c	0.029762499
210	0xbd8d1700	-0.068891525
211	0x3dd93770	0.10606277
212	0xbdef7b63	-0.11693456
213	0xbdb79780	-0.08964443
214	0x3d1a4e2b	0.037672203
215	0xbdd987f5	-0.10621635
216	0xbb9e1e2b	-0.0048253736
217	0xbe01a9ad	-0.12662382
218	0x3e497f2f	0.19677423
219	0x3d6c7c0a	0.05773548
220	0xbe356048	-0.1771251
221	0x3e4d85ce	0.20070574
222	0x3d4d4440	0.050113916
223	0x3e2fe2d9	0.1717638
224	0x3e1b984c	0.15194815
225	0x3ca96f82	0.020683054
226	0xbb6c1305	-0.0036022079
227	0x3d96ab46	0.073568866
228	0x3c73c8a3	0.0148793785
229	0x3cec0a2b	0.028813442
230	0x3c1df4de	0.0096409
231	0x3d51946b	0.051166933
232	0x3e69f676	0.22847924
233	0x3dd6f28a	0.104954794
234	0x3d5a8187	0.053346183
235	0xbd94de43	-0.072689556
236	0xbd05b769	-0.032645617
237	0xbe0c8bf4	-0.13725263
238	0x3d5a48c3	0.053292047
239	0x3dbd3169	0.0923794
240	0xbe19b5a3	-0.15010695
241	0xbc876bfd	-0.016530985
242	0x3e78cd3e	0.24297044
243	0xbb871ef5	-0.0041235634
244	0xbeefbe85	-0.46825042
245	0xbc2b68a6	-0.010461962
246	0xbdc23bc3	-0.09484055
247	0x3e566686	0.20937547
248	0xbd9734b0	-0.07383096
249	0x3e2c0467	0.16798554
250	0xbe5bd432	-0.21467665
251	0x3da799b7	0.08183616
252	0x3ed9f411	0.4256902
253	0xbd341d23	-0.0439731
254	0xbe286ba7	-0.16447316
255	0xbde8fb1f	-0.113760225

lstm.bias_ih_l0 f4 [128]
0	0x3de9aa34	0.11409417
1	0xbe3d298a	-0.18472877
2	0xbe879f7d	-0.26488867
3	0x3e8a1c46	0.26974696
4	0x3e0654c1	0.13118269
5	0xbe319d58	-0.17345178
6	0xbdf89fe6	-0.12139873
7	0x3df8d97e	0.12150858
8	0xbc89c437	-0.016817195
9	0xbd30b4d9	-0.04314122
10	0x3d256d2b	0.040387314
11	0xbe4383e9	-0.19093288
12	0xbd0dd859	-0.034630153
13	0x3dce8546	0.10084014
14	0x3f25909e	0.64673793
15	0x3e5fc4b2	0.21852377
16	0x3c60754d	0.013699842
17	0x3e1d2c4a	0.15348926
18	0xbddc0a0e	-0.10744105
19	0x3eddac56	0.43295544
20	0x3d9e10db	0.07718059
21	0x3e0aea83	0.13566022
22	0xbe4ef2e4	-0.20209843
23	0x3ee8f828	0.45501828
24	0x3dfac016	0.12243669
25	0xbdf700d5	-0.120607056
26	0x3ecb34a4	0.396886
27	0x3de5b8b1	0.11216868
28	0x3cb7b2f0	0.022424191
29	0xbdc010a4	-0.09378174
30	0x3dfc8e1d	0.123317935
31	0x3ea8c234	0.32960665
32	0xbce98f35	-0.02851067
33	0xbe1fe470	-0.15614486
34	0x3f04cedf	0.5187816
35	0xba5ace98	-0.0008346825
36	0x3d79f16b	0.06102125
37	0xbd8bc5a5	-0.06824807
38	0xbd81ed54	-0.06344095
39	0xbe12daee	-0.14341328
40	0x3eb05a0c	0.344437
41	0x3d62e4fb	0.055394154
42	0x3daad5e9	0.083415814
43	0xbe20c615	-0.15700562
44	0xbdb2cbb6	-0.08730261
45	0x3dd9ee8c	0.10641202
46	0x3e66aaf8	0.22526157
47	0x3d7c6c82	0.06162692
48	0xbcc3e913	-0.02391485
49	0xbd02ae13	-0.03190429
50	0xbe8660ee	-0.26245826
51	0xbc5c67ad	-0.013452453
52	0x3dc8c162	0.0980251
53	0xbe804e2f	-0.2505965
54	0xbe231616	-0.15926394
55	0xbdee7423	-0.11643245
56	0xbd021508	-0.03175834
57	0xbcf8c551	-0.030367525
58	0xbe0cf443	-0.13765053
59	0xbe21161a	-0.15731087
60	0xbe7b2c02	-0.24528506
61	0xbe385635	-0.18001635
62	0x3de4895d	0.111590125
63	0xbd7f6e77	-0.062361207
64	0x3b666fbe	0.0035161818
65	0xbcecdc0c	-0.02891352
66	0x3de35359	0.11099882
67	0x3e1def01	0.15423204
68	0xbe2da0f4	-0.1695593
69	0xbc3f4db2	-0.011676239
70	0xbe0512bf	-0.12995432
71	0xbcf186e7	-0.029483272
72	0xbdf8d580	-0.12150097
73	0xbd9f5dd0	-0.07781565
74	0xbdf5cd02	-0.12001993
75	0x3cfc61ef	0.030808417
76	0x3d036f9c	0.03208886
77	0x3e2e04c1	0.16994001
78	0xbf004ee6	-0.5012039
79	0xbcf304eb	-0.029665431
80	0x3ecfdf1a	0.405999
81	0xbe4c2e77	-0.199396
82	0x3a2227d8	0.0006185747
83	0x3eb6217f	0.3557243
84	0x3c0a6877	0.008447758
85	0xbe3d1238	-0.18463981
86	0x3d10c699	0.035345647
87	0xbd63d977	-0.055627313
88	0x3e5d85a0	0.21633005
89	0x3e3800cc	0.17969054
90	0xbd30dda8	-0.043180138
91	0xbe912369	-0.28347328
92	0xbcd730c0	-0.026268363
93	0x3dbd3c0d	0.092399694
94	0xbd90703a	-0.070526555
95	0x3eb4cb73	0.3531147
96	0x3e4a2cab	0.19743602
97	0xbcd6dab0	-0.026227325
98	0x3eb5dbf1	0.35519364
99	0x3da73275	0.08163921
100	0x3e63b686	0.22237596
101	0x3d79d72c	0.06099622
102	0xbd45f841	-0.048332456
103	0x3d0d1117	0.034440126
104	0x3e518f7f	0.20464896
105	0xbe3a4c22	-0.18193105
106	0x3e7597d7	0.23983704
107	0xbc626dd9	-0.013820135
108	0xbd915a61	-0.070973165
109	0x3d867d6a	0.065668896
110	0x3eda8412	0.42678887
111	0x3e24c22f	0.160897
112	0xbca7db1c	-0.020490222
113	0x3e0f13ef	0.13972448
114	0x3d751675	0.05983587
115	0x3dbf9291	0.09354127
116	0x3dcd4176	0.10022251
117	0x3bb980d9	0.005661112
118	0xbd10ce73	-0.035353135
119	0x3ebb5019	0.36584547
120	0x3dac1870	0.084030986
121	0xbe746db8	-0.2386998
122	0x3e8b3876	0.27191514
123	0xbcb5ca7b	-0.022191277
124	0x3ea58945	0.3233129
125	0xbe4ba4c8	-0.19887078
126	0x3e678b37	0.226117
127	0x3e462ed1	0.19353797

lstm.bias_hh_l0 f4 [128]
0	0x3e3f9bf0	0.18711829
1	0xbd1c218b	-0.038117927
2	0xbe38a33e	-0.18031022
3	0x3e4fabed	0.20280428
4	0x3e54ff7b	0.20800583
5	0xbe097049	-0.1342174
6	0x3db572c4	0.088597804
7	0x3e1cb54a	0.15303531
8	0xbd8880ae	-0.06665169
9	0xbe36b18d	-0.17841168
10	0x3e8707af	0.2637305
11	0xbe0a3270	-0.13495803
12	0x3c10404c	0.008804392
13	0x3dd6adfb	0.10482403
14	0x3f125e8c	0.5717552
15	0x3e50e96f	0.20401548
16	0x3dbf7230	0.093479514
17	0x3e31538d	0.17317028
18	0x3e124d28	0.14287245
19	0x3e1540ee	0.1457555
20	0x3e30322c	0.17206639
21	0xbd013beb	-0.031551283
22	0xbe0ae24b	-0.13562886
23	0x3ef40616	0.47660893
24	0x3ec2db24	0.38057816
25	0x3d850da4	0.06496742
26	0x3e5a722c	0.21332616
27	0xbd946f6a	-0.07247813
28	0x3e2fd06f	0.17169355
29	0xbe0be9db	-0.13663428
30	0xbc073670	-0.008252725
31	0x3f0c8c7d	0.5490187
32	0xbdb7451e	-0.0894873
33	0xbe037c82	-0.12840465
34	0x3ed78abb	0.4209803
35	0xbd9e4aa9	-0.07729084
36	0xbd15d112	-0.036576338
37	0x3e21e385	0.15809448
38	0xbddfe21c	-0.10931799
39	0xbacd5d6c	-0.0015668101
40	0x3ec4a3c1	0.38406184
41	0x3d41af82	0.047286518
42	0x3d67d348	0.056597978
43	0x3d529042	0.051407106
44	0x3c1b6546	0.009484595
45	0x3e643b67	0.22288285
46	0x3e540094	0.20703346
47	0xbe00799a	-0.12546387
48	0x3c6f3a23	0.014601263
49	0x3e2c9555	0.1685384
50	0xbd1a2721	-0.037634972
51	0xbd8a8a16	-0.06764619
52	0xbd62ff09	-0.055419
53	0x3c9dcba8	0.01926215
54	0x3db84cdd	0.089990355
55	0xbdb9c06a	-0.09069903
56	0x3d5f1dfd	0.05447196
57	0xbce98611	-0.02850631
58	0xbd468e1c	-0.04847537
59	0x3da7083c	0.081558675
60	0xbe481ae3	-0.19541506
61	0xbe2b5c9a	-0.16734543
62	0x3dd692f8	0.10477251
63	0xbd677b3a	-0.056514002
64	0x3e0839bd	0.13303275
65	0xbc27f2fa	-0.010250801
66	0xbe08bc50	-0.13353086
67	0xbd99e153	-0.0751368
68	0xbe475053	-0.19464235
69	0x3e6aab2c	0.2291686
70	0xbe4051bd	-0.1878118
71	0x3e469a77	0.19394861
72	0xbe76af7e	-0.24090382
73	0xbe048f49	-0.12945284
74	0x3c2b8121	0.010467798
75	0xbe03c1b7	-0.12866865
76	0x3e20154d	0.15633126
77	0xbcff628a	-0.031174917
78	0xbea00312	-0.31252342
79	0xbe00b874	-0.12570363
80	0x3e3e643a	0.18592921
81	0xbea1eec6	-0.31627482
82	0xbc769c37	-0.015051893
83	0x3e72873a	0.23684397
84	0xbe0381e0	-0.12842512
85	0xbe830d91	-0.25596288
86	0xbdcd96fe	-0.10038565
87	0xbe59592c	-0.21225423
88	0x3ed246a7	0.41069528
89	0x3dcccdae	0.10000168
90	0x3e4ff146	0.20306882
91	0xbd643717	-0.0557166
92	0xbe24c654	-0.16091281
93	0xbd288ddc	-0.041150913
94	0x3e144bcf	0.14482044
95	0x3ef341e6	0.47511214
96	0x3e96fe03	0.2949067
97	0xbe8a0957	-0.2696025
98	0x3f1ae3ad	0.60503656
99	0x3ce4a153	0.027908957
100	0x3ee44ea4	0.44591248
101	0xbe0f41d7	-0.1398996
102	0xbcde9256	-0.027169388
103	0x3e517c9c	0.20457691
104	0x3e7ce519	0.24696769
105	0xbc929832	-0.017894838
106	0x3e7dd606	0.24788675
107	0xbe4bc593	-0.19899587
108	0x3db0d080	0.08633518
109	0x3e05a4fa	0.13051215
110	0x3e08bf31	0.13354184
111	0x3d662866	0.05619087
112	0x3e1f84b1	0.15577962
113	0x3de47e03	0.11156847
114	0xbc90a2b4	-0.017655708
115	0x3df0da9b	0.11760446
116	0x3e9ff152	0.312388
117	0x3e4bc9e8	0.1990124
118	0x3dbad659	0.09122915
119	0x3e78d1cf	0.24298786
120	0x3de02566	0.10944633
121	0x3d928968	0.071551144
122	0x3ebd0b09	0.36922482
123	0x3e6dff10	0.2324183
124	0x3ea90ab3	0.33015975
125	0xbe602ef3	-0.2189291
126	0x3e9cf9b2	0.30659252
127	0x3ec930fa	0.3929518

lstm.weight_ih_l1 f4 [128, 32]
0	0x3d9cf973	0.07664766
1	0xbe536d30	-0.2064712
2	0xbed820c5	-0.422125
3	0xbba61074	-0.0050678793
4	0x3c2b1a0f	0.010443225
5	0x3c30ca20	0.010790378
6	0x3d7d5a45	0.061853666
7	0x3cdf6ba9	0.027273016
8	0x3d3f83a1	0.04675639
9	0xbd9efa6f	-0.0776261
10	0xbe7d27ac	-0.24722165
11	0xbd37ce08	-0.04487422
12	0x3e41f694	0.18941718
13	0x3ec17aa3	0.37788877
14	0xbdc34c62	-0.09536053
15	0xbea7873f	-0.32720372
16	0xbd927008	-0.071502745
17	0xbe74069b	-0.23830645
18	0x3bd93ddd	0.006629689
19	0xbe1b4429	-0.1516272
20	0x3baca1ec	0.005268326
21	0x3d3b7daf	0.045774158
22	0xbe6141e2	-0.21997789
23	0x3e0dd4a5	0.13850649
24	0x3e0b41ea	0.13599363
25	0x3da9b493	0.08286395
26	0xbdd400f1	-0.10351742
27	0xbd647652	-0.0557769
28	0x3d506f02	0.050887115
29	0x3cca75e5	0.02471442
30	0x3e899495	0.26871172
31	0xbd929e4f	-0.07159101
32	0x3a285536	0.0006421389
33	0x3e3efb31	0.1865051
34	0x3e06a1af	0.13147615
35	0x3d18294c	0.03714876
36	0x3de9460d	0.11390314
37	0x3d0ad333	0.03389282
38	0x3e01db7f	0.12681387
39	0x3dd5f19c	0.10446474
40	0x3da35586	0.07975297
41	0x3ec61a74	0.38692057
42	0x3f066200	0.52493286
43	0xbf01ba74	-0.5067513
44	0xbd8f694d	-0.070025064
45	0x3d539c1c	0.05166255
46	0x3e2aa37b	0.16663925
47	0x3de610fa	0.11233707
48	0xbd17a4a2	-0.03702224
49	0xbddb2799	-0.10700912
50	0x3f041974	0.5160134
51	0xbdab9b4f	-0.08379232
52	0xbe574eaa	-0.21026102
53	0x3e2e8396	0.17042384
54	0x3dfd107c	0.1235666
55	0x3e97f16b	0.29676375
56	0xbd976ff2	-0.07394399
57	0x3bd22440	0.0064130127
58	0xbf15645a	-0.5835625
59	0xbdba9b18	-0.09111613
60	0x3e894887	0.26813146
61	0x3e471737	0.1944245
62	0xbe2395f4	-0.15975171
63	0x3d6b9571	0.057515565
64	0x3cb1cc50	0.02170387
65	0xbda17301	-0.078832634
66	0xbe9a06dc	-0.30083358
67	0xbdc52e93	-0.09628024
68	0x3c2c7eb1	0.010528252
69	0xbd784825	-0.060615677
70	0x3e8df771	0.27727845
71	0x3dbe40e7	0.09289723
72	0xbe9297f2	-0.2863155
73	0xbdc05fb5	-0.09393255
74	0x3d037830	0.03209704
75	0xbd34ca6e	-0.044138364
76	0x3e7c74e4	0.24653965
77	0x3e1db760	0.15401983
78	0xbccdc68f	-0.025119094
79	0xbe36644e	-0.178117
80	0x3e0462e5	0.1292835
81	0xbe6bedad	-0.23039885
82	0xbd966a7f	-0.07344531
83	0x3ce12206	0.027482044
84	0xbd22e5c1	-0.03976989
85	0x3bf3f1b0	0.007444583
86	0xbe5ba865	-0.21450956
87	0x3c3803e6	0.011231398
88	0x3e06180b	0.13095109
89	0xbb642254	-0.00348105
90	0xbda9ef77	-0.082976274
91	0xbcef2a78	-0.029195055
92	0x3afe561e	0.0019404327
93	0x3d116e4d	0.03550558
94	0xbb3fe518	-0.0029280838
95	0x3da9c77e	0.08290003
96	0x3e3fd638	0.18734062
97	0x3e6ab5ba	0.22920886
98	0xbe78fbac	-0.24314755
99	0x3dccd7b3	0.10002079
100	0x3e075933	0.1321762
101	0x3e973c28	0.29538083
102	0x3e01856a	0.1264855
103	0xbde88e61	-0.113552816
104	0xbe24e890	-0.1610434
105	0x3ecafb3b	0.396448
106	0x3e97d4fe	0.29654688
107	0xbeb2a9aa	-0.34895068
108	0xbdb3730c	-0.08762178
109	0xbe5f4fe6	-0.21807823
110	0x3d9d54dd	0.07682202
111	0xbdd4e10c	-0.10394487
112	0x3dadbf83	0.084837936
113	0x3d1f9f7b	0.03897045
114	0x3eeb1d01	0.45920566
115	0x3d95665e	0.072949156
116	0xbe6b1a89	-0.22959341
117	0x3e175178	0.14777172
118	0xbd5c04b3	-0.05371542
119	0x3c903e17	0.017607732
120	0xbe465fa8	-0.19372427
121	0x3c7e4705	0.015519862
122	0xbe962e54	-0.2933222
123	0xbd4ddb59	-0.050258014
124	0x3ee08951	0.43854764
125	0x3e609809	0.21932997
126	0xbd9d2c15	-0.076744236
127	0xbe66e28c	-0.22547358
128	0x3ead4373	0.33840522
129	0x3e89de3a	0.26927358
130	0xbdaef9da	-0.08543749
131	0xbd6c906c	-0.05775492
132	0x3eac6e72	0.33678013
133	0x3e890606	0.26762408
134	0x3c574c1c	0.0131407045
135	0xbe430fe3	-0.19049029
136	0xbe5eb349	-0.2174808
137	0x3e6104e9	0.2197453
138	0x3f03a769	0.5142732
139	0xbef2dddf	-0.474349
140	0x3e0bef29	0.13665451
141	0xbd8b7cf7	-0.068109445
142	0x3e3c7825	0.18405207
143	0xbcc580cc	-0.024109267
144	0x3d916e23	0.07101085
145	0x3e626303	0.22108082
146	0x3ecb5dcb	0.39719996
147	0xbe55c3fb	-0.20875542
148	0xbe0a9ac3	-0.135356
149	0x3ee0edf6	0.4393155
150	0xbe42622c	-0.18982762
151	0x3f00a916	0.50258005
152	0xbdb696bf	-0.08915471
153	0xbcd86aed	-0.026418174
154	0xbf2b29d6	-0.6686071
155	0x3d887ffd	0.06665037
156	0x3f227bb1	0.6346999
157	0x3e91c73b	0.28472313
158	0x3d9fe6dd	0.078077056
159	0xbd0d10e4	-0.034439936
160	0x3baf1f66	0.005344319
161	0xbcd9b66b	-0.026576241
162	0xbe442652	-0.19155243
163	0xbe6f8565	-0.2339073
164	0xbde13a54	-0.10997453
165	0x3ddd62be	0.10809849
166	0x3e303274	0.17206746
167	0x3d8993ac	0.06717619
168	0xbe6b2b42	-0.2296572
169	0x3e460404	0.1933747
170	0xbe446450	-0.19178891
171	0x3d9e2016	0.07720964
172	0x3dc81f64	0.09771612
173	0x3eefe34f	0.4685311
174	0x3db5b042	0.08871509
175	0xbde15747	-0.11002975
176	0x3d0403e9	0.03223029
177	0xbe53332e	-0.20624992
178	0x3d1718af	0.036888774
179	0x3e6ce9c0	0.23136044
180	0xbe28e75e	-0.1649451
181	0x3da7758e	0.08176719
182	0xbe4a8f1d	-0.19781156
183	0x3a934428	0.0011235522
184	0x3e17e3b4	0.14832956
185	0x3dfd9062	0.123810545
186	0xbdab350e	-0.08359729
187	0xbd824123	-0.0636008
188	0x3d12b7d0	0.03581983
189	0xbde0dbed	-0.109794475
190	0x3d9d0074	0.07666102
191	0xbd9a8fb1	-0.07546938
192	0x3c86d98f	0.016461162
193	0xbe592b8a	-0.21208015
194	0xbed55cb7	-0.41672298
195	0xbd406c1b	-0.046978097
196	0x3e5a6273	0.21326618
197	0xbe046922	-0.1293073
198	0x3e814ce7	0.25253984
199	0xbd4427e5	-0.04788961
200	0xbdb3e275	-0.087834276
201	0x3e09a8e9	0.1344334
202	0xbde02385	-0.10944275
203	0xbd8e8dc5	-0.06960634
204	0x3e1ccf66	0.15313491
205	0x3e9e010b	0.3086017
206	0x3d900434	0.07032052
207	0xbd8ba3bd	-0.0681834
208	0x3c9adece	0.01890507
209	0x3b86e2e6	0.004116404
210	0x3e45f730	0.19332576
211	0xbdd7feb5	-0.105466284
212	0xbd18ab57	-0.037272777
213	0x3e75bdc2	0.23998168
214	0xbd8cb922	-0.06871249
215	0x3e401c9e	0.18760917
216	0xbc5349aa	-0.012895981
217	0x3d062904	0.03275396
218	0xbd3c4d25	-0.04597201
219	0xbcded586	-0.027201425
220	0xbdcb3d15	-0.0992376
221	0xbd70c6ea	-0.05878345
222	0x3d8e1238	0.06937069
223	0x3e0fe4fc	0.14052194
224	0xbdf9f8ba	-0.12205644
225	0x3e73491d	0.23758359
226	0xbeff513d	-0.49866667
227	0xbdd4661e	-0.1037104
228	0x3d9efde2	0.07763268
229	0xbdb23318	-0.087011516
230	0x3e70f051	0.23529173
231	0x3e3b2d7a	0.18279067
232	0xbe5abcaf	-0.2136104
233	0x3dd2f65b	0.10300895
234	0xbd99eeed	-0.075162746
235	0xbc34ce6a	-0.011035541
236	0x3d99aabb	0.075032674
237	0xbdce56a8	-0.10075122
238	0xbe47f392	-0.19526508
239	0xbe3dbdef	-0.18529485
240	0x3e2c6e88	0.1683904
241	0xbd124706	-0.035712264
242	0x3e0a39ea	0.13498655
243	0x3e36295e	0.17789218
244	0xbe7132ad	-0.23554488
245	0x3d537006	0.051620506
246	0x3bf39af8	0.007434245
247	0x3d22a0a3	0.039703976
248	0xbde70361	-0.11279941
249	0x3d90221c	0.07037756
250	0x3b87fafa	0.004149792
251	0xb8fd6b80	-0.000120840035
252	0xbdac3a5c	-0.08409569
253	0xbd3bf2ab	-0.045885723
254	0xbc90afa6	-0.01766188
255	0xbbe5662d	-0.0070007057

lstm.weight_hh_l1 f4 [128, 32]
0	0xbe6101ee	-0.21973392
1	0xbd869597	-0.06571501
2	0x3e3ac5fe	0.1823959
3	0x3daf41ad	0.085574485
4	0x3e123779	0.14278974
5	0xbd33c948	-0.04389313
6	0x3df17a68	0.11790925
7	0xbd308f47	-0.04310539
8	0xbe266176	-0.16248116
9	0xbe318e57	-0.17339455
10	0xbde02c37	-0.10945933
11	0x3e5b73e4	0.21430928
12	0xbe686564	-0.22694927
13	0xbe0e6638	-0.13906181
14	0xbde8b7c2	-0.11363174
15	0x3e2868bc	0.16446203
16	0xbe18e0ba	-0.14929476
17	0x3e0d7635	0.13814624
18	0xbe4ef8bf	-0.20212077
19	0x3da41328	0.08011466
20	0xbd714392	-0.05890233
21	0x3cce0691	0.025149615
22	0xbdba3ae9	-0.090932675
23	0xbdd45073	-0.10366907
24	0xbd73b0d9	-0.059494827
25	0xbdb5c905	-0.08876232
26	0xbdd54efc	-0.10415456
27	0x3c0be44d	0.008538318
28	0x3dd6c8e3	0.10487535
29	0xbe1636df	-0.14669369
30	0x3e1ee306	0.1551629
31	0xbd282137	-0.0410473
32	0xbd2ded74	-0.04246278
33	0xbd0f4728	-0.03497997
34	0x3b30a1ee	0.0026951986
35	0xbe10844a	-0.14112964
36	0xbe8d3d67	-0.2758591
37	0xbe2398f8	-0.15976322
38	0x3d735610	0.059408247
39	0x3e281944	0.16415888
40	0xbe1a4d70	-0.15068603
41	0x3e917c83	0.28415307
42	0xbe668d7d	-0.22514911
43	0xbe2f3c28	-0.17112792
44	0x3e5fb1c9	0.21845163
45	0x3ef1737f	0.4715843
46	0xbb770168	-0.0037690047
47	0xbe2646b4	-0.16237909
48	0x3c0b31fa	0.008495802
49	0xbe8f795c	-0.28022277
50	0x3e2fb995	0.17160638
51	0xbd8ee070	-0.06976402
52	0xbe42ec44	-0.1903544
53	0x3e494d63	0.19658427
54	0x3e31d626	0.17366847
55	0xbe6c255f	-0.23061131
56	0xbce731b0	-0.028221935
57	0xbe04e4fc	-0.12977976
58	0xbe0fb3d0	-0.14033437
59	0xbe2f131c	-0.17097133
60	0x3e8f7061	0.28015426
61	0xba46f224	-0.00075891824
62	0xbe7a640e	-0.2445223
63	0xbe4406a7	-0.19143163
64	0x3daadd54	0.08342996
65	0xbd198198	-0.037477106
66	0x3d2b74bd	0.041859377
67	0x3ca9d5ed	0.02073189
68	0x3dca4f1d	0.09878371
69	0x3e39a0ad	0.18127699
70	0xbd3185f4	-0.04334064
71	0xbe31bc59	-0.17357005
72	0xbbc07627	-0.00587346
73	0x3be5cb58	0.007012766
74	0x3cc4d8a9	0.024029093
75	0xbe1900b0	-0.14941669
76	0xbdebe725	-0.11518697
77	0x3db04006	0.086059615
78	0xbe20f759	-0.15719356
79	0x3e362abc	0.1778974
80	0xbdb1b281	-0.08676625
81	0x3dfcd42e	0.123451576
82	0x3d1e506e	0.038650922
83	0x3e48aeb6	0.19597897
84	0xbd4059e7	-0.046960738
85	0xbc83b34f	-0.016076712
86	0xbe2aa70c	-0.16665286
87	0x3d8585b5	0.06519643
88	0x3da7a613	0.08185973
89	0x3e2b203c	0.16711515
90	0x3c2cc023	0.010543856
91	0x3e18013f	0.14844225
92	0xbd8de6ff	-0.06928825
93	0xbe21d386	-0.15803346
94	0x3ddbff4c	0.107420534
95	0xbe11f55b	-0.14253752
96	0xbd6724a2	-0.05643142
97	0xbd6dbfbc	-0.05804418
98	0xbd715a3a	-0.058923937
99	0xbe1acf9f	-0.15118264
100	0xbe09c383	-0.13453488
101	0x3d097194	0.033555582
102	0xbe486c87	-0.1957265
103	0x3dbbac96	0.091637775
104	0x3e3eea7a	0.18644133
105	0x3ec0118f	0.37513396
106	0x3d417de1	0.047239188
107	0x3e52cc58	0.20585763
108	0x3e90e539	0.28299883
109	0x3e5f30a4	0.21795899
110	0x3d491330	0.049090564
111	0xbd73057d	-0.059331406
112	0xbbee4bc6	-0.0072722165
113	0xbb20d038	-0.002453817
114	0x3dddfd74	0.10839358
115	0xbe2dfa8e	-0.1699011
116	0xbd9288c9	-0.07154996
117	0x3e1d8aaf	0.15384935
118	0x3c15c809	0.00914193
119	0xbe82edc7	-0.25572035
120	0x3c5bbbda	0.0134114865
121	0xbe210a0a	-0.15726486
122	0xbc2e626d	-0.010643584
123	0x3e28ddb2	0.1649082
124	0x3ed15890	0.4088788
125	0x3de6e1f5	0.11273567
126	0xbe93932a	-0.28823215
127	0xbdcceae6	-0.10005741
128	0x3de18dcb	0.11013373
129	0x3dbfcf98	0.09365767
130	0xbd234bcb	-0.039867204
131	0xbc1e0069	-0.0096436525
132	0xbd28d74c	-0.041220948
133	0x3e068e4f	0.13140224
134	0xbe7d0dac	-0.24712247
135	0xbc8e5173	-0.017372822
136	0x3cccbb95	0.02499179
137	0x3eb76947	0.35822508
138	0x3c2b9308	0.010472067
139	0x3ec5dc65	0.3864471
140	0x3e972c51	0.29525998
141	0x3f1112a2	0.56669056
142	0xbd3d1901	-0.046166424
143	0xbd27fd73	-0.041013192
144	0xbe05b342	-0.13056663
145	0xbe35e50f	-0.1776316
146	0xbd4db076	-0.050217114
147	0xbda06129	-0.07831032
148	0xbc9c1125	-0.019051144
149	0x3d5d4e47	0.05402973
150	0x3dc7ea52	0.0976149
151	0xbef2f90f	-0.47455642
152	0xbe3fe8c1	-0.18741132
153	0x3d1bbe98	0.03802356
154	0xbeac2529	-0.336221
155	0x3ea81d4e	0.32834858
156	0x3f075027	0.5285668
157	0xbd31b766	-0.043387793
158	0xbe937b3f	-0.28804967
159	0xbe71807e	-0.23584172
160	0x3d9cd0a1	0.0765698
161	0x3e1e7d46	0.15477476
162	0x3cceb16e	0.02523109
163	0x3d4fcc93	0.050732207
164	0x3dd1db49	0.102469034
165	0x3da3706e	0.07980429
166	0x3dd1f483	0.10251715
167	0x3ccadf58	0.024764702
168	0x3d32778b	0.043571036
169	0xbd852f10	-0.06503117
170	0xbc1b1630	-0.009465739
171	0x3d618227	0.055055764
172	0xbe5461ee	-0.20740482
173	0xbe26d833	-0.16293411
174	0xbe4bcb11	-0.19901682
175	0x3e030915	0.12796433
176	0xbe6ca8df	-0.23111294
177	0x3c7f5a3d	0.015585479
178	0xbcbf3892	-0.023342405
179	0x3d80aaf9	0.062826104
180	0xbcf28159	-0.029602693
181	0x3d609cc6	0.05483701
182	0xbe21d0a8	-0.15802252
183	0xbe1d2539	-0.1534623
184	0x3e18b180	0.14911461
185	0xbdc538f4	-0.096300036
186	0x3dafd5b9	0.08585686
187	0xbe025d16	-0.12730822
188	0xbde2d6f2	-0.11076154
189	0xbe7fb06a	-0.2496964
190	0x3c9bb839	0.019008743
191	0x3cf45bf1	0.029828997
192	0xbd850de7	-0.06496792
193	0x3d58c9d4	0.052926853
194	0x3e6063ab	0.2191302
195	0x3d8dcaef	0.06923472
196	0xbd81fd6f	-0.06347167
197	0xbd19578e	-0.037437014
198	0x3c4e7c00	0.012602806
199	0xbcf54861	-0.02994174
200	0xbcb656dd	-0.022258217
201	0xbd936d31	-0.07198561
202	0x3e26d2a9	0.16291298
203	0xbe0201e1	-0.12696029
204	0xbe23cf79	-0.15997113
205	0x3e2f22c6	0.17103109
206	0xbe39880b	-0.18118303
207	0x3dc4004b	0.095703684
208	0xbca947c7	-0.020664109
209	0x3d7a08bb	0.061043482
210	0xbd29ee4c	-0.041487023
211	0xbc437099	-0.011928701
212	0xbc5bcd90	-0.013415709
213	0xbd8b4135	-0.06799547
214	0xbe111499	-0.14168014
215	0xbcb1706d	-0.021660054
216	0xbe3886d7	-0.18020187
217	0xbe0f0220	-0.13965654
218	0x3d1e3d46	0.038632654
219	0xbc98ec75	-0.018667439
220	0xbdccb96b	-0.09996303
221	0x3db70d11	0.08938039
222	0xbe4957d8	-0.19662416
223	0xbcf1589f	-0.029461203
224	0xbe2a3de8	-0.16625178
225	0xbe2928ce	-0.16519472
226	0x3e2e437b	0.1701793
227	0xbb00eaee	-0.001967128
228	0xbe264b35	-0.16239627
229	0x3e174287	0.14771472
230	0x3dff0198	0.12451476
231	0xbde269ce	-0.11055337
232	0x3d37aae8	0.044840723
233	0xbbe13be8	-0.0068735965
234	0xbd3dcace	-0.046335988
235	0x3d9434aa	0.072366074
236	0xbd2eedd0	-0.042707264
237	0x3e381d84	0.1798001
238	0x3d734b63	0.059398066
239	0x3d49795c	0.049188003
240	0x3d77115f	0.0603193
241	0x3dfdd41e	0.12393974
242	0xbc933bcf	-0.017972855
243	0x3d82e9fb	0.063922845
244	0x3d92e357	0.07172268
245	0x3dd4fb8e	0.10399543
246	0xbe408d0a	-0.18803802
247	0xbe254524	-0.16139656
248	0x3e2385fc	0.1596908
249	0xbe132d62	-0.14372781
250	0x3e0e9b09	0.13926329
251	0x3e4e2fb5	0.20135386
252	0xbda6970a	-0.08134277
253	0xbe327999	-0.17429198
254	0x3dc761c1	0.09735442
255	0x3d90520f	0.070469014

lstm.bias_ih_l1 f4 [128]
0	0xbd49d5a2	-0.049276
1	0xbdd6f600	-0.104961395
2	0xbcc8d761	-0.024516763
3	0x3d82b1bb	0.06381556
4	0xbe223b73	-0.1584299
5	0xbda68e58	-0.08132619
6	0xbd2e8e84	-0.042616382
7	0x3e4fd72c	0.20296925
8	0xbbe5e805	-0.0070161843
9	0x3e609377	0.21931253
10	0xbd0f6124	-0.03500475
11	0x3e552b99	0.20817412
12	0x3e8c508f	0.2740521
13	0x3eacc4f5	0.33744016
14	0xbdbc0498	-0.09180564
15	0x3e3d7164	0.18500286
16	0x3c32ef17	0.010921261
17	0x3ea2ee9f	0.31822678
18	0xbde37148	-0.11105591
19	0xbe2cedc3	-0.16887574
20	0x3e3e992a	0.18613115
21	0x3e227194	0.15863639
22	0x3e428a16	0.18997988
23	0x3e25a74a	0.16177097
24	0xbe577495	-0.21040566
25	0x3e07e27f	0.13269995
26	0x3d08aa12	0.033365317
27	0xbdf634e2	-0.12021805
28	0x3eba5483	0.36392602
29	0xbe0d487c	-0.13797182
30	0x3e681751	0.22665145
31	0x3e836b05	0.25667587
32	0x3d82405b	0.06359931
33	0x3ca4b4c5	0.020105729
34	0x3bac0e31	0.005250715
35	0xbcb786f8	-0.022403225
36	0xbd14cf46	-0.036330484
37	0x3def4055	0.11682192
38	0xbd3f75fb	-0.046743374
39	0x3ddf307a	0.10897918
40	0xbe541567	-0.2071129
41	0xbe19b476	-0.15010247
42	0xbe3aef80	-0.18255424
43	0xbd529211	-0.05140883
44	0xbd4b1027	-0.04957595
45	0x3d1f0012	0.038818426
46	0xbe240cc0	-0.16020489
47	0xbc18e62b	-0.00933222
48	0xbdb413cc	-0.087928385
49	0xbe23b058	-0.15985239
50	0x3e4b5034	0.19854814
51	0x3e1eb977	0.15500437
52	0x3d820535	0.063486494
53	0xbdffd2ee	-0.124914035
54	0x3d010b24	0.031504765
55	0x3b48bdb0	0.003063064
56	0xbe0daa34	-0.13834459
57	0xbd2af2e9	-0.041735563
58	0xbe194fee	-0.14971897
59	0xbe0bf936	-0.13669285
60	0xbb979398	-0.004625749
61	0xbdf87076	-0.12130825
62	0x3df91437	0.12162059
63	0x3e528d22	0.2056165
64	0x3d5496e4	0.051901713
65	0xbd12176a	-0.03566686
66	0xbdfb7591	-0.122782834
67	0x3b8733b2	0.0041260356
68	0x3decf3b3	0.115699194
69	0xbcc29ef7	-0.023757441
70	0x3d90d37b	0.07071587
71	0x3b841fe0	0.00403212
72	0x3c605b93	0.013693708
73	0x3d2770c9	0.040879045
74	0xbd949e7e	-0.072567925
75	0x3cee39a6	0.029080223
76	0x3d9fefae	0.07809387
77	0xbdd357d2	-0.10319485
78	0xbd7c6066	-0.06161537
79	0xbdb10817	-0.08644121
80	0x3e19fca9	0.15037788
81	0x3ce985ef	0.028506247
82	0x3c9ee94f	0.01939836
83	0xbe093ec7	-0.13402854
84	0xbd309dda	-0.04311929
85	0xbdf43e12	-0.119259015
86	0xbe1bf613	-0.15230589
87	0x3a0b369e	0.0005310568
88	0x3c274906	0.010210281
89	0xbd81c080	-0.063355446
90	0x3d544337	0.051821914
91	0xbcee2979	-0.02907251
92	0x3d21856b	0.039433878
93	0xbdd66e65	-0.10470275
94	0xbded30f1	-0.115816005
95	0x3cfe3c81	0.03103471
96	0xba6b8226	-0.0008983932
97	0xbc8a833c	-0.01690828
98	0x3e5aec72	0.21379259
99	0x3d3530d9	0.044236038
100	0x3e521ab7	0.20518003
101	0xbc0a75ed	-0.008450967
102	0x3e1c0b5c	0.15238708
103	0x3e549472	0.20759752
104	0x3d564fb4	0.052322105
105	0x3dada76e	0.084792
106	0x3d441822	0.047874577
107	0x3e912db6	0.28355187
108	0x3d33fa09	0.043939624
109	0x3c9ea845	0.019367347
110	0x3e610cf9	0.21977605
111	0x3d3edb2a	0.04659573
112	0x3e79833b	0.24366467
113	0x3d885420	0.066566706
114	0xbd40ec1f	-0.047100183
115	0xbd8155f1	-0.0631522
116	0x3e11a74d	0.14223976
117	0x3e91a452	0.2844568
118	0x3e16bfce	0.14721605
119	0x3e1ed070	0.155092
120	0xbd1dabfd	-0.0384941
121	0x3b945c30	0.004527591
122	0x3e757971	0.23972107
123	0x3d88cf66	0.06680183
124	0x3daa835a	0.083258346
125	0xbda23161	-0.079195745
126	0x3eaf1e41	0.3420277
127	0x3d7a0480	0.061039448

lstm.bias_hh_l1 f4 [128]
0	0xbdb7a1c1	-0.08966399
1	0xbd22726a	-0.039659895
2	0x3c46b84c	0.012128901
3	0xbe131b93	-0.14365987
4	0xbd18aecb	-0.03727607
5	0xbdaed148	-0.08536011
6	0xbe035995	-0.12827142
7	0x3d9114b2	0.070840254
8	0xbe12bf7c	-0.14330858
9	0x3e95594a	0.29169685
10	0x3d9b0412	0.07569136
11	0x3be6ef10	0.0070475414
12	0x3e93dd18	0.2887962
13	0x3e1ee13b	0.15515606
14	0x3e57883f	0.21048068
15	0x3e400449	0.18751635
16	0xbb021a7e	-0.0019852216
17	0x3c0e6383	0.008690718
18	0xbc825d87	-0.015913738
19	0xbc713229	-0.014721432
20	0x3e02179a	0.12704316
21	0x3ec21b32	0.37911373
22	0x3dcd1678	0.10014051
23	0x3e01ffae	0.1269519
24	0xbc2975c7	-0.010343022
25	0x3dd95316	0.106115505
26	0x3be9c2ae	0.0071338033
27	0x3d56d0f1	0.052445356
28	0x3e57bf60	0.21069098
29	0xbddcf35b	-0.10788604
30	0x3d808c52	0.06276764
31	0x3e3e7b50	0.18601727
32	0x3bd242e4	0.0064166654
33	0xbe3dbbd4	-0.18528682
34	0x3defc0b3	0.11706676
35	0x3d549f43	0.051909696
36	0x3d28ca2f	0.041208442
37	0xbd9d3efb	-0.07678028
38	0x3d8a7c8f	0.06762039
39	0x3d86f389	0.065894194
40	0x3d0cd40b	0.034381907
41	0xbe5ab8a7	-0.21359502
42	0x3dddfdbe	0.10839413
43	0x3d0731c2	0.033006437
44	0xbd4e533a	-0.05037234
45	0xbc8cb14a	-0.017174382
46	0xbe15ee63	-0.14641719
47	0xbd812c5b	-0.06307288
48	0xba8cdac0	-0.0010746345
49	0xbce69877	-0.028148873
50	0xbdc841d5	-0.097781815
51	0x3df6a59b	0.120433055
52	0x3ccccc67	0.02499981
53	0xbdc2bf48	-0.0950914
54	0x3e24a1c8	0.1607734
55	0xbe3b5ba8	-0.18296683
56	0x3e147c9a	0.14500657
57	0x3d86a702	0.06574823
58	0xbbf774c8	-0.007551763
59	0xbc713db5	-0.014724185
60	0xbe3c33a7	-0.18379079
61	0xbde2cb47	-0.11073928
62	0xbde947f9	-0.11390681
63	0xbdf1c714	-0.11805549
64	0x3dbfefff	0.093719475
65	0x3d8259fc	0.063648194
66	0x3cd93ffb	0.026519766
67	0xba5398c1	-0.00080717733
68	0xbde4ca1c	-0.11171362
69	0x3af82ae7	0.0018933684
70	0xbd4e60e5	-0.050385375
71	0xbe34ea8e	-0.176676
72	0xbd23e844	-0.040016428
73	0x3ce0b937	0.027432067
74	0xbdc6b4bb	-0.0970244
75	0x3d12305e	0.035690658
76	0x3c33990f	0.010961785
77	0xbb8d2945	-0.004307898
78	0xbe45acc0	-0.1930418
79	0x3e06e2e6	0.13172492
80	0x3d5a5e47	0.053312566
81	0xbd51f46d	-0.051258493
82	0xbe3a5270	-0.1819551
83	0x3e1909ef	0.14945196
84	0xbe06a373	-0.13148288
85	0x3bb96d88	0.005658809
86	0xbe36f3b8	-0.17866409
87	0xbdafb1bb	-0.08578821
88	0xbc5952a8	-0.013264336
89	0xbe559020	-0.2085576
90	0xbd8154f1	-0.063150294
91	0x3d843478	0.0645532
92	0xbd9ae523	-0.075632356
93	0xbe43095a	-0.19046536
94	0x3dfe85db	0.12427875
95	0x3e690e4a	0.22759357
96	0x3cd52de8	0.026022866
97	0x3d8802ad	0.06641135
98	0x3e946f1d	0.28991023
99	0x3dd87f96	0.1057121
100	0x3e4db25f	0.20087574
101	0xbbebb3d8	-0.00719307
102	0x3e105d03	0.14097981
103	0x3d0f18d2	0.03493578
104	0x3d9746ca	0.07386549
105	0x3e659c92	0.22423008
106	0xbdf6bbd4	-0.12047544
107	0x3e039fd6	0.12853941
108	0x3dfab680	0.1224184
109	0x3e4c7da6	0.19969806
110	0x3e81a7d5	0.25323358
111	0x3e8a1d43	0.2697545
112	0x3d2e21df	0.04251277
113	0x3d3d7f7b	0.046264153
114	0xbe01aa15	-0.12662537
115	0x3d7456c7	0.05965307
116	0x3d34522e	0.044023685
117	0x3d335452	0.043781586
118	0xbd63af62	-0.05558718
119	0x3d5286d9	0.051398132
120	0xbb940b56	-0.004517953
121	0xbdc731e0	-0.0972631
122	0x3e2f5465	0.17122038
123	0x3e831d56	0.2560832
124	0x3e853d74	0.26023448
125	0x3e43bf55	0.19115956
126	0x3e5c8309	0.21534361
127	0x3dcaf133	0.09909286

fc.weight f4 [1, 32]
0	0xbf614469	-0.8799501
1	0x3f5a114f	0.8518266
2	0x3f5b7cc0	0.8573723
3	0xbf77b31c	-0.96757674
4	0xbf7a095d	-0.9767054
5	0x3f4aab4a	0.79167616
6	0x3f5907c5	0.8477748
7	0xbf660dc1	-0.89864737
8	0xbf48c3ea	-0.7842394
9	0x3f83afea	1.028806
10	0x3f59f780	0.8514328
11	0xbf727c9c	-0.9472139
12	0x3f4b8cd4	0.7951176
13	0x3f513d08	0.8173375
14	0xbf546ce4	-0.82978654
15	0x3f517bf1	0.81829745
16	0xbf81eddd	-1.0150715
17	0xbf621a17	-0.8832106
18	0xbf563975	-0.8368142
19	0x3f672b93	0.90300864
20	0x3f4591b1	0.7717543
21	0x3f595935	0.84901744
22	0xbf619586	-0.8811878
23	0xbf73b682	-0.9520036
24	0xbf7e1c92	-0.99262345
25	0xbf5fd789	-0.87438256
26	0x3f6b49d5	0.91909534
27	0xbf7b8d4d	-0.9826248
28	0x3f428cf6	0.7599634
29	0xbf78a0ae	-0.9712018
30	0xbf803a59	-1.0017806
31	0x3f5e44ec	0.86823916
